paper_pretrained_models/all_models/fold1_treg_yfnat_b128_e20_lr0.001_3.pt (torch, 150943 bytes, 33 tensors)

conv1.fc.weight f4 [16, 48]
0	0x3e9bd18d	0.30433312
1	0xbd1c3e89	-0.038145576
2	0xbf07c3a1	-0.5303288
3	0x3d8af2df	0.06784605
4	0xbeb076ff	-0.34465787
5	0x3d75f0b6	0.060044013
6	0xbea8bf9c	-0.32958686
7	0xbcc8b19b	-0.024498751
8	0xbeae9514	-0.34098113
9	0x3cc323f1	0.02382085
10	0xbccfac73	-0.025350785
11	0x3f0b030a	0.5430151
12	0xbd0d6992	-0.034524508
13	0x3d1649ee	0.0366916
14	0xbf172895	-0.590463
15	0xbe9109fe	-0.28327936
16	0xbe152857	-0.1456617
17	0x3d9fa9df	0.07796072
18	0xbe052d53	-0.13005571
19	0xbd891c2b	-0.06694826
20	0x3cc1aa2e	0.023640718
21	0xbe8018b8	-0.2501886
22	0xbe56251e	-0.20912597
23	0xbd898371	-0.067145236
24	0xbd06f1df	-0.03294551
25	0x3d767f6e	0.06018012
26	0x3cfe42c3	0.031037694
27	0x3e1fd51f	0.15608643
28	0x3d942e8c	0.072354406
29	0x3eab242b	0.3342603
30	0xbccd74f8	-0.02508019
31	0x3d751793	0.059836935
32	0x3e51539a	0.20442048
33	0x3dc1ac08	0.094566405
34	0xbdd93526	-0.106058404
35	0xbde46ced	-0.111535884
36	0x3dd1cc6a	0.10244067
37	0xbe567085	-0.2094136
38	0xbe2196d3	-0.15780191
39	0xbd270df6	-0.0407848
40	0x3d08c683	0.03339244
41	0xbdbc5747	-0.09196334
42	0xbe237195	-0.15961297
43	0xbe56bfa4	-0.20971543
44	0xbe178251	-0.14795806
45	0xbe0a3aa5	-0.13498934
46	0x3dc165eb	0.094432674
47	0x3dc60d69	0.096705265
48	0xbe32fa0a	-0.17478195
49	0x3eb5df81	0.35522082
50	0x3ebb717d	0.36610022
51	0x3bf3c856	0.0074396534
52	0x3eb5c915	0.35504976
53	0xbe9b1027	-0.3028576
54	0xbe61c5ad	-0.22048064
55	0x3dc75ad4	0.09734121
56	0xbe9c52cd	-0.30531922
57	0xbe176742	-0.14785483
58	0x3e0a36da	0.13497487
59	0xbe4dbf80	-0.20092583
60	0xbe1c559d	-0.15267034
61	0x3f0efa6f	0.5585088
62	0x3e2d23ba	0.1690816
63	0x3eb543e3	0.35403356
64	0x3dddc0b4	0.10827771
65	0x3e8769cf	0.26447913
66	0xbe626372	-0.22108248
67	0x3d90dcc9	0.070733614
68	0x3e56fee0	0.20995665
69	0x3e993699	0.29924467
70	0x3da9f574	0.082987696
71	0x3d906d20	0.07052064
72	0xbce19b27	-0.027539803
73	0xbdea0fde	-0.11428808
74	0xbc0ca733	-0.008584785
75	0xbd464ed8	-0.048415035
76	0x3e07bce9	0.13255657
77	0x3de48b34	0.111593634
78	0xbd77ccbe	-0.06049799
79	0x3dd33e16	0.10314576
80	0x3c4d3999	0.012525939
81	0xbc929ed0	-0.017897993
82	0xbc1fab51	-0.009745435
83	0xbe8f019b	-0.27930912
84	0xbe452588	-0.19252598
85	0xbd783ef4	-0.06060691
86	0x3c249bb7	0.010046891
87	0x3d548394	0.051883295
88	0x3e4cd570	0.20003295
89	0xbe4ee424	-0.20204216
90	0x3c6bc9ff	0.014391421
91	0xbd1ac188	-0.037782222
92	0x3d1a7fed	0.037719656
93	0xbdbafb06	-0.0912991
94	0xbe750495	-0.23927529
95	0x3ce67228	0.028130606
96	0xbe968570	-0.2939868
97	0x3dc145ce	0.09437142
98	0x3c7945de	0.015214412
99	0x3dd634c3	0.10459282
100	0x3e398856	0.18118414
101	0xbe7548ed	-0.239536
102	0xbeb4073a	-0.35161763
103	0xbdaa3f5e	-0.083128676
104	0xbe548537	-0.20753942
105	0xbd5afb5f	-0.053462382
106	0xbe749f24	-0.23888832
107	0x3d7016cc	0.05861549
108	0x3e86e715	0.26348177
109	0xbed3276b	-0.4124101
110	0xbd38e61d	-0.045141328
111	0x3e94792c	0.28998697
112	0x3dc55cbe	0.0963683
113	0x3e4198ca	0.1890594
114	0x3ecc983f	0.39959905
115	0x3e540cc6	0.20707998
116	0xbdd04bc5	-0.10170702
117	0xbdc20c2c	-0.09474978
118	0x3f069eca	0.5258604
119	0x3dd143be	0.10217999
120	0xbe6c9488	-0.23103535
121	0xbea509fe	-0.32234186
122	0xbcf2708f	-0.029594688
123	0x3c7a6edf	0.015285223
124	0xbd46e362	-0.048556693
125	0xbdad0f4a	-0.08450182
126	0xbe08ebb7	-0.13371168
127	0x3e24cf39	0.16094674
128	0xbe05321c	-0.13007396
129	0xbdb208bc	-0.08693072
130	0x3d9a6b37	0.07539981
131	0xbe08eac5	-0.13370807
132	0xbdc66af1	-0.09688366
133	0xbe6567b4	-0.22402841
134	0xbcf29789	-0.029613273
135	0xbda2aa9a	-0.07942696
136	0xbcb0f054	-0.021598972
137	0x3d540ffd	0.05177306
138	0x3cd55456	0.026041191
139	0x3c987c9b	0.018614104
140	0xbd7196ff	-0.05898189
141	0x3d28a49a	0.0411726
142	0x3cf15e96	0.029464047
143	0xbdd93f8a	-0.10607822
144	0xbd4667cc	-0.048438832
145	0xbe552365	-0.20814283
146	0x3cf1d5b9	0.029520856
147	0xbeea7b91	-0.457974
148	0x3d8b21fd	0.06793592
149	0x3e54a00d	0.2076418
150	0x3eae63da	0.34060556
151	0xbe9a6028	-0.30151486
152	0xbe422a2b	-0.18961398
153	0xbc4b89b5	-0.012422969
154	0x3e919045	0.2843038
155	0x3c0d8221	0.008636982
156	0x3e4c1df0	0.19933295
157	0x3c15b9d0	0.009138539
158	0xbb2e17b1	-0.0026564414
159	0xbdcc10ad	-0.09964118
160	0x3ef50214	0.47853148
161	0xbd303de9	-0.043027792
162	0x3e9c86ff	0.30571744
163	0x3ea766e2	0.3269568
164	0x3c783ced	0.015151245
165	0x3db52a77	0.0884599
166	0x3e73bbd5	0.23802121
167	0x3e8fbfa8	0.2807591
168	0xbd7e197a	-0.062036015
169	0x3d3fa44e	0.046787553
170	0xbd814bc8	-0.06313282
171	0xbdd1b837	-0.10240214
172	0xbe11c754	-0.14236194
173	0xbdb876ac	-0.0900701
174	0xbe12add2	-0.1432412
175	0xbd844ed0	-0.06460345
176	0xbc3fb5bf	-0.0117010465
177	0xbe06cd81	-0.13164331
178	0x3cfa00ec	0.030518018
179	0xbde127e6	-0.10993938
180	0xbe294aed	-0.16532488
181	0x3b543335	0.0032379155
182	0x3e1fa3c1	0.15589811
183	0xbd4c4f12	-0.049880095
184	0xbe27001f	-0.1630864
185	0xbbccc8f6	-0.0062495423
186	0x3d9519a8	0.07280284
187	0x3b96cc18	0.0046019666
188	0xbd02ea37	-0.031961646
189	0xbd91c6ab	-0.07117971
190	0x3e45a31d	0.19300504
191	0x3d440e49	0.047865186
192	0xbe1909a1	-0.1494508
193	0x3d196c84	0.037457004
194	0xbe0b91ae	-0.13629791
195	0xbeaeb7b5	-0.34124532
196	0xbe3f9b25	-0.18711527
197	0x3ecb8a23	0.39753827
198	0xbe926c33	-0.28598174
199	0xbcc1588c	-0.023601793
200	0x3ebb8e9b	0.36632237
201	0x3de974a2	0.11399199
202	0xbe548a3a	-0.20755854
203	0x3e4ae742	0.1981478
204	0xbbd40892	-0.006470748
205	0xbd0dd2a7	-0.03462472
206	0xbd79def9	-0.06100366
207	0xbd30baa6	-0.04314675
208	0xbe796487	-0.24354754
209	0xbcf51a26	-0.029919695
210	0xbed7bf1b	-0.4213799
211	0xbe2661f1	-0.16248299
212	0x3da2cf07	0.079496436
213	0xbd841083	-0.06448462
214	0xbef3eb48	-0.47640443
215	0xbe1ae4c1	-0.15126325
216	0x3d34b915	0.04412182
217	0x3dfa31ba	0.12216516
218	0x3d36dcfb	0.044644337
219	0x3dc7f382	0.09763242
220	0xbc747461	-0.014920325
221	0xbda85d2f	-0.08220898
222	0x3d52bceb	0.051449697
223	0xbd2b0dc6	-0.041761182
224	0xbdd6e977	-0.10493749
225	0x3d84591f	0.06462311
226	0xbbe223cc	-0.00690124
227	0x3e40ccc0	0.18828106
228	0xbe6a9e84	-0.22912031
229	0xbc26d7af	-0.010183259
230	0xbe17482c	-0.14773625
231	0xb858c883	-5.1685154e-05
232	0xbe4285ac	-0.18996304
233	0x3e29ff9a	0.1660141
234	0x3da425a3	0.08014991
235	0xbdb7af47	-0.089689784
236	0x3d155a3e	0.036463015
237	0xbe22d50f	-0.15901588
238	0x3e241d91	0.16026904
239	0xbc957fe3	-0.018249458
240	0x3e234e64	0.15947872
241	0x3d24a1b3	0.04019327
242	0x3d09a3fc	0.033603653
243	0x3c8d3a39	0.017239677
244	0xbeb63b63	-0.35592183
245	0xbf16a71d	-0.58848745
246	0xbd827654	-0.063702255
247	0x3e18021e	0.14844558
248	0x3e30fa70	0.17283034
249	0xbf461bdf	-0.7738628
250	0x3ea5a230	0.32350302
251	0xbf35c0e3	-0.70997447
252	0x3e29e3d9	0.16590823
253	0x3e61e1de	0.22058818
254	0x3e90edf4	0.28306544
255	0x3e001892	0.12509373

conv1.fc_attention.weight f4 [1, 33]
0	0x3c889eea	0.016677339
1	0xbe535dfa	-0.20641318
2	0xbe4e2a87	-0.2013341
3	0x3d82d52e	0.06388317
4	0x3d602cc0	0.054730177
5	0xbe706d29	-0.23479141
6	0x3d64e206	0.055879615
7	0x3d5420ae	0.05178898
8	0x3e0ff524	0.14058357
9	0x3ef6b258	0.4818294
10	0xbe05f013	-0.13079862
11	0x3c21858d	0.009858501
12	0x3ddd0d68	0.10793573
13	0xbe562d9b	-0.20915835
14	0x3e6b036f	0.22950529
15	0x3e4e5ef3	0.20153408
16	0x3de0378b	0.10948094
17	0xbe50f92d	-0.20407553
18	0xbd8bb63c	-0.06821868
19	0xbc4f159b	-0.0126394285
20	0x3e570388	0.20997441
21	0x3d3f041a	0.04663477
22	0xbe0fbc14	-0.1403659
23	0x3dae9915	0.08525292
24	0x3d7ded3c	0.061993822
25	0x3d510410	0.051029265
26	0xbe6bc445	-0.2302409
27	0x3e8b7dcc	0.27244413
28	0xbd817fed	-0.06323228
29	0xbe41b442	-0.18916419
30	0xbaacbc17	-0.0013178614
31	0x3dd21cba	0.102593854
32	0xbeb825fc	-0.3596648

conv2.fc.weight f4 [32, 16]
0	0xbd16f194	-0.03685148
1	0x3e6835ca	0.22676769
2	0xbca37fb7	-0.01995836
3	0x3de2b1de	0.11069082
4	0x3a042868	0.00050414214
5	0x3e87851c	0.26468742
6	0x3e15d4e2	0.1463199
7	0xbe928ae2	-0.28621584
8	0x3dda0b81	0.106467254
9	0x3e52fc83	0.20604138
10	0x3ce0f06f	0.027458398
11	0xbe99fa64	-0.30073845
12	0xbe3940c8	-0.18091118
13	0xbe13eb00	-0.14445114
14	0x3e36a594	0.178366
15	0x3c8ab98b	0.016934177
16	0x3e72f437	0.23725973
17	0xbe27ded4	-0.16393596
18	0x3edb7279	0.42860773
19	0x3e4834fc	0.19551462
20	0x3d7fafb5	0.062423427
21	0xbe75768a	-0.23971
22	0xbe1e24f0	-0.15443778
23	0xbebbbfab	-0.3666967
24	0xbda9da4b	-0.08293589
25	0xbe0a338b	-0.13496225
26	0x3e2a3e07	0.16625224
27	0xbde7012c	-0.112795204
28	0x3d9363d8	0.07196778
29	0x3be0fcaf	0.0068660597
30	0xbd0108a8	-0.031502396
31	0x3d8b1411	0.06790937
32	0xbe5f533c	-0.21809095
33	0x3e3ec630	0.1863029
34	0xbe0947df	-0.13406323
35	0x3e81072c	0.25200784
36	0xbd3f23ba	-0.04666493
37	0x3e597ffe	0.21240231
38	0x3d8f9ed9	0.0701272
39	0x3daf60ef	0.085634105
40	0xbd00ab75	-0.031413514
41	0xbe414472	-0.18873766
42	0xbc09605b	-0.008384789
43	0xbe5c64a1	-0.21522762
44	0x3d055335	0.032550056
45	0xbe08f51b	-0.1337475
46	0x3e43fb4e	0.19138834
47	0x3b3425b0	0.0027488284
48	0xbdf21db2	-0.1182207
49	0xbe73a9cc	-0.23795241
50	0x3e2ef5a0	0.17085886
51	0xbdcaf9f4	-0.09910956
52	0xbde954b3	-0.11393108
53	0xbdf05402	-0.11734773
54	0xbec56e13	-0.38560542
55	0xbe7ec0c0	-0.24878216
56	0xbe5e99af	-0.21738313
57	0x3e540770	0.20705962
58	0xbe3e169a	-0.1856331
59	0xbd550882	-0.052010067
60	0x3e61bf29	0.22045578
61	0xbe1b68d0	-0.15176702
62	0x3c82787b	0.01592659
63	0x3e1aebd6	0.15129027
64	0x3dbb1efc	0.09136769
65	0xbdba11fb	-0.09085461
66	0x3e43c7e7	0.19119225
67	0x3ea0a13f	0.3137302
68	0xbe70030e	-0.23438665
69	0xbd90bbf1	-0.07067097
70	0x3de9a950	0.11409247
71	0x3dac9c35	0.084282316
72	0x3e7e6bae	0.24845764
73	0x3d359b78	0.04433772
74	0x3d48babb	0.049006205
75	0x3da87770	0.08225906
76	0xbebe68be	-0.37189287
77	0xbe671fc2	-0.22570708
78	0x3cab7d4b	0.020933768
79	0x3d0eb540	0.034840822
80	0xbda70b4b	-0.08156451
81	0xbe06d627	-0.1316763
82	0x3da30812	0.07960524
83	0xbe8be0d7	-0.27319977
84	0x3e762001	0.24035646
85	0xbd977d81	-0.07396985
86	0xbe7389e6	-0.23783073
87	0x3e2c8a65	0.16849668
88	0x3bc36104	0.005962493
89	0xbdd24e8e	-0.10268889
90	0xbc415bd8	-0.011801682
91	0xbe384ccd	-0.17998047
92	0xbe314cc1	-0.17314436
93	0x3e24aea3	0.16082244
94	0x3db70a46	0.089375064
95	0xbe88a444	-0.26687825
96	0x3e01ec26	0.1268774
97	0x3e5dc516	0.21657214
98	0xbec85e3d	-0.39134398
99	0x3ddfb273	0.10922708
100	0xbe59faa8	-0.21287024
101	0x3e5d801b	0.216309
102	0xbbb9968a	-0.0056636976
103	0xbc0685a9	-0.008210578
104	0x3e867f35	0.26268926
105	0xbe114e3f	-0.14190005
106	0x3dc27b46	0.09496169
107	0xbeae16b2	-0.3400169
108	0x3e34f0c6	0.17669973
109	0x3d9f108f	0.0776683
110	0x3e8dc7d9	0.27691534
111	0x3e95cda4	0.29258454
112	0x3d8a09e1	0.067401655
113	0xbe1cf354	-0.15327197
114	0xbe5da0b0	-0.21643329
115	0xbe50388d	-0.20334072
116	0x3d7f18dc	0.062279567
117	0xbe7358f2	-0.23764399
118	0x3d62e887	0.055397537
119	0x3e379582	0.17928126
120	0xbcbcd226	-0.023049425
121	0x3d98e3bc	0.07465312
122	0x3e8f8742	0.2803288
123	0x3e16efd0	0.14739919
124	0xbbe8afe5	-0.0071010464
125	0xbe4d5443	-0.20051675
126	0xbc8ba603	-0.017046934
127	0x3d26089c	0.040535554
128	0xbd00a495	-0.031406958
129	0x3e08842f	0.13331674
130	0x3d410ca6	0.047131203
131	0xbe0c39e7	-0.13693963
132	0x3de34ded	0.110988475
133	0xbc19db13	-0.00939061
134	0xbe462999	-0.19351806
135	0xbe2a867e	-0.16652867
136	0xbd38d038	-0.045120448
137	0xbd90cc98	-0.07070273
138	0xbe3283f5	-0.1743315
139	0x3ea8cf1c	0.32970512
140	0xbe8ef444	-0.27920735
141	0x3d8ad883	0.067795776
142	0x3e465f44	0.19372278
143	0x3cfdecf1	0.030996772
144	0xbe873185	-0.26404968
145	0xbd551d06	-0.052029632
146	0xbd3d1818	-0.046165556
147	0xbdb82c62	-0.0899284
148	0xbdfc7732	-0.12327422
149	0x3e6688bc	0.22513098
150	0x3e6e44d6	0.23268446
151	0xbd1b1acf	-0.037867364
152	0x3c9e0e67	0.019293977
153	0x3e0411e8	0.12897456
154	0x3e8585a0	0.2607851
155	0xbebb267a	-0.36552793
156	0xbc078092	-0.0082704
157	0x3d5fcb9a	0.05463753
158	0x3e1c7f87	0.15283023
159	0x3e0f6375	0.14002784
160	0x3c540547	0.012940711
161	0xbbbe793e	-0.005812793
162	0xbebb6d6f	-0.3660693
163	0x3d9b7160	0.07589984
164	0xbe8c0fdb	-0.27355847
165	0x3c813a93	0.015775
166	0x3e4445b3	0.19167213
167	0x3dab59e1	0.083667524
168	0x3ea34250	0.3188653
169	0xbe539a20	-0.20664263
170	0x3e733c89	0.23753561
171	0x3dda64c1	0.106637485
172	0x3e37e731	0.17959286
173	0x3e5447d5	0.20730527
174	0xbd74b2e8	-0.05974093
175	0x3e8fcfbb	0.28088173
176	0xbef29f75	-0.4738728
177	0x3d3719a2	0.04470218
178	0xbe88327e	-0.26601022
179	0xbe195887	-0.14975177
180	0x3e72c6c0	0.2370863
181	0xbcc5306c	-0.02407094
182	0x3d68fa4f	0.056879338
183	0x3e2f306a	0.17108312
184	0x3eaf4add	0.34236804
185	0xbeaefc7c	-0.34177005
186	0xbe43a79e	-0.1910691
187	0xbeb08e60	-0.34483624
188	0xbe250117	-0.16113697
189	0x3e48852c	0.19582051
190	0x3eee0ffd	0.46496573
191	0x3e9303e6	0.28713912
192	0x3ebc8aa9	0.3682454
193	0xbe961d09	-0.29319027
194	0x3d717970	0.058953702
195	0xbddf5b71	-0.10906113
196	0x3db2d845	0.087326564
197	0xbdd585e4	-0.10425928
198	0xbdf6610d	-0.1203023
199	0x3e26ee27	0.16301785
200	0x3d0bd6da	0.034140445
201	0xbe456d91	-0.19280078
202	0xbeca0fa1	-0.3946505
203	0x3e23f8ac	0.1601283
204	0xbe3461e8	-0.17615473
205	0xbd88da0b	-0.066822134
206	0xbe04e850	-0.12979245
207	0x3e2d0e35	0.16899951
208	0xbe91eb1a	-0.2849968
209	0xbe46ce9b	-0.19414751
210	0xbedb947c	-0.42886722
211	0xbe491d34	-0.19640046
212	0xbe69e696	-0.22841868
213	0x3c5284e2	0.012849065
214	0x3e0ac33b	0.13551037
215	0x3e0ecc1e	0.13945052
216	0xbec105e7	-0.37699816
217	0xbe071607	-0.13191997
218	0xbdcb98ff	-0.09941291
219	0xbd5523fe	-0.052036278
220	0x3e1d1592	0.1534026
221	0x3e245f89	0.16052069
222	0xbe93ed6e	-0.28892082
223	0xbeb5192d	-0.3537077
224	0x3d5e8df5	0.0543346
225	0x3e1b2b26	0.15153179
226	0x3de83000	0.1133728
227	0xbeb39293	-0.35072765
228	0xbd4dd48d	-0.050251532
229	0x3e524b30	0.20536494
230	0x3dd99629	0.10624344
231	0xbe32c49f	-0.17457817
232	0xbe1de604	-0.15419775
233	0xbd4a5c3d	-0.04940437
234	0x3e666dd3	0.22502832
235	0x3e7c9aab	0.24668376
236	0x3d8309c6	0.063983485
237	0xbe7af4fa	-0.24507514
238	0xbe6e9566	-0.23299178
239	0x3d401503	0.04689504
240	0x3d903fe4	0.07043436
241	0x3cc1feec	0.023681127
242	0x3e20fac4	0.1572066
243	0xbe2f979b	-0.17147677
244	0x3db756d4	0.08952108
245	0x3d76b6e9	0.06023303
246	0x3d4c1af8	0.049830407
247	0xbeecf1c1	-0.46278194
248	0x3e64707c	0.22308534
249	0xbe2f9e58	-0.17150247
250	0x3c1ee3a3	0.0096978275
251	0x3e5fdd05	0.21861656
252	0xbea51a81	-0.32246783
253	0x3ea5507c	0.32287967
254	0xbd9ce3c0	-0.07660627
255	0x3e0623d1	0.130996

conv2.fc_attention.weight f4 [1, 65]
0	0x3d9ea0f8	0.07745546
1	0x3e56222b	0.20911472
2	0xbdc97876	-0.09837429
3	0x3e3c870e	0.18410894
4	0x3e08e3e1	0.13368179
5	0x3e3c12a0	0.1836648
6	0x3dc4d174	0.096102625
7	0xbb360af3	-0.0027777522
8	0x3b491f58	0.0030688848
9	0x3e002318	0.12513387
10	0x3e7f8ccd	0.24956055
11	0x3e64052a	0.22267595
12	0x3ec69e9d	0.38792887
13	0x3e050e21	0.12993671
14	0xbe24ce7e	-0.16094396
15	0x3e4837c7	0.19552527
16	0x3eac3934	0.33637393
17	0x3e88798e	0.2665524
18	0xbe8979e7	-0.26850817
19	0xbe7e9a37	-0.24863516
20	0xbe1cee15	-0.15325196
21	0xbb81cfe8	-0.003961552
22	0x3e0234a6	0.12715396
23	0xbece8201	-0.4033356
24	0x3d7379d5	0.05944236
25	0xbe55d24f	-0.20881008
26	0xbe3416e1	-0.17586853
27	0x3e24f122	0.1610761
28	0x3e3e80f5	0.1860388
29	0x3e9329dc	0.28742874
30	0x3c9cc39b	0.01913624
31	0xbe06125f	-0.13092946
32	0x3d7b21e2	0.06131161
33	0xbe965c98	-0.29367518
34	0xbe40320e	-0.18769094
35	0xbd03d305	-0.032183666
36	0xbe1c90de	-0.15289637
37	0x3e28f649	0.165002
38	0xbe6ed339	-0.23322763
39	0xbd339e09	-0.043851886
40	0xbe4d7865	-0.20065458
41	0xbe1e44d3	-0.15455942
42	0xbe33d990	-0.17563462
43	0xbd6fbfc0	-0.058532476
44	0xbdc256de	-0.09489225
45	0x3e822f32	0.25426632
46	0xbde698ac	-0.112595886
47	0xbf05ea25	-0.523104
48	0x3d1ad9bb	0.0378053
49	0xbe5aecf8	-0.21379459
50	0x3e34c970	0.17654967
51	0x3dadfe5f	0.08495783
52	0x3e26dee7	0.16295968
53	0xbe79b05c	-0.24383682
54	0xbe255d90	-0.16148973
55	0x3e205917	0.15658985
56	0x3e819d22	0.25315195
57	0xbdbfdef7	-0.09368699
58	0x3e40436c	0.1877572
59	0xbdc5d745	-0.096602
60	0xbbbc0dc5	-0.005738946
61	0x3e6a4913	0.22879438
62	0x3dd05551	0.10172523
63	0x3cb91ba5	0.02259619
64	0x3ebae8e2	0.365058

conv1_ext.fc.weight f4 [16, 48]
0	0x3e08218c	0.13294047
1	0x3c7ebeac	0.015548389
2	0x3c8c6f56	0.017142933
3	0xbd953790	-0.07285988
4	0xbe276837	-0.16348349
5	0x3e52e600	0.2059555
6	0xbe9639f7	-0.293411
7	0x3d13480a	0.035957374
8	0x3db5b6d2	0.08872761
9	0xbc8fc7e4	-0.01755137
10	0xbd64ad16	-0.05582913
11	0x3f18df1e	0.5971545
12	0xbdef362c	-0.11680254
13	0x3e2111f1	0.157295
14	0x3e98271d	0.2971734
15	0xbf02a88e	-0.51038444
16	0x3e3de14a	0.18542972
17	0xbe074d88	-0.1321317
18	0xbd0fe8fa	-0.035134293
19	0x3d8cb0ec	0.06869683
20	0x3d1c9307	0.038226154
21	0x3db6afb0	0.089202285
22	0x3df21589	0.11820514
23	0x3d24540d	0.04011922
24	0xbdd9afa1	-0.10629202
25	0x3e41fb84	0.18943602
26	0x3c8ff083	0.01757074
27	0x3de0e1d4	0.10980573
28	0xbd551073	-0.05201764
29	0xbe39964a	-0.18123737
30	0x3e42ee12	0.19036129
31	0x3e27b0d2	0.16376045
32	0xbd9188ab	-0.071061455
33	0xbda86e1c	-0.08224127
34	0x3d2cd61f	0.04219639
35	0xbd743b95	-0.059627134
36	0x3c3b2df2	0.011424528
37	0x3e63ae36	0.22234425
38	0xbdae2556	-0.08503215
39	0xbe0bff3c	-0.13671583
40	0x3c9bbd2f	0.019011108
41	0x3da20544	0.079111606
42	0x3cce4da4	0.025183506
43	0xbe432c53	-0.19059877
44	0xbcb4e074	-0.022079684
45	0xbd3d3148	-0.046189576
46	0xbd0d002a	-0.034423985
47	0xbe5a4804	-0.21316534
48	0xbd94fa04	-0.07274249
49	0x3eaa973b	0.33318505
50	0xbea104f3	-0.31449088
51	0xbe8a6089	-0.27026775
52	0x3e339564	0.17537457
53	0x3d377efa	0.04479883
54	0x3dc17947	0.0944696
55	0xbd8abb39	-0.06773991
56	0x3f466787	0.7750172
57	0x3d8b7f9e	0.068114504
58	0x3a171cd3	0.0005764488
59	0x3f0bcee3	0.5461256
60	0x3e9184ce	0.28421634
61	0xbe07fa46	-0.13279065
62	0x3eb1c6a1	0.34721854
63	0xbce5fed0	-0.028075606
64	0xbebd5333	-0.36977538
65	0x3db2ba55	0.08726946
66	0xbf3fbda2	-0.7489873
67	0xbe76f154	-0.24115497
68	0x3ec1e3c8	0.37869096
69	0xbe265708	-0.16244137
70	0xbf184bd9	-0.59490734
71	0xbd2e598f	-0.04256588
72	0x3d900c88	0.0703364
73	0x3c6057c9	0.013692805
74	0x3e45540e	0.19270346
75	0xbe0a10d7	-0.13482986
76	0x3d62343c	0.055225596
77	0xbd501486	-0.050800823
78	0x3dbd69c8	0.09248692
79	0xbdbac9bc	-0.09120509
80	0xbc9e789d	-0.019344622
81	0xbe830af5	-0.25594297
82	0xbd095ed0	-0.033537686
83	0x3e67f139	0.22650613
84	0x3dbc3caa	0.09191258
85	0x3d7167b3	0.058936786
86	0x3da242b3	0.07922878
87	0xbe2c6682	-0.16835979
88	0xbd2ca332	-0.042147823
89	0xbd3d0fff	-0.046157833
90	0x3e1b26a5	0.1515146
91	0x3d1f0b1f	0.038828965
92	0x3cec7071	0.02886221
93	0x3e205b13	0.15659742
94	0x3b183c8b	0.0023229446
95	0x3ba6a3c3	0.00508544
96	0x3db179d2	0.086658135
97	0xbeecb4bc	-0.4623164
98	0x3e66a8e9	0.22525372
99	0x3cfe4421	0.031038346
100	0x3d66f829	0.056389008
101	0x3e7b6759	0.24551143
102	0xbd75bc0d	-0.059993792
103	0x3e6a4d23	0.22880988
104	0x3efed6d2	0.4977327
105	0x3e8ed18d	0.2789425
106	0xbdce1498	-0.10062522
107	0x3cd10254	0.025513805
108	0xbf004cc0	-0.5011711
109	0xbecb4b3a	-0.3970583
110	0xbe2f97fd	-0.17147823
111	0xbf0f3b39	-0.5594974
112	0xbddbfc14	-0.107414395
113	0x3e0de8a2	0.13858274
114	0xbea8d2b8	-0.32973266
115	0xbe8cf9de	-0.27534384
116	0x3cda9fb5	0.026687482
117	0xbcf6bf90	-0.030120641
118	0xbdd991eb	-0.10623535
119	0xbef6281f	-0.48077485
120	0x3c8194f1	0.015818091
121	0x3dada91a	0.08479519
122	0x3da729e8	0.0816229
123	0xbe2aa216	-0.16663393
124	0x3e157fd4	0.14599544
125	0x3d9b34af	0.07578408
126	0x3e3b1081	0.18268014
127	0x3e634d8b	0.22197549
128	0x3e0ca472	0.13734606
129	0xbd82dfb7	-0.063903265
130	0xbc7ac3ff	-0.015305518
131	0x3c91a0a3	0.017776793
132	0xbd87d551	-0.06632484
133	0xbccaed7f	-0.02477145
134	0xbcb66a51	-0.022267492
135	0x3be94bb7	0.0071196216
136	0xbd646598	-0.05576095
137	0xbc831a4d	-0.016003752
138	0xbc17da90	-0.009268418
139	0xbb63df4d	-0.0034770549
140	0x3eda2323	0.42604932
141	0x3dc8af72	0.097990885
142	0xbe06a43c	-0.13148588
143	0xbd9033d2	-0.07041134
144	0xbcf4e309	-0.029893415
145	0x3d95b58e	0.073100194
146	0xbe936219	-0.2878578
147	0x3d5119a7	0.051049855
148	0xbd47c3df	-0.04877078
149	0xbdbaa390	-0.09113228
150	0x3c33647d	0.010949251
151	0x3e7cfb26	0.2470518
152	0x3edd580d	0.4323124
153	0xbb223f3f	-0.0024756936
154	0x3cff11eb	0.031136474
155	0x3e8272fa	0.25478345
156	0xbf446854	-0.7672169
157	0xbd8c04f3	-0.068368815
158	0x3c8d272a	0.017230589
159	0xbdf9446d	-0.12171254
160	0xbe1839ad	-0.14865752
161	0x3eaf2935	0.34211126
162	0xbf34bc96	-0.7060026
163	0xbd9f7020	-0.07785058
164	0xbd04c1f5	-0.032411534
165	0xbd93cb48	-0.07216507
166	0xbe339a28	-0.17539275
167	0xbdad6808	-0.08467108
168	0xbe0ca628	-0.13735259
169	0x3e05f753	0.13082628
170	0x3d63dfbd	0.055633295
171	0x3dc4d83f	0.09611558
172	0x3dad821a	0.084720805
173	0xbd4d1ad7	-0.050074425
174	0x3dc2285a	0.09480353
175	0x3e185913	0.14877729
176	0xbdab1401	-0.08353425
177	0x3cce0d81	0.025152924
178	0xbd706f3f	-0.058699843
179	0x3ecbb3f1	0.39785722
180	0x3d904b22	0.070455804
181	0x3c9148e2	0.017734949
182	0xbda6a869	-0.081375904
183	0x3d3918cb	0.04518966
184	0xbe0fbc34	-0.14036638
185	0xbe0426f7	-0.12905489
186	0xbd19924a	-0.037493028
187	0xbde1a16c	-0.11017117
188	0xbda89e95	-0.08233372
189	0x3da56bcc	0.08077201
190	0xbd622443	-0.055210363
191	0xbe306a9e	-0.17228171
192	0xbde7e9d7	-0.11323898
193	0xbf24a0aa	-0.64307654
194	0x3db85014	0.08999649
195	0xbeb11937	-0.3458955
196	0xbdc5d3a5	-0.096595086
197	0xbe83c44e	-0.25735706
198	0x3d0fd38f	0.035113867
199	0x3e558379	0.20850934
200	0xbedf39d0	-0.43598795
201	0x3ea4af8f	0.3216519
202	0x3e7a63d0	0.24452138
203	0xbe9cfc8f	-0.30661437
204	0x3ea0763d	0.3134021
205	0x3e533f3d	0.20629592
206	0xbb55babb	-0.003261252
207	0x3bded517	0.0068003046
208	0xbe8e2055	-0.27759042
209	0xbed9ae9d	-0.42516032
210	0x3d6064d9	0.054783676
211	0xbe4bd986	-0.19907197
212	0x3e142489	0.14467062
213	0xbde5b5f9	-0.11216349
214	0xbdac225e	-0.084049925
215	0xbe17acab	-0.14811961
216	0x3dded720	0.108808756
217	0x3e6eb0a7	0.23309575
218	0xbe4048db	-0.18777792
219	0x3d99db64	0.075125486
220	0x3d01d84b	0.031700414
221	0x3d7e681b	0.062111
222	0x3cfa9ac5	0.030591378
223	0x3e1a7a91	0.15085818
224	0xbaccb4d0	-0.0015617851
225	0xbda2f910	-0.07957661
226	0xbdb0dd21	-0.08635927
227	0x3e0d2e4d	0.13787194
228	0x3db06a11	0.086139806
229	0xbca2dba8	-0.01988013
230	0x3d94db98	0.07268447
231	0x3e00a156	0.12561545
232	0x3d4901b9	0.04907391
233	0x3e9cb966	0.30610198
234	0x3da6ca05	0.08144001
235	0xbe7b9507	-0.24568568
236	0x3dae0943	0.0849786
237	0x3d8c8113	0.068605565
238	0x3db41ac8	0.087941706
239	0xbc02735f	-0.007962077
240	0x3f3c1873	0.73474807
241	0x3e38873b	0.18020336
242	0x3e9cfc77	0.30661365
243	0x3e0ac995	0.1355346
244	0xbe63a7a0	-0.22231913
245	0xbe3b3ffc	-0.18286127
246	0x3f439ef3	0.7641441
247	0x3da6a858	0.08137578
248	0x3f3a8dd6	0.72872674
249	0x3bafccce	0.005364991
250	0xbd7a14b7	-0.06105491
251	0x3c714bc9	0.014727541
252	0xbea8494f	-0.3286843
253	0xbee0881f	-0.43853852
254	0xbc3751de	-0.011188952
255	0xbec8f3f2	-0.39248616

conv1_ext.fc_attention.weight f4 [1, 33]
0	0xbba0b1d2	-0.0049040103
1	0xbdce145a	-0.100624755
2	0xbdfcebda	-0.123496726
3	0xbddedd46	-0.10882048
4	0xbe3cad8a	-0.18425575
5	0xbd15134a	-0.03639535
6	0xbd64b8a3	-0.055840146
7	0x3e0182cf	0.12647556
8	0x3e812a5d	0.25227633
9	0xbd10e67a	-0.03537605
10	0x3e78ba48	0.2428981
11	0x3e4e319d	0.20136113
12	0x3888649c	6.503725e-05
13	0xbdc17732	-0.09446563
14	0xbe23c095	-0.15991433
15	0x3c82ebed	0.015981639
16	0x3d525463	0.05135001
17	0x3e07e87b	0.13272278
18	0x3c7e7171	0.015529976
19	0x3dafa388	0.08576113
20	0xbe2a1910	-0.16611123
21	0x3d098cef	0.03358167
22	0xbd870ccd	-0.065942384
23	0xbcda9d86	-0.026686441
24	0xbd9f5356	-0.07779567
25	0xbd2d05ba	-0.04224179
26	0x3dcbe93e	0.09956597
27	0xbc048771	-0.008088932
28	0x3d905a3e	0.07048462
29	0xbc0bd45a	-0.008534515
30	0x3e1b4aa5	0.15165193
31	0x3dea8759	0.11451597
32	0xbe90fb1b	-0.28316578

conv2_ext.fc.weight f4 [32, 16]
0	0x3e64ebe0	0.22355604
1	0x3e42eed1	0.19036414
2	0x3e5e9fd7	0.21740662
3	0xbd9d0018	-0.076660335
4	0xbee26421	-0.44217017
5	0xbe43a0c8	-0.19104302
6	0xbe14339d	-0.14472814
7	0x3e7e86aa	0.24856058
8	0x3ded0f71	0.11575211
9	0xbe07e53d	-0.13271041
10	0xbb84cb7a	-0.0040525766
11	0xbd9eead1	-0.077596314
12	0x3e91b8fc	0.28461444
13	0x3def6eff	0.11691093
14	0xbe6d4947	-0.23172484
15	0x3e0af02e	0.13568184
16	0xbc39d66c	-0.011342626
17	0x3d042510	0.032261908
18	0x3dea8f3e	0.114531025
19	0x3da23eda	0.07922144
20	0x3e1e0f2d	0.15435477
21	0xbd816216	-0.063175365
22	0xbe6b9a9a	-0.23008195
23	0x3ceba1a5	0.028763602
24	0x3e8e08c7	0.27741072
25	0xbc3183f3	-0.010834682
26	0x3e6c1f92	0.23058918
27	0x3e1785bd	0.14797111
28	0x3e3b8baf	0.18315004
29	0x3d9e3fc7	0.07727008
30	0xbe452857	-0.1925367
31	0xbd917817	-0.071029834
32	0x3e0c2e60	0.13689566
33	0xbdecf345	-0.115698375
34	0x3da60d49	0.08108003
35	0xbcc63806	-0.024196636
36	0xbcf81bb5	-0.03028665
37	0x3ee40a92	0.44539315
38	0xbe327d84	-0.17430693
39	0x3de4f726	0.11179952
40	0x3e888f58	0.26671863
41	0x3d15cde3	0.036573302
42	0x3e9ad48e	0.3024029
43	0x3d07cd94	0.03315504
44	0xbc781aa4	-0.01514307
45	0x3e5c075c	0.21487182
46	0x3d2697b0	0.040672004
47	0xbd02b6b9	-0.03191254
48	0x3dc3b18e	0.0955535
49	0x3df9e6c6	0.1220222
50	0x3e0d1d83	0.13780789
51	0xbe4a1d18	-0.19737661
52	0xbe3dac69	-0.185228
53	0x3f1209f1	0.5704642
54	0xbe52b232	-0.20575789
55	0x3dc81de2	0.09771325
56	0x3e47134b	0.19440953
57	0xbcd48568	-0.02594252
58	0x3ead87d6	0.33892697
59	0x3e9c27d8	0.30499148
60	0x3e2d0d6e	0.16899654
61	0x3ef5baa8	0.4799397
62	0xbdb5447e	-0.088509545
63	0xbe4d2502	-0.20033649
64	0xbe9a000d	-0.30078164
65	0xbe989cd3	-0.29807147
66	0x3e38c5c5	0.18044193
67	0x3d0dbd36	0.034604274
68	0xbd11803f	-0.035522696
69	0xbe2284dd	-0.15870996
70	0x3db9ec61	0.09078289
71	0xbdbbeb5a	-0.09175749
72	0x3e94ac8b	0.2903789
73	0x3e497a51	0.19675566
74	0xbbf7fb65	-0.0075678104
75	0xbeca7148	-0.39539552
76	0x3e8681db	0.26270947
77	0x3d73ad31	0.05949134
78	0x3d4c3ce5	0.04986276
79	0x3e1839d7	0.14865814
80	0xbc90c63f	-0.017672656
81	0x3dfc7e1f	0.12328743
82	0x3db879aa	0.090075806
83	0x3daf837f	0.08570003
84	0x3db5b0dd	0.088716246
85	0x3d586539	0.05283091
86	0xbcab5812	-0.020916019
87	0xbe519809	-0.20468153
88	0x3e3deea5	0.18548067
89	0xbeabe474	-0.33572733
90	0xbe1abcb8	-0.15111053
91	0xbdd3111e	-0.10305999
92	0xbdf16a67	-0.11787873
93	0x3e42e0a4	0.19031006
94	0xbdcbafd6	-0.099456474
95	0xbda6010e	-0.0810567
96	0xbe535fb0	-0.2064197
97	0x3c3b2c9d	0.011424211
98	0x3e802c06	0.25033587
99	0x3cb3fb6f	0.021970479
100	0xbd0c1979	-0.03420398
101	0x3e063929	0.13107742
102	0xbe0ff55c	-0.14058441
103	0xbeb11ccf	-0.34592292
104	0x3e8e28e2	0.27765566
105	0x3e951d30	0.2912383
106	0xbd435fcd	-0.047698785
107	0x3e2dc246	0.1696864
108	0xbe2ce32d	-0.16883536
109	0x3eaaa131	0.33326104
110	0x3d97f5e6	0.07419948
111	0xbcf3c990	-0.029759198
112	0x3d9544ac	0.07288489
113	0x3e1778f3	0.14792232
114	0x3d4d6bdb	0.050151687
115	0xbe0bc5e6	-0.13649711
116	0xbd399007	-0.04530337
117	0x3ec1c57b	0.37845978
118	0x3dba4f1e	0.09097122
119	0xbe5cae28	-0.2155081
120	0x3d82fd53	0.06395974
121	0xbd936d73	-0.0719861
122	0xbd7d18ae	-0.061791115
123	0xbe61472f	-0.2199981
124	0x3db516c6	0.08842234
125	0xbed3f217	-0.41395637
126	0x3e38b4cf	0.18037723
127	0xbe42fb4f	-0.19041179
128	0xbe5a1cbe	-0.21300027
129	0xbe20f17e	-0.15717122
130	0x3de2f9fa	0.110828355
131	0x3df1cc0d	0.11806498
132	0x3dbbac84	0.09163764
133	0xbeb539e6	-0.35395736
134	0xbdb8f932	-0.09031905
135	0xbe50577b	-0.20345871
136	0xbe10bd62	-0.14134744
137	0x3dc34166	0.09533958
138	0x3dfe568c	0.12418851
139	0xbef43a70	-0.47700834
140	0xbeb55bc0	-0.35421562
141	0xbe9089c9	-0.28230122
142	0xbcdc64f0	-0.0269036
143	0x3e12f4b4	0.1435116
144	0xbe7c8b5b	-0.24662535
145	0x3d4d4a77	0.050119843
146	0x3e3fc70b	0.18728273
147	0xbe0e2320	-0.13880587
148	0x3e19fc78	0.15037715
149	0x3db7d56d	0.089762546
150	0x3d10af73	0.03532357
151	0xbe65320a	-0.2238237
152	0xbd5216a7	-0.051291134
153	0x3dc2c702	0.09510614
154	0xbe1c796c	-0.15280694
155	0xbf03005c	-0.51172423
156	0xbe265a89	-0.16245474
157	0xbbc78ae4	-0.006089555
158	0xbe2028cb	-0.15640561
159	0x3e0eab5a	0.13932553
160	0xbcd71b85	-0.02625824
161	0x3e5d46fb	0.21609108
162	0x3e7cb2ff	0.24677657
163	0xbee3712a	-0.44422275
164	0xbe1e11f3	-0.15436535
165	0x3e8920b5	0.26782766
166	0x3db097de	0.08622716
167	0xbe93fd63	-0.28904256
168	0xba0c8caa	-0.0005361537
169	0x3eb2abcb	0.34896693
170	0xbea6dd74	-0.3259083
171	0xbe3370de	-0.17523524
172	0x3e2d432b	0.16920154
173	0xbe8d5d7c	-0.27610385
174	0xbe30dcef	-0.1727178
175	0xbe0ed64a	-0.13948932
176	0x3d2fab83	0.042888176
177	0x3d9a8222	0.07544352
178	0x3f00aeff	0.5026702
179	0xbead794e	-0.3388161
180	0xbe92db72	-0.28683048
181	0x3ee5b72b	0.4486631
182	0xbde9a712	-0.11408819
183	0xbe9bee60	-0.30455303
184	0x3df9201d	0.12164328
185	0xbe383c6f	-0.17991804
186	0x3e59ed17	0.21281849
187	0xbdec9d45	-0.11553434
188	0xbe36d1c5	-0.17853458
189	0xbd578bdd	-0.05262362
190	0x3bd88d1b	0.006608618
191	0x3da1db9c	0.07903215
192	0x3e6080a5	0.21924074
193	0x3e1dacd5	0.15397961
194	0xbd77365d	-0.06035458
195	0xbe9e42ac	-0.30910242
196	0x3e1e0cf7	0.15434633
197	0x3def3e70	0.11681831
198	0x3d09d3e7	0.03364935
199	0xbe086a1e	-0.1332173
200	0xbddc9b1c	-0.10771772
201	0xbeb4df33	-0.35326537
202	0x3e8bac1e	0.27279752
203	0xbe9342bc	-0.28761852
204	0xbe8c51d3	-0.27406177
205	0x3d71cd2a	0.05903355
206	0x3d79f1c3	0.061021578
207	0xbe4df017	-0.20111118
208	0xbda443e7	-0.08020764
209	0x3e1d03ca	0.15333477
210	0x3e426ec8	0.18987572
211	0x3e1339f7	0.1437758
212	0xbeb41135	-0.35169378
213	0x3e463718	0.19356954
214	0xbbf8c4ee	-0.007591835
215	0x3d813eb6	0.06310789
216	0x3dda3c1f	0.106559984
217	0x3e2e5eb3	0.17028312
218	0x3e4b6345	0.19862087
219	0x3dbd9683	0.092572235
220	0xbe5e0e48	-0.21685135
221	0x3e8c4cc2	0.27402312
222	0xbdced175	-0.100985445
223	0xbe2714dd	-0.16316552
224	0x394167a6	0.00018444526
225	0xbe35587a	-0.17709532
226	0x3e12ba0f	0.14328788
227	0xbece61e9	-0.40309075
228	0x3d743652	0.059622116
229	0xbdf8b332	-0.12143554
230	0xbe664755	-0.22488149
231	0xbd656d1e	-0.056012265
232	0xbc916730	-0.017749399
233	0x3e75afa0	0.23992777
234	0xbcd7c288	-0.026337877
235	0x3d77bfd8	0.06048569
236	0x3e5c95d1	0.21541525
237	0xbc6d9fd2	-0.014503436
238	0x3d4b1242	0.04957796
239	0x3e534d2a	0.20634905
240	0xbe578fb3	-0.2105091
241	0x3d8edfde	0.06976293
242	0xbc649a20	-0.013952762
243	0xbdd20421	-0.10254694
244	0xbdaccf1b	-0.0843794
245	0xbe80c53b	-0.25150475
246	0x3e1b1719	0.1514553
247	0xbe2fa0a3	-0.17151122
248	0xbea1704b	-0.31530985
249	0xbc9373dc	-0.017999582
250	0x3e91d1ec	0.2848047
251	0xbe37d736	-0.1795319
252	0x3c59a622	0.013284238
253	0x3d374ac6	0.044749044
254	0x3dc0bb03	0.0941067
255	0xbe26eed2	-0.1630204

conv2_ext.fc_attention.weight f4 [1, 65]
0	0x3d478f96	0.04872092
1	0xbe90f989	-0.2831538
2	0xbedcb20c	-0.4310459
3	0xbecb42d6	-0.3969943
4	0xbe5fb2f1	-0.21845604
5	0xbdc9c738	-0.09852451
6	0xbcba4923	-0.022739952
7	0x3ca6b9cc	0.020352267
8	0x3d4e08ec	0.050301477
9	0xb802b181	-3.115973e-05
10	0x3e89d4c0	0.26920128
11	0xbdfd54cf	-0.123696916
12	0x3d2f914e	0.042863183
13	0x3b815056	0.0039463444
14	0xbd5b5ec2	-0.053557165
15	0x3e44e1f0	0.19226813
16	0xbd0f2e47	-0.034956243
17	0xbbefa01a	-0.0073127868
18	0xbea248c0	-0.3169613
19	0xbc06036e	-0.008179529
20	0xbe495441	-0.19661047
21	0xbe3afbb4	-0.1826008
22	0xbd409941	-0.047021154
23	0xbe83eea4	-0.25768006
24	0x3d00d28b	0.03145079
25	0x3e81d6aa	0.25359088
26	0xbc9fd690	-0.019511491
27	0xbd10a507	-0.035313632
28	0x3ea56263	0.32301626
29	0x3e8e2b3a	0.27767354
30	0xbe89462a	-0.26811343
31	0xbe3acca8	-0.18242133
32	0xbe82d67c	-0.25554264
33	0x3dcbd05c	0.09951851
34	0xbdfbd28e	-0.122960195
35	0x3e1b0ac2	0.15140823
36	0xbf059747	-0.52183956
37	0xbd964bf6	-0.07338707
38	0x3e06bd18	0.13158071
39	0x3d2d06cc	0.04224281
40	0xbe969f3a	-0.29418355
41	0xbe11b2fc	-0.14228433
42	0x3e19f892	0.15036228
43	0x3df0caac	0.117574066
44	0x3e3baacb	0.18326871
45	0xbe369fb5	-0.17834361
46	0x3d8c508e	0.06851302
47	0xbdc18711	-0.0944959
48	0xbd27d860	-0.040977836
49	0x3dc9a751	0.09846366
50	0xbe8f6ee5	-0.28014293
51	0x3d805db3	0.06267872
52	0x3cf95314	0.030435123
53	0xbdbabdf6	-0.091182634
54	0xbc561e2b	-0.013068716
55	0xbe09b30d	-0.13447209
56	0x3decf505	0.11570171
57	0x3e2bdb9a	0.1678299
58	0xbcd2b88f	-0.02572277
59	0x3d499f07	0.049223926
60	0x3e74aed7	0.23894821
61	0xbe438e58	-0.19097269
62	0x3e1dc6ee	0.15407917
63	0x3e96e2bf	0.2946987
64	0xbe26c6a8	-0.16286719

fc1.weight f4 [128, 64]
0	0xbc8dbefd	-0.017302984
1	0xbddfe5d1	-0.10932506
2	0x3da50c48	0.08058983
3	0xbd895348	-0.06705338
4	0x3d8c2d29	0.06844551
5	0xbd1e00b6	-0.038574897
6	0xbd318d27	-0.043347504
7	0xbdecb32d	-0.115576126
8	0x3d20aad7	0.039225426
9	0xbe135927	-0.14389478
10	0x3d85807d	0.06518648
11	0xbd0a8fd2	-0.033828564
12	0x3d3ba671	0.045813028
13	0x3bef3d67	0.007301021
14	0x3da8889e	0.08229183
15	0xbd1d169e	-0.038351648
16	0x3bf86a16	0.007581006
17	0x3cd08d39	0.025457965
18	0xbd43dfe0	-0.047820926
19	0x3d00e2a1	0.03146613
20	0x3c16cfa9	0.0092047835
21	0x3ca7aafb	0.020467272
22	0xbbdef6db	-0.00680433
23	0xbdef8800	-0.11695862
24	0xbe11610e	-0.1419718
25	0x3d75ac19	0.05997858
26	0xbdcd8218	-0.10034579
27	0xbe2b9fe5	-0.16760214
28	0xbde08aa6	-0.10963945
29	0xbd1d4075	-0.03839155
30	0xbbbbbf0e	-0.0057295626
31	0xbd320b42	-0.043467768
32	0xbc344d90	-0.0110048205
33	0xbdc97e82	-0.098385826
34	0xbda53580	-0.08066845
35	0x3db6e8ff	0.08931159
36	0xbd6c5c24	-0.05770506
37	0x3ce30c93	0.027715957
38	0xbded50c8	-0.115876734
39	0x3c29568a	0.010335574
40	0x3d5baabf	0.053629633
41	0x3cbc2be0	0.02297014
42	0xbd81e1da	-0.06341906
43	0x3ae759ae	0.0017650628
44	0x3cd7e71c	0.026355319
45	0x3b97ec61	0.004636333
46	0xbdc04b34	-0.09389344
47	0x3d58e09c	0.05294858
48	0x3c3ae336	0.01140671
49	0xbdf53e15	-0.11974732
50	0xbd8badf2	-0.06820287
51	0x3d59d015	0.053176958
52	0xbc14275f	-0.00904259
53	0xbd284dec	-0.041089937
54	0xbd3ed632	-0.04659099
55	0xbe049183	-0.12946133
56	0xbcb1ae53	-0.02168957
57	0x3c1e3cd1	0.009658054
58	0xbd36b799	-0.044608686
59	0xbdc226a4	-0.09480026
60	0x3dda5f9e	0.10662769
61	0xbd84b861	-0.0648048
62	0xbe12b963	-0.14328532
63	0xbdcae6a6	-0.09907274
64	0xbe876ba1	-0.26449302
65	0xbb62fffc	-0.0034637442
66	0xbe6ec853	-0.23318605
67	0xbda382e3	-0.07983949
68	0xbebfa2ab	-0.37428793
69	0xbe287be0	-0.16453505
70	0xbd5b6084	-0.05355884
71	0xbe5d4079	-0.21606626
72	0xbc8ade5e	-0.016951736
73	0xbdec468e	-0.11536895
74	0x3e165a66	0.14682922
75	0xbdaae28c	-0.08343992
76	0xbdc6665f	-0.096874945
77	0x3e70b2d8	0.23505723
78	0x3e2eb665	0.17061765
79	0x3d196bd7	0.03745636
80	0x3e22a87a	0.15884581
81	0xbdb1f0fe	-0.08688544
82	0xbea9c46c	-0.3315767
83	0xbe7a256d	-0.2442834
84	0xbd989daf	-0.07451951
85	0x3eab0324	0.33400834
86	0x3d1dc390	0.03851658
87	0xbcbde3e0	-0.023179948
88	0xbdb13bc1	-0.08653975
89	0x3e3a94ee	0.18220875
90	0xbdeab702	-0.11460687
91	0xbe3fb472	-0.18721178
92	0xbde01852	-0.10942139
93	0xbe364098	-0.17798078
94	0x3e02b650	0.12764859
95	0x3e545763	0.2073646
96	0xbea6ff96	-0.32616872
97	0x3e101629	0.14070953
98	0xbd24dde5	-0.040250678
99	0xbdd34355	-0.10315577
100	0x3caf7ed4	0.021422781
101	0xbe29d4c0	-0.16585064
102	0xbe6f79ab	-0.23386256
103	0xbd096846	-0.03354671
104	0xbe2cd504	-0.16878134
105	0x3c9f2853	0.019428408
106	0xbf003e6b	-0.5009524
107	0xbee02bed	-0.43783513
108	0x3dbf5574	0.09342471
109	0x3babf604	0.005247833
110	0x3e6b737a	0.2299327
111	0x3d530e27	0.05152717
112	0xbc9c87ef	-0.019107787
113	0x3e4bdf6e	0.1990945
114	0x3ddf632a	0.10907586
115	0xbe3b35a4	-0.18282181
116	0x3d5da0b1	0.054108325
117	0xbec6d9ca	-0.38838035
118	0x3d3d0b51	0.04615337
119	0x3cb3c403	0.021944052
120	0xbc622015	-0.013801594
121	0xbe0a8e14	-0.13530761
122	0xbe7ccf8d	-0.2468855
123	0xbdd0aa70	-0.101887584
124	0xbe57fd07	-0.21092616
125	0x3d41d53c	0.047322497
126	0xbcd752e8	-0.02628465
127	0x3d4c29ac	0.04984443
128	0x3d902b4a	0.07039507
129	0xbd141fe3	-0.036163222
130	0xbdb9be69	-0.09069521
131	0x3db47949	0.08812196
132	0xbdee3f2d	-0.116331436
133	0x3cfb80f4	0.030701138
134	0x3cd1f125	0.025627682
135	0xbd8d9d03	-0.06914713
136	0x3dc72779	0.09724326
137	0xbc4208e3	-0.011842939
138	0x3d682903	0.056679737
139	0xbd39d7fd	-0.045371998
140	0x3d6003f2	0.054691263
141	0xbe1f3789	-0.15548529
142	0x3d522d4c	0.05131273
143	0x3ce26d73	0.02764008
144	0xbdef1f27	-0.11675864
145	0x3dcdc78a	0.10047825
146	0xbe0827aa	-0.1329638
147	0x3d39fca0	0.045406938
148	0xbc03e4cb	-0.008050154
149	0xbdfbc4e7	-0.122934155
150	0x3d0a77ee	0.03380578
151	0xbdad1452	-0.084511414
152	0xbe1350b4	-0.14386255
153	0xbe09364c	-0.13399619
154	0xbd55c4e8	-0.052189738
155	0xbd353be8	-0.044246584
156	0xbdfbd3a5	-0.12296227
157	0xbe0e192b	-0.13876788
158	0xbcff39fe	-0.031155583
159	0x3e1c685a	0.15274182
160	0xbe2ae168	-0.16687548
161	0xbce95e5c	-0.028487377
162	0xbd9b91f6	-0.07596199
163	0x3b1bb899	0.0023761152
164	0xbe0d0fe1	-0.13775589
165	0xbd3bd61a	-0.04585848
166	0xbb95dc63	-0.0045733913
167	0xbe0b8d7b	-0.1362819
168	0xbdaeab59	-0.08528776
169	0xbd50f6db	-0.05101667
170	0x3dc0104a	0.09378107
171	0xbdbd9107	-0.092561774
172	0x3d45cd13	0.048291277
173	0xbc16d40e	-0.009205831
174	0x3d940f58	0.07229489
175	0xbdd7effa	-0.10543819
176	0xbd99c464	-0.07508162
177	0x3bad5ad9	0.005290371
178	0x3d474cf2	0.048657365
179	0xbccba51d	-0.024859006
180	0xbd609336	-0.05482789
181	0xbe430218	-0.19043767
182	0xbdfa8222	-0.12231852
183	0x3b85bfdd	0.00408171
184	0xbda88063	-0.08227613
185	0x3af94344	0.0019017239
186	0x3de8f075	0.113739885
187	0x3b9d299d	0.0047962205
188	0xbd728e93	-0.059218
189	0xbd9aab95	-0.07552258
190	0xbd7513bf	-0.059833284
191	0x3d1d5ddf	0.0384196
192	0xbd062cd5	-0.0327576
193	0x3c2f8c54	0.010714609
194	0xbdec06b7	-0.11524718
195	0x3db964cb	0.09052428
196	0xbdb8e656	-0.09028308
197	0xbd9fdfd4	-0.07806364
198	0xbd0a32f2	-0.03373999
199	0xbe2a27fa	-0.16616812
200	0xbde44f47	-0.111479335
201	0xbd99129e	-0.07474254
202	0xbe0845a6	-0.13307819
203	0x3c10d91f	0.008840828
204	0xbd7986c5	-0.060919542
205	0xbdb08cf7	-0.08620637
206	0xbd568cf0	-0.052380502
207	0xbe2e7d6e	-0.17040035
208	0xbd98cdec	-0.074611515
209	0x3e227f53	0.15868883
210	0x3dc69762	0.09696843
211	0xbdfe61ec	-0.12421021
212	0x3a4dc3eb	0.00078493234
213	0x3d9db786	0.0770102
214	0x3c1b6e45	0.0094867395
215	0xbdaf9a47	-0.08574348
216	0x3e0da9a9	0.13834251
217	0xbd70469b	-0.058661085
218	0xbd989bb2	-0.074515715
219	0x3e281abc	0.16416448
220	0xbcb017f4	-0.021495797
221	0x3bf42590	0.007450767
222	0xba9a0228	-0.001174991
223	0xbd235202	-0.03987313
224	0xbcd51c62	-0.02601451
225	0xbe1c3d1b	-0.15257685
226	0xbcd88062	-0.026428405
227	0xbe2bfdb1	-0.16795994
228	0x3d9ece8c	0.077542394
229	0xbd1d294b	-0.03836946
230	0x3c1d3c2f	0.009596868
231	0xbb07490d	-0.0020642907
232	0xbce67e6d	-0.028136456
233	0xbdbf2beb	-0.093345486
234	0x3da58c6e	0.080834255
235	0x3e615513	0.2200511
236	0xbd9f07c1	-0.07765151
237	0x3d927265	0.07150725
238	0x3d7095c8	0.058736593
239	0xbd185f51	-0.037200276
240	0x3d5cf2af	0.05394238
241	0xbe0a5a3e	-0.13510987
242	0xbdba78e9	-0.09105093
243	0xbe3d7dcd	-0.1850502
244	0x3c787dc2	0.015166702
245	0xbdf6df18	-0.120542705
246	0xbd3cf963	-0.04613627
247	0x3db2d33f	0.08731698
248	0xbc6eec17	-0.014582655
249	0x3d0510a8	0.032486588
250	0xbde8ef1b	-0.11373731
251	0x3d6e6a32	0.058206744
252	0x3e1c652d	0.1527297
253	0xbdffcd23	-0.124902986
254	0xbdb42b2e	-0.08797298
255	0xbdefe60c	-0.117138

fc1.bias f4 [128]
0	0x3d16e92e	0.03684347
1	0xbd81f122	-0.063448206
2	0x3d2a7c0e	0.041622214
3	0x3c3e9de1	0.011634321
4	0x3d5dbd92	0.054135866
5	0xbd97c486	-0.07410531
6	0x3df37a5b	0.11888572
7	0xbd61199a	-0.054956056
8	0xbdc2b39c	-0.09506914
9	0xbc646ae1	-0.013941498
10	0x3dd01979	0.101611085
11	0x3d11a7ed	0.035560537
12	0x3d05c25f	0.03265607
13	0xbd6879e9	-0.056756888
14	0xbd8f1f10	-0.069883466
15	0xbd44005e	-0.047851913
16	0xbc1a0b1d	-0.009402064
17	0x3d402fa6	0.04692044
18	0x3d3cec83	0.046123993
19	0xbd95950e	-0.073038206
20	0x3dda0b5f	0.106467
21	0x3d2425e1	0.040075187
22	0xbdbe0751	-0.09278739
23	0xbd82f0b1	-0.063935645
24	0x3c920a3c	0.017827146
25	0x3da671fd	0.0812721
26	0xbd677e13	-0.056516718
27	0xbd910785	-0.07081512
28	0x3d2f6a12	0.042825766
29	0xbdaefcff	-0.08544349
30	0xbd0d90ec	-0.034562036
31	0xbd2c7ab9	-0.042109225
32	0xbdc3712c	-0.0954307
33	0xbd8d1ee5	-0.06890658
34	0xbced8fbe	-0.028999206
35	0xbd8acb45	-0.06777052
36	0xbdd2b1b3	-0.102878
37	0x3adaf353	0.0016704596
38	0xba16987c	-0.0005744768
39	0xbe20a7cc	-0.1568901
40	0x3d544668	0.051824957
41	0xbd8cdda4	-0.06878212
42	0x391491d1	0.000141687
43	0xbe566cab	-0.20939891
44	0xbbc6dbc2	-0.0060686776
45	0x3c78c574	0.015183795
46	0x3c744c43	0.01491076
47	0x3c93336f	0.017968861
48	0x3b6dea44	0.0036302963
49	0xbc0d6495	-0.008629938
50	0xbd8c16f5	-0.06840316
51	0xbcc792fc	-0.02436208
52	0xbd72f1b1	-0.059312526
53	0x3b76313c	0.0037565967
54	0xbddb6704	-0.10713008
55	0x3dab29e0	0.083575964
56	0x3d9683c4	0.07349351
57	0x3bdb3f51	0.0066908975
58	0x3d560083	0.05224658
59	0x3ca742c0	0.020417571
60	0xbde1c039	-0.11022992
61	0x3d4d14fb	0.050068837
62	0xbb81eb77	-0.003964837
63	0xbd10f527	-0.035390045
64	0xbde707bd	-0.11280773
65	0xbe016d3d	-0.12639327
66	0xbdda5cc3	-0.10662224
67	0xbcf57a09	-0.029965417
68	0xbdd34d6e	-0.10317503
69	0xbdfd95cf	-0.12382089
70	0x3d95277d	0.072829224
71	0xbdb7731d	-0.08957503
72	0xbde53553	-0.111918114
73	0xbdd8f915	-0.105943836
74	0xbe0ca9b2	-0.13736609
75	0xbafb9dc3	-0.0019196797
76	0x3e3b0552	0.18263748
77	0x3da84ef9	0.08218188
78	0x3d7acbd2	0.061229534
79	0xbe0a678b	-0.13516061
80	0xbd40d382	-0.04707671
81	0x3d8b922c	0.068149894
82	0xbc987456	-0.01861016
83	0xbe02275f	-0.12710331
84	0xbc0ddfb2	-0.00865929
85	0xbd2a8cc3	-0.041638147
86	0xbe18f5df	-0.14937542
87	0x3d187b31	0.03722686
88	0x3c02a52b	0.007973949
89	0x3e0c45de	0.13698527
90	0x3ce257de	0.027629789
91	0xbd85e199	-0.0653717
92	0x3dcd373b	0.100203
93	0xbde06881	-0.109574325
94	0x3d8b889f	0.06813168
95	0x3d1b36ce	0.037894063
96	0xbda9ce7a	-0.082913354
97	0x3dc3dc59	0.09563512
98	0xbe09ac1c	-0.13444561
99	0xbc6ac193	-0.014328378
100	0xbe0837a5	-0.13302477
101	0x3df2dde6	0.1185873
102	0x3c19ce6f	0.0093875965
103	0xbdde57a0	-0.10856557
104	0xbd8ac93b	-0.06776663
105	0x3c8ea581	0.017412903
106	0x3d96c272	0.07361306
107	0xbdcb707f	-0.09933566
108	0xbb8f93cf	-0.004381634
109	0xbd88146c	-0.0664452
110	0xbce78563	-0.028261846
111	0x3caa557b	0.020792713
112	0xbcedc13d	-0.029022807
113	0x3d465bbb	0.048427325
114	0xbd0c8093	-0.034302305
115	0x3d2013fb	0.039081555
116	0x3d9ff234	0.078098685
117	0x3e20ae52	0.15691498
118	0xbe054c2c	-0.13017339
119	0xbdbd0d68	-0.09231073
120	0xbd7e8480	-0.06213808
121	0xbdf22b65	-0.11824683
122	0xbe22f3e0	-0.15913343
123	0xbdc7dc9c	-0.09758875
124	0xbda346d4	-0.07972494
125	0x3d99d919	0.07512111
126	0x3df6cd7e	0.12050913
127	0xba178ca8	-0.0005781152

fc2.weight f4 [1, 128]
0	0x3c23fa0f	0.010008349
1	0x3e6007b0	0.21877933
2	0xba3d695c	-0.00072254776
3	0xbd604130	-0.054749668
4	0x3d93b9ed	0.07213197
5	0xbdcbd1bc	-0.09952113
6	0xbd986c3c	-0.07442519
7	0x3db7192f	0.0894035
8	0x3da308b1	0.07960642
9	0x3d9a3715	0.07530037
10	0x3d6f64df	0.058445808
11	0x3d829f16	0.063779995
12	0x3d9fd906	0.07805066
13	0xbdc34041	-0.0953374
14	0xb977474d	-0.00023582317
15	0xbbb47c72	-0.005507999
16	0x3c06be0e	0.0082240235
17	0xbc136ea8	-0.0089985505
18	0x3deff12f	0.11715924
19	0x3d6a3005	0.0571747
20	0xbce6fa9a	-0.028195668
21	0x3df309d6	0.118671104
22	0x3d95f171	0.07321442
23	0x3d6faa9b	0.05851231
24	0xbb159353	-0.0022823408
25	0xbdc302f3	-0.09522047
26	0xbc53737f	-0.012905954
27	0x3c95e494	0.018297471
28	0x3b6022d7	0.0034200454
29	0x3dc6694e	0.09688054
30	0xbd8c20d3	-0.06842198
31	0xbd021044	-0.031753793
32	0xbd0c5b60	-0.03426683
33	0x3dc70f83	0.097197555
34	0xbd64a564	-0.05582179
35	0xbd1b3c54	-0.03789933
36	0xbd4505fc	-0.04810141
37	0x3d4bf91f	0.049798127
38	0x3cfa0a51	0.030522497
39	0x3c97b33a	0.01851808
40	0x3d739686	0.059469722
41	0x3dab6d52	0.083704606
42	0x3d880bca	0.066428736
43	0xbe0615fe	-0.13094327
44	0x3da7cb02	0.081930175
45	0x3cb29b61	0.021802606
46	0xbe283df8	-0.16429889
47	0x3e2311db	0.1592478
48	0xbc7c8a97	-0.015413902
49	0xbc91d19e	-0.017800149
50	0x3d8da5f6	0.0691642
51	0xbd997219	-0.074924655
52	0x3dacc96a	0.08436854
53	0x3d9b11a2	0.075717226
54	0xbd8757a4	-0.06608513
55	0xbc741a88	-0.014898904
56	0x3e0e3ce4	0.13890415
57	0x3e3e1cfd	0.18565746
58	0xbdd8d58c	-0.10587606
59	0x3d75a23f	0.059969183
60	0xbccde9aa	-0.025135834
61	0x3d35bb52	0.044368096
62	0x3d8a4e88	0.0675326
63	0x3d88947b	0.066689454
64	0x3cc8b145	0.024498591
65	0xbde67958	-0.11253613
66	0x3c10d841	0.008840621
67	0xbe34b630	-0.17647624
68	0xbc86ba6f	-0.01644632
69	0x3b960d83	0.0045792474
70	0xbdbcdc1a	-0.092216685
71	0x3d62c016	0.05535897
72	0xbd34168e	-0.043966822
73	0xbbd05076	-0.006357248
74	0x3d85dcac	0.065362304
75	0xbcf97d28	-0.030455187
76	0xbc70986d	-0.014684779
77	0xbd4b91c7	-0.04969957
78	0x3d9b90fb	0.07596012
79	0xbc7bb14e	-0.015362097
80	0x3dd8ea6e	0.10591589
81	0x3d750a85	0.059824485
82	0x3c130688	0.008973725
83	0xbc4a072b	-0.012330811
84	0x3d4e10ea	0.0503091
85	0x3c844dcd	0.01615038
86	0xbd167845	-0.03673579
87	0xbddbda5f	-0.1073501
88	0xbbb160e9	-0.005413164
89	0xbc2fcdfe	-0.010730265
90	0x3daa7d03	0.08324625
91	0xbd76a4de	-0.060215823
92	0x3d984a79	0.074360795
93	0x3d7041dc	0.05865656
94	0xbd6d87c5	-0.057990808
95	0x3cb3ebd1	0.021963032
96	0x3d014eab	0.031569164
97	0xbcfab0a2	-0.030601803
98	0xbd33e818	-0.043922514
99	0x3db330d1	0.08749545
100	0x3d82606f	0.063660495
101	0x3dcfdaf5	0.101491846
102	0xbc3a4512	-0.011369007
103	0x3a205081	0.00061155116
104	0xbddbafe8	-0.10726911
105	0x3d6c1085	0.05763294
106	0x3c46b26a	0.012127498
107	0x3d7c3e1d	0.061582673
108	0xbd822ec3	-0.06356575
109	0x3e21822b	0.15772311
110	0xbca1dac7	-0.019757641
111	0x3c9ef122	0.01940209
112	0xbdc20ed7	-0.09475487
113	0xbd89b82b	-0.067245804
114	0x3b7ce99a	0.0038591386
115	0xbdcc2244	-0.09967473
116	0xbd01c82f	-0.03168505
117	0xbc39df7c	-0.011344787
118	0x3cf2ad08	0.029623523
119	0xbc8850f2	-0.01664016
120	0x3cc152e1	0.02359909
121	0x3d4ab790	0.049491465
122	0x3cbcc06c	0.023040973
123	0x3d60bb22	0.054865964
124	0x3d8b8a85	0.0681353
125	0x3c83e986	0.016102564
126	0xbad316f2	-0.0016104861
127	0x3daf3567	0.085551076
