paper_pretrained_models/scoring_of_docking_models/fold6_treg_yfnat_b128_e20_lr0.001_4.pt (torch, 150943 bytes, 33 tensors)

conv1.fc.weight f4 [16, 48]
0	0x3f57c5c2	0.8428613
1	0x3e470391	0.19434954
2	0x3ca8d92d	0.02061137
3	0x3e7454f6	0.23860535
4	0xbefbca6a	-0.49177867
5	0x3f17052f	0.58992285
6	0xbf694505	-0.9112094
7	0xbe194d26	-0.14970836
8	0x3d12e6b6	0.035864554
9	0xbd5f7b7c	-0.054561123
10	0xbe11e043	-0.14245705
11	0x3f3f7d9e	0.7480105
12	0xbf702e5d	-0.93820745
13	0xbe4ffc9d	-0.20311208
14	0x3f3209a8	0.69545984
15	0x3eb5de58	0.35521197
16	0xbf2ca473	-0.6743843
17	0x3edef287	0.4354441
18	0x3efc443e	0.49270815
19	0xbe1177ec	-0.14205903
20	0x3e60dd34	0.21959382
21	0x3e1f5b5e	0.15562198
22	0xbd7f6010	-0.06234747
23	0xbe47d730	-0.19515681
24	0xbc36ccc7	-0.011157221
25	0xbd8a9b4e	-0.06767903
26	0x3e16a2fd	0.14710613
27	0xbcbaa7a8	-0.022785023
28	0xbe1a72cf	-0.15082859
29	0x3f08458a	0.5323111
30	0x3e2ac1d2	0.16675499
31	0x3d5edef3	0.05441184
32	0x3d2bfb26	0.04198756
33	0x3cb355b1	0.021891447
34	0x3cf9548e	0.030435827
35	0x3ccfc742	0.025363568
36	0x3e91d1f8	0.28480506
37	0xbd86316c	-0.06552395
38	0xbe0374a8	-0.1283747
39	0x3e337816	0.17526278
40	0xbdfb542c	-0.12271914
41	0xbd79137c	-0.060809597
42	0x3d9c76b8	0.07639831
43	0xbdb41bd0	-0.08794367
44	0x3e424aeb	0.18973891
45	0x3daa006d	0.083008625
46	0x3da99954	0.08281198
47	0x3df9ab87	0.12190919
48	0x3ec2ca63	0.38045034
49	0xbf19b576	-0.6004251
50	0x3de41744	0.1113725
51	0x3f13bbb1	0.5770827
52	0x3f12be49	0.573216
53	0xbdd8f3d2	-0.1059338
54	0xbdf181b7	-0.11792319
55	0xbd177c56	-0.03698381
56	0xbe5d4e99	-0.21612014
57	0x3d90219d	0.07037661
58	0x3ea82a63	0.32844839
59	0xbf493d1a	-0.7860886
60	0xbf0d7f4c	-0.55272365
61	0xbd4fcf61	-0.05073488
62	0xbd3684c4	-0.04456021
63	0xbe60b421	-0.21943714
64	0xbe9200b1	-0.28516153
65	0x3edc1455	0.42984262
66	0x3e82ccb1	0.25546792
67	0xbbe042db	-0.0068439073
68	0xbecf9e54	-0.40550482
69	0x3be4ace4	0.006978618
70	0x3c97b339	0.018518077
71	0x3e612dd3	0.21990137
72	0x3b388766	0.0028156876
73	0xbe6bb962	-0.23019937
74	0xbd87f4c8	-0.06638485
75	0x3db88b0a	0.090108946
76	0x3dd70fc3	0.10501053
77	0x3c182698	0.009286545
78	0x3e0cbfe7	0.1374508
79	0x3cf6cf94	0.030128278
80	0xbd8048b2	-0.062638655
81	0x3e7a970c	0.24471682
82	0xbd9998a3	-0.07499816
83	0x3d89c229	0.06726486
84	0xbe200816	-0.15628085
85	0x3d37a0e7	0.044831183
86	0x3de0df11	0.109800465
87	0x3e26025c	0.16211838
88	0xbe29752b	-0.16548602
89	0xbe8f09d8	-0.27937198
90	0x3cdce892	0.026966367
91	0x3da7b941	0.08189631
92	0xbd82b285	-0.06381706
93	0x3cb4d1f4	0.02207277
94	0xbe635cc6	-0.22203359
95	0xbd41f362	-0.04735125
96	0xbf6046d9	-0.87608105
97	0xbdfebb54	-0.12438074
98	0xbe192b5e	-0.1495795
99	0xbf25a036	-0.6469759
100	0xbde8819a	-0.113528445
101	0xbc59e8ad	-0.013300103
102	0x3ed061c8	0.406996
103	0x3de467c2	0.11152603
104	0xbbca4aa6	-0.0061734496
105	0x3e8ba351	0.27273038
106	0xbe0f45eb	-0.13991515
107	0x3eb8859f	0.36039445
108	0x3e542b1b	0.20719568
109	0x3e967439	0.29385546
110	0xbf2bf37c	-0.671684
111	0x3e6057c5	0.21908481
112	0xbe63d61f	-0.2224965
113	0xbf0ff526	-0.5623344
114	0xbf1901ba	-0.5976826
115	0xbe6b4f19	-0.22979392
116	0x3d95779a	0.07298203
117	0x3ce75a35	0.028241256
118	0xbf2608e8	-0.6485734
119	0xbda5659a	-0.080760196
120	0x3c96e10f	0.018417863
121	0x3e8af137	0.27137157
122	0x3e2fe46a	0.17176977
123	0x3cb550cf	0.02213326
124	0x3e3a05f7	0.18166338
125	0x3dfb3549	0.12266023
126	0x3ddc78de	0.10765241
127	0xbd6cec1d	-0.057842363
128	0xbdd1f127	-0.10251074
129	0x3e81f1a4	0.2537967
130	0xbd2a0dab	-0.04151694
131	0x3d83726a	0.06418307
132	0xbe77dd4f	-0.24205516
133	0x3d4d2f59	0.050093982
134	0x3e0c7d63	0.13719706
135	0x3df01617	0.11722963
136	0x3d35df8e	0.04440265
137	0xbdb4c511	-0.0882665
138	0x3e076f03	0.13225941
139	0xbdda9d22	-0.10674502
140	0xbe81641f	-0.252717
141	0x3e2264ea	0.15858808
142	0x3e550b72	0.20805147
143	0x3cec728b	0.028863212
144	0x3f2e85ae	0.6817273
145	0x3e83b7e6	0.2572624
146	0xbe4625b9	-0.19350328
147	0x3f036a34	0.5133393
148	0x3f670c77	0.90253395
149	0xbe5108ed	-0.20413561
150	0x3e2593d3	0.16169672
151	0xbef62645	-0.48076072
152	0xbed99381	-0.4249535
153	0xbe854a6c	-0.26033342
154	0x3ed888db	0.42291912
155	0xbf011f56	-0.5043844
156	0x3f10adf1	0.56515414
157	0xbdeaa74b	-0.1145769
158	0x3e0d48c7	0.13797294
159	0xbdfece78	-0.124417245
160	0x3e64c906	0.2234231
161	0xbcd35209	-0.025795953
162	0xbdcb30c3	-0.0992141
163	0xbd3854d0	-0.04500276
164	0xbe826391	-0.25466588
165	0x3ec1d668	0.3785889
166	0xbd6cba30	-0.05779475
167	0xbdb1e1f3	-0.086856745
168	0xbcc36e62	-0.023856346
169	0xbeadaa9a	-0.3391922
170	0xbc6e8766	-0.014558649
171	0xbb948c92	-0.004533359
172	0xbe128abe	-0.14310738
173	0x3e8caf9f	0.27477738
174	0xbdb2ac6a	-0.087242916
175	0xbcd8bba1	-0.026456656
176	0x3e6c1f76	0.23058876
177	0x3e37b7aa	0.17941156
178	0x3a655c30	0.0008749394
179	0xbd00f03a	-0.031479098
180	0xbec6ed74	-0.38853037
181	0x3cbc6252	0.022996102
182	0x3e8654b2	0.26236492
183	0x3ea3927e	0.31947702
184	0x3e6486ad	0.22317
185	0x3d8f74a9	0.07004673
186	0xbe28e8b5	-0.1649502
187	0xbdab3511	-0.08359731
188	0x3e290bb7	0.16508375
189	0x3c7528e8	0.014963366
190	0x3e444df9	0.19170369
191	0xbcbaea44	-0.022816785
192	0xbf218a86	-0.63101995
193	0xbe0d62a2	-0.13807157
194	0xbd71ee02	-0.059064873
195	0xbf7d4a17	-0.9894118
196	0xbf282bd5	-0.6569188
197	0x3f36954e	0.7132157
198	0x3e889add	0.2668065
199	0x3e62a5ab	0.2213351
200	0x3f448a69	0.767737
201	0x3e81611c	0.252694
202	0xbe4562b0	-0.19275928
203	0x3ee367a9	0.44415024
204	0xbcc7e700	-0.024402142
205	0xbe916e9b	-0.28404698
206	0xbe1155a1	-0.14192821
207	0x3e8a9d08	0.2707293
208	0xbe3218e0	-0.17392302
209	0xbf83dd0a	-1.0301831
210	0xbf3b0ef6	-0.73069704
211	0xbeef7a2a	-0.4677289
212	0x3e8299a4	0.25507843
213	0xbe268a2b	-0.16263644
214	0xbf51da67	-0.8197388
215	0xbec6da91	-0.38838628
216	0x3d3aa8b9	0.045571063
217	0x3eb13fa7	0.34618875
218	0xbdeddcb8	-0.116143644
219	0x3dd29f0c	0.10284242
220	0xbd938c7b	-0.07204529
221	0xbd710139	-0.058839057
222	0x3cc3419c	0.023834996
223	0x3d2a432e	0.041567974
224	0xbd9c9be0	-0.07646918
225	0xbb7b004e	-0.0038299742
226	0x3cd06b2d	0.02544173
227	0xbc226360	-0.009911388
228	0xbe12f0e0	-0.14349699
229	0xbd600dd9	-0.054700706
230	0x3c09ea46	0.008417672
231	0xbe7ccd54	-0.24687701
232	0xbde361f5	-0.11102668
233	0x3e76ae13	0.24089842
234	0xbd127e02	-0.0357647
235	0x3ddbd59d	0.10734103
236	0x3d523b94	0.05132635
237	0xbe284060	-0.16430807
238	0x3e1b00e9	0.15137066
239	0xbd53e3ca	-0.05173091
240	0x3f6af3fd	0.91778547
241	0xbef6a6e5	-0.48174205
242	0x3d87a919	0.0662405
243	0x3ed2b232	0.41151577
244	0xbe8eac85	-0.27865997
245	0xbdd182b5	-0.102300085
246	0x3d77ab64	0.060466185
247	0xbebfa5dc	-0.37431228
248	0x3d01e6ab	0.031714123
249	0xbf36d6ff	-0.7142181
250	0xbe40510e	-0.1878092
251	0xbf31e877	-0.6949534
252	0x3dbd1281	0.09232045
253	0xbde2e09b	-0.11077996
254	0x3f1ff938	0.6248965
255	0x3e5fba02	0.218483

conv1.fc_attention.weight f4 [1, 33]
0	0xbea12bb8	-0.31478667
1	0xbd44062a	-0.04785744
2	0x3e9ab1c7	0.30213758
3	0xbe67ef66	-0.22649917
4	0x3e3ab820	0.182343
5	0xbd82e34e	-0.06391011
6	0x3e16ea99	0.1473793
7	0x3de0ed48	0.10982758
8	0x3c4a4d8e	0.012347592
9	0x3c5bc6ff	0.013414144
10	0xbe9c5401	-0.3053284
11	0xbe01b95a	-0.12668362
12	0x3e21bddc	0.15795082
13	0xbe805ab1	-0.25069192
14	0xbddaa077	-0.106751375
15	0xbd59e6f8	-0.053198785
16	0x3de878f6	0.113511965
17	0xbd5a9d95	-0.05337294
18	0xbb8a9eb2	-0.0042303437
19	0xbd2853b8	-0.041095465
20	0x3e60d66c	0.21956795
21	0x3cee0b20	0.02905804
22	0x3e405766	0.1878334
23	0xbd37f842	-0.04491449
24	0x3e85d55b	0.2613934
25	0xbead816e	-0.3388781
26	0x3bcb929e	0.0062125465
27	0xbe3516ca	-0.17684475
28	0xbe073fde	-0.13207957
29	0xbe93cbd8	-0.28866458
30	0xbe02dfd2	-0.12780693
31	0x3e512812	0.20425442
32	0x3f9aba29	1.2088062

conv2.fc.weight f4 [32, 16]
0	0xbce26d81	-0.027640106
1	0xbcc22c4a	-0.02370276
2	0xbea811a4	-0.3282596
3	0x3ead1296	0.33803242
4	0xbe56ba8a	-0.20969597
5	0x3dd263a1	0.10272909
6	0xbe15c527	-0.14625989
7	0xbe5a4068	-0.21313632
8	0x3b7db6fc	0.0038713804
9	0xbdebfc86	-0.115227744
10	0x3ed16870	0.40899992
11	0x3e8b23a0	0.27175617
12	0x3e0c615c	0.13709015
13	0xbe8995da	-0.2687214
14	0x3e466898	0.19375837
15	0x3d652e23	0.055952203
16	0x3e4169b9	0.18887986
17	0x3e547edd	0.2075152
18	0xbe68bb43	-0.22727685
19	0x3e767706	0.24068841
20	0x3c33deb4	0.0109783895
21	0x3e5daa51	0.21647002
22	0x3d90513c	0.07046744
23	0xbde55cef	-0.11199366
24	0x3eacacad	0.3372549
25	0x3e12148c	0.1426565
26	0xbe131324	-0.1436277
27	0x3dedd3a8	0.11612636
28	0xbd376a58	-0.04477915
29	0x3e025e39	0.12731256
30	0xbd0b8ca6	-0.03406968
31	0xbe02e7fe	-0.1278381
32	0xbdd3c38c	-0.10340032
33	0xbd2c9f6f	-0.042144235
34	0xbe1cfdbd	-0.15331168
35	0x3e1df9e1	0.15427352
36	0x3d5f7b2c	0.054560825
37	0x3d8f8f07	0.07009702
38	0x3ce3f721	0.027827801
39	0x3dd6dc92	0.10491289
40	0x3c8e3454	0.017358936
41	0x3b9496be	0.0045345714
42	0x3df74805	0.120742835
43	0x3e2e2e79	0.17009915
44	0x3c9a1ad5	0.018811623
45	0x3d5098b3	0.050926875
46	0xbc8bd823	-0.017070835
47	0x3d789758	0.060691208
48	0xbe5bec52	-0.21476868
49	0x3d9df63a	0.077129796
50	0xbe382e0a	-0.17986313
51	0x3e3f5216	0.18683657
52	0xbe2b7b59	-0.16746272
53	0x3e2a84bb	0.16652195
54	0xbc712d9f	-0.01472035
55	0x3dccefbb	0.100066625
56	0xbd69dc55	-0.05709489
57	0x3de5dd5e	0.11223863
58	0xbe469b65	-0.19395216
59	0x3d6d5c36	0.057949267
60	0x3d9cd879	0.076584764
61	0x3e645345	0.2229739
62	0xbc363384	-0.011120681
63	0x3dc477d4	0.09593168
64	0x3d08825d	0.03332745
65	0xbe83a78b	-0.25713763
66	0x3d2b6f23	0.041854035
67	0x3ebbbd51	0.36667874
68	0xbe2bcc9d	-0.16777273
69	0xbd643bc5	-0.055721063
70	0x3e8e7840	0.27826118
71	0x3e46b776	0.19405922
72	0x3db6df51	0.08929313
73	0x3c914481	0.01773286
74	0xbe5e4e06	-0.21709451
75	0xbe495622	-0.19661763
76	0xbe751425	-0.23933466
77	0x3e2847a9	0.16433586
78	0x3de38ae4	0.11110476
79	0x3d2b9ca9	0.04189745
80	0xbe855f13	-0.26049098
81	0x3dd110a3	0.10208251
82	0x3e8bb2a5	0.27284732
83	0xbf06b9a0	-0.5262699
84	0x3e842859	0.25812033
85	0xbe137290	-0.14399171
86	0xb7c08c62	-2.2953554e-05
87	0xbda98056	-0.08276431
88	0xbdf33783	-0.118758224
89	0xbee0acf2	-0.43881947
90	0xbd804754	-0.06263605
91	0xbe9513c3	-0.2911664
92	0xbe61eaa8	-0.2206217
93	0xbd8228c4	-0.06355432
94	0xbe39ef28	-0.18157637
95	0x3deba97a	0.115069345
96	0x3ecf253c	0.40458095
97	0x3db09c19	0.08623523
98	0xbd1ef293	-0.038805556
99	0xbe8584ff	-0.2607803
100	0xbf1007b0	-0.5626173
101	0xbec66edc	-0.38756454
102	0xbe8973b8	-0.268461
103	0xbe8127e6	-0.25225753
104	0xbd964456	-0.07337253
105	0x3dce553d	0.10074852
106	0xbdbc341b	-0.09189626
107	0xbee87c2a	-0.4540723
108	0xbe8efdc1	-0.27927974
109	0xbea8790d	-0.32904854
110	0xbe01fa71	-0.12693192
111	0x3e14a97a	0.14517775
112	0x3e00d180	0.12579918
113	0x3e10669d	0.14101644
114	0x3d0cec6a	0.03440515
115	0xbe8aa5ce	-0.27079624
116	0xbd32b012	-0.043624945
117	0x3e2a85b4	0.16652566
118	0x3d6be467	0.05759087
119	0xbe0b4ffe	-0.13604733
120	0x3d397662	0.045278914
121	0x3e4e9628	0.20174468
122	0xbbfd4987	-0.0077297124
123	0x3da3cd2c	0.07998118
124	0xbe3b4d67	-0.18291245
125	0x3af73c53	0.0018862583
126	0x3da6e8d3	0.081498764
127	0xbc6ac545	-0.014329259
128	0xbcbf4548	-0.023348466
129	0xbe4f5b89	-0.20249762
130	0xbd939cb3	-0.072076224
131	0x3e781631	0.24227215
132	0xbeb8e25b	-0.36110196
133	0xbe91064d	-0.2832512
134	0xbd94a7b9	-0.07258553
135	0x3e33024f	0.1748135
136	0x3e66dfbf	0.2254629
137	0xbea2e136	-0.31812447
138	0x3dde2321	0.10846544
139	0x3d4ad9aa	0.049523987
140	0xbd202cc6	-0.0391052
141	0xbf0bdaea	-0.5463091
142	0xbd9e3ec4	-0.07726815
143	0xbdd8a972	-0.10579194
144	0xbe089336	-0.13337407
145	0x3deb5e64	0.11492613
146	0xbd9ae7b4	-0.07563725
147	0xbd3be515	-0.045872767
148	0x3d960def	0.07326876
149	0xbb88241b	-0.0041546947
150	0x3d71ba6c	0.059015676
151	0xbc25f0d8	-0.010128222
152	0xbe917cd0	-0.28415537
153	0xbe81e4f8	-0.25370002
154	0xbe5fb90c	-0.21847934
155	0xbdb61206	-0.088901564
156	0xbdde0b28	-0.10841972
157	0x3e903b55	0.28170267
158	0xbde459ca	-0.111499384
159	0x3e7febef	0.24992345
160	0xbdce85c5	-0.10084108
161	0x3e0a4bdd	0.13505502
162	0xbe002010	-0.12512231
163	0xbdad54d1	-0.08463443
164	0x3b1f8815	0.0024342586
165	0xbe1deb23	-0.15421729
166	0x3e14a552	0.1451619
167	0xbe58d880	-0.21176338
168	0xbe0bb47b	-0.13643067
169	0xbdbe3465	-0.09287337
170	0xbedce44a	-0.4314292
171	0xbeb9d8d8	-0.3629825
172	0x3de5fbc2	0.112296596
173	0xbddc9a80	-0.10771656
174	0xbe7e1a87	-0.24814807
175	0x3e1a4103	0.15063863
176	0x3e786665	0.2425781
177	0x3e431f96	0.19055018
178	0xbc738015	-0.01486208
179	0x3f0ebbe1	0.5575543
180	0x3dd706b3	0.10499325
181	0xbdd2fe6b	-0.103024326
182	0xbe9b913c	-0.30384243
183	0x3e356a0e	0.17716238
184	0xbda1c02a	-0.078979805
185	0xbf0549a8	-0.52065516
186	0xbe85243b	-0.26004204
187	0xbc6912f1	-0.014225707
188	0x3e060791	0.13088824
189	0xbed387d8	-0.41314578
190	0xbd7dc453	-0.061954807
191	0xbd18adbe	-0.03727507
192	0x3ddda8c5	0.10823206
193	0x3dc25530	0.094889045
194	0xbd0e1c81	-0.034695152
195	0x3ec9611a	0.39331895
196	0x3e5c7344	0.21528345
197	0xbe5bc3ca	-0.21461406
198	0x3d8f8670	0.07008064
199	0x3e6ceaea	0.23136488
200	0x3d94eb38	0.07271427
201	0x3e4f5362	0.20246652
202	0xbe928782	-0.2861901
203	0x3daa132e	0.083044395
204	0xbe8696b8	-0.26286864
205	0xbd8ad155	-0.06778208
206	0xbe59449a	-0.21217576
207	0xbe9d0d3d	-0.30674163
208	0x3e3ef2eb	0.18647353
209	0x3e994c93	0.29941234
210	0x3d8c58d5	0.06852881
211	0x3f0b9c89	0.5453573
212	0xbe819a58	-0.25313067
213	0x3e1ebd83	0.1550198
214	0xbda5f0ea	-0.08102591
215	0xbe9da9bd	-0.30793563
216	0xbe9f266d	-0.31084004
217	0xbea39442	-0.3194905
218	0x3e4ab198	0.19794309
219	0x3f308438	0.6895175
220	0xbe2eb2a0	-0.17060328
221	0xbedfc21b	-0.43702778
222	0xbdca2d93	-0.09871974
223	0x3e044284	0.12915999
224	0xbe0fcb89	-0.14042486
225	0xbe854c66	-0.2603485
226	0x3e28e293	0.16492681
227	0xbd8fa1f8	-0.07013315
228	0x3dafaf41	0.08578349
229	0x3ae4411f	0.0017414427
230	0x3dfe5904	0.12419322
231	0x3e62c3fe	0.22145078
232	0xbeb0d578	-0.34537864
233	0x3e0d606e	0.13806316
234	0x3cbe0e32	0.023200128
235	0xbe9cb9cd	-0.30610505
236	0xbe2249e2	-0.15848497
237	0xbe20a536	-0.15688023
238	0x3d068448	0.032840997
239	0x3dcf7cba	0.101312116
240	0x3dbe18ca	0.09282072
241	0xbd880e93	-0.06643405
242	0x3eaf6421	0.3425608
243	0xbe0cb345	-0.13740261
244	0xbe538318	-0.20655477
245	0x3d5c7639	0.053823683
246	0x3e6f341a	0.23359719
247	0x3ce5509a	0.027992535
248	0x3d70f297	0.0588251
249	0xbe8c4d6e	-0.27402824
250	0xbf055e9c	-0.5209749
251	0xbe68f8a0	-0.22751093
252	0xbe85247f	-0.26004407
253	0x3e012aa0	0.12613916
254	0xbdb14a50	-0.08656752
255	0x3e29eca9	0.16594185

conv2.fc_attention.weight f4 [1, 65]
0	0xbe4b9732	-0.19881895
1	0xbd8377ad	-0.06419311
2	0xbe38315c	-0.17987579
3	0xbd9bde24	-0.07610729
4	0x3e3a5268	0.18195498
5	0xbe86f68e	-0.2635998
6	0x3e639388	0.22224247
7	0x3e0616f0	0.13094687
8	0x3c16819f	0.0091861775
9	0xbe21b5c2	-0.15791991
10	0x3d59d215	0.053178865
11	0xbe9581f0	-0.29200697
12	0xbd17d1fb	-0.037065487
13	0xbe5fd0c0	-0.21856976
14	0xbe170922	-0.14749578
15	0x3e13a462	0.14418176
16	0xbdb13b29	-0.08653862
17	0x3e51bf06	0.20483026
18	0x3ea55ede	0.3229894
19	0x3d1a427a	0.037661053
20	0x3dbe6240	0.092960835
21	0x3e3351bc	0.17511648
22	0xbdd9b254	-0.106297165
23	0xbe6d02b0	-0.23145556
24	0xbd9b3d24	-0.07580021
25	0xbdd4bb86	-0.1038733
26	0x3e0845e1	0.13307907
27	0xbe50022e	-0.20313331
28	0xbe1a054a	-0.1504108
29	0xbdbcd896	-0.09220998
30	0x3e6e2b32	0.23258665
31	0x3d417ecf	0.047240075
32	0x3e2d3fcc	0.16918868
33	0xbe9a7a07	-0.30171224
34	0xbc656ac6	-0.014002508
35	0xbe433719	-0.19063987
36	0x3d2e759f	0.04259264
37	0xbe0cfbbe	-0.13767907
38	0x3e48b455	0.19600041
39	0xbee5e001	-0.44897464
40	0x3eb5bafd	0.35494223
41	0xbe56a592	-0.20961598
42	0x3e772e14	0.24138671
43	0x3e3512cf	0.17682956
44	0x3e47040c	0.19435138
45	0x3c0c3e07	0.00855971
46	0xbd392134	-0.04519768
47	0xbd806305	-0.062688865
48	0x3e554988	0.20828831
49	0x3ce63aca	0.028104205
50	0xbe4c6158	-0.19959009
51	0x3e46a5da	0.19399205
52	0x3c889fe4	0.016677804
53	0xbe709456	-0.23494086
54	0xbd340a91	-0.04395539
55	0x3e289ef0	0.1646688
56	0xbdc0b236	-0.09408991
57	0x3e310cf7	0.17290102
58	0xbeb5d7a5	-0.35516086
59	0xbd9b3cea	-0.07579978
60	0x3dec8a9c	0.11549875
61	0xbe7a1002	-0.24420169
62	0xbd95884c	-0.07301387
63	0xbe8cffe8	-0.2753899
64	0xbebf2356	-0.37331647

conv1_ext.fc.weight f4 [16, 48]
0	0x3ded71ea	0.11593993
1	0x3e99ddd3	0.3005205
2	0x3e331e0f	0.17491935
3	0xbf0e718f	-0.55642027
4	0xbf286121	-0.65773207
5	0x3efa5ea4	0.4890033
6	0x3f067f0a	0.52537596
7	0xbefb8349	-0.491236
8	0xbd4adc56	-0.049526535
9	0xbd8e309f	-0.069428675
10	0x3e9e18d1	0.30878308
11	0x3ddfa28e	0.10919677
12	0x3e3a66f9	0.18203343
13	0x3e04a170	0.12952209
14	0x3dc5471e	0.09632705
15	0x3e045373	0.12922458
16	0xbebb6f5b	-0.36608395
17	0x3d42299e	0.04740297
18	0x3d9c8d60	0.07644153
19	0xbe2b613f	-0.16736315
20	0x3e28b96a	0.1647698
21	0xbc5e581e	-0.013570813
22	0x3be079e6	0.006850469
23	0xbd3f2bbf	-0.04667258
24	0xbd55c72d	-0.052191902
25	0xbda3ec9a	-0.080041125
26	0x3d85d719	0.06535167
27	0xbda1dd2c	-0.07903513
28	0xbd6dd37a	-0.058063008
29	0xbe00535e	-0.12531802
30	0xbd9368b2	-0.071977034
31	0x3de35e5b	0.11101981
32	0x3c880be6	0.016607236
33	0xbda59aec	-0.0808619
34	0xbcce74e2	-0.025202218
35	0xbdfcc8a0	-0.12342954
36	0x3ca9a530	0.02070865
37	0xbdd261ab	-0.10272535
38	0x3ca6b6e8	0.020350888
39	0x3da98d36	0.08278887
40	0xbdaa0c0a	-0.083030775
41	0x3d2ddbaf	0.042445835
42	0x3df553a0	0.11978841
43	0xbe030d1f	-0.12797974
44	0x3db19989	0.08671863
45	0xbe35d951	-0.17758681
46	0xbdd7d98c	-0.10539541
47	0xbd3191a7	-0.043351796
48	0xbd8f0ba8	-0.06984645
49	0xbf19c3ef	-0.60064596
50	0xbe9a28a3	-0.30109128
51	0x3e9a9008	0.30188012
52	0xbe736ece	-0.23772737
53	0xbdf9c993	-0.1219665
54	0xbd6678db	-0.0562676
55	0x3e9c2eed	0.30504552
56	0xbe2e1f3b	-0.17004101
57	0x3c73a335	0.014870455
58	0xbe1f345b	-0.15547316
59	0x3d2240d6	0.039612614
60	0xbd5b04fa	-0.053471543
61	0xbd792e47	-0.06083515
62	0x3e551169	0.20807423
63	0x3f197d85	0.5995715
64	0xbe2516c7	-0.1612197
65	0xbe663b42	-0.22483543
66	0x3e6e54ad	0.23274489
67	0xbcd62f7d	-0.026145691
68	0x3e7e2e7a	0.24822417
69	0xbd6f7a4f	-0.058466252
70	0x3e3bed9b	0.18352358
71	0xbe52c6c4	-0.20583636
72	0x3b81a360	0.0039562434
73	0xbe0066b5	-0.1253918
74	0x3c84f7ea	0.016231496
75	0x3de7fec1	0.11327887
76	0xbd0b94dd	-0.034077514
77	0x3e4e3c88	0.20140278
78	0xbe27981d	-0.1636662
79	0xbddf6aee	-0.10909067
80	0xbd8a6f5f	-0.067595236
81	0x3d9f79a0	0.0778687
82	0x3d1334fb	0.035939198
83	0xbe2d785f	-0.16940449
84	0x3e34a9ef	0.1764295
85	0xbb365dc1	-0.0027826878
86	0x3eb2e5ce	0.34940952
87	0x3d5b2ced	0.05350964
88	0xbdea4380	-0.11438656
89	0xbcf4df4d	-0.029891634
90	0x3d65e9c1	0.05613113
91	0xbe229d2d	-0.1588027
92	0xbe39c6d0	-0.18142247
93	0x3ebd37bb	0.3695658
94	0xbddf9462	-0.10916974
95	0x3e2db608	0.1696397
96	0x3ecd7418	0.40127635
97	0xbecc23de	-0.39871114
98	0x3e91a6d2	0.28447586
99	0x3eccbfb9	0.39990023
100	0x3eb2d2ad	0.34926358
101	0xbe7209dd	-0.23636575
102	0xbc72f3e8	-0.01482866
103	0x3f41ff60	0.75780296
104	0x3f20f1b5	0.62868816
105	0xbe7320d3	-0.2374299
106	0xbe6b26ec	-0.22964066
107	0xbf537483	-0.8259966
108	0xbee66d7b	-0.45005402
109	0xbecf8cf1	-0.40537217
110	0x3f176f98	0.59154654
111	0x3f7f144b	0.9964034
112	0xbd10e0a9	-0.035370503
113	0xbc2eaa78	-0.01066076
114	0xbd503758	-0.05083403
115	0xbe860fb5	-0.2618386
116	0x3e4c1821	0.1993108
117	0x3e21e049	0.15808214
118	0x3e092988	0.13394749
119	0xbef89136	-0.48548287
120	0xbd455b7b	-0.048182946
121	0x3d51fcfc	0.051266655
122	0x3ce249ea	0.027623136
123	0xbd5d72b1	-0.054064456
124	0x3e0c14f5	0.1367987
125	0x3e913f8b	0.28368792
126	0xbd9d8f82	-0.076933876
127	0xbe284f0e	-0.16436407
128	0xbe283412	-0.16426113
129	0x3ec115af	0.37711856
130	0x3e19f6b6	0.15035519
131	0xbe0c5c84	-0.13707167
132	0x3e45aa94	0.19303352
133	0xbdb2b4b5	-0.087258734
134	0x3e2ae773	0.16689853
135	0x3d4eeab6	0.050516807
136	0xbd88662e	-0.06660114
137	0x3d7e28ff	0.062050816
138	0x3d92152a	0.07132943
139	0x3e470e0f	0.19438957
140	0x3e885deb	0.26634154
141	0xbdc0334b	-0.09384783
142	0x3e2f5d1f	0.17125367
143	0xbda4c9cb	-0.080463015
144	0xbd9a5544	-0.075357944
145	0xbd87e0d7	-0.06634682
146	0x3f07c42e	0.5303372
147	0x3dd76314	0.105169445
148	0xbf0dc142	-0.55373013
149	0xbe04c1ab	-0.12964503
150	0x3e899ee1	0.26879027
151	0xbee15ac8	-0.44014573
152	0x3bd3e5c2	0.0064665982
153	0xbcaf9c74	-0.021436907
154	0xbcd86ee5	-0.026420066
155	0x3e101774	0.14071447
156	0x3f092ad2	0.53580964
157	0x3ea4208c	0.3205608
158	0xbeaf8e7c	-0.34288394
159	0xbd5d07ac	-0.053962395
160	0xbed8fafa	-0.4237898
161	0xbec7dd21	-0.39035895
162	0x3ee0d8f4	0.43915522
163	0xbe53cc5b	-0.20683424
164	0x3e2f01b8	0.170905
165	0xbd9b76b5	-0.07591001
166	0xbe4807be	-0.19534203
167	0xbe1dc63f	-0.15407656
168	0xbe1e8f9f	-0.15484475
169	0x3e535ef1	0.20641686
170	0x3d13b076	0.03605696
171	0x3d2f28f6	0.042763673
172	0xbdabb8e3	-0.08384874
173	0xbdf00cd1	-0.117211945
174	0xbd637701	-0.055533413
175	0xbdcbcf1d	-0.09951613
176	0x3c86a026	0.016433787
177	0x3d754bf1	0.059886876
178	0x3dc681fc	0.09692761
179	0x3d31d38e	0.043414645
180	0x3d8d40e6	0.06897144
181	0xbdd1310a	-0.102144316
182	0xbdb77730	-0.0895828
183	0x3cc1634b	0.023606917
184	0x3cbd0db0	0.023077816
185	0x3e74b957	0.23898827
186	0xbd9ec2dc	-0.0775201
187	0xbe8db22d	-0.27675
188	0xbddc52d0	-0.10757983
189	0xbe2da250	-0.16956449
190	0xbd3b2a1f	-0.045694467
191	0x3dcc2b9c	0.09969255
192	0xbda1ec49	-0.07906396
193	0x3e885ff1	0.26635697
194	0xbdd97fea	-0.10620101
195	0x3f0bab69	0.54558426
196	0x3e6c1831	0.23056103
197	0xbe950d22	-0.29111582
198	0xbeddc32d	-0.4331297
199	0xbef33892	-0.47504097
200	0x3d98f8ef	0.07469355
201	0xbe622091	-0.22082736
202	0xbe2f733e	-0.17133805
203	0xbc009129	-0.007847109
204	0xbe1bb3b1	-0.15205266
205	0xbf6c48b6	-0.9229845
206	0xbdb04332	-0.086065665
207	0x3c18d44e	0.009327961
208	0x3eca0772	0.39458805
209	0xbd9716df	-0.07377409
210	0x3ee080ab	0.43848166
211	0xbe95a1db	-0.29225048
212	0xbe435074	-0.19073659
213	0x3dd5f133	0.10446396
214	0x3e8e5e07	0.27806112
215	0xbea2c6a1	-0.31792167
216	0x3c346b5a	0.011011923
217	0xbd18daf5	-0.03731819
218	0xbdaa0990	-0.08302605
219	0xbd01cb28	-0.031687886
220	0xbddb3e22	-0.1070521
221	0x3e73a6cc	0.23794097
222	0xbe9488c0	-0.29010582
223	0xbe9edf08	-0.31029534
224	0x3c882432	0.016618822
225	0x3e6c5e22	0.23082784
226	0x3e257d55	0.16161092
227	0xbd8e9fba	-0.06964059
228	0x3e32db08	0.17466366
229	0x3d45899f	0.04822695
230	0x3dca61af	0.09881913
231	0x3de51806	0.11186223
232	0x3c02059f	0.0079359105
233	0x3dfb7805	0.12278751
234	0x3e857280	0.2606392
235	0x3da087ac	0.07838377
236	0xbd9ecb9e	-0.07753681
237	0x3e0cd7cc	0.13754195
238	0xbe6d65fb	-0.23183434
239	0xbce0ea43	-0.027455455
240	0xbefef397	-0.4979522
241	0xbe3e7cdc	-0.18602318
242	0xbe96186d	-0.2931551
243	0xbdb53d7d	-0.088496186
244	0x3f13aaf6	0.5768274
245	0xbf0dd9dd	-0.5541056
246	0xbf1b2b77	-0.606132
247	0xbed1f84b	-0.41009745
248	0xbe4fde5e	-0.2029967
249	0xbebd43b7	-0.36965725
250	0x3e61eaba	0.22062197
251	0x3dba94fa	0.09110446
252	0x3ef3c7da	0.47613412
253	0xb8900cfa	-6.868872e-05
254	0x3de7f1ed	0.113254406
255	0xbe34c3a6	-0.17652759

conv1_ext.fc_attention.weight f4 [1, 33]
0	0x3e089175	0.13336737
1	0x3d4fe27a	0.050753094
2	0xbc42e929	-0.01189641
3	0x3d95530f	0.07291233
4	0x3d3a3933	0.045464706
5	0x3e1b1ca2	0.15147641
6	0x3ee95260	0.4557066
7	0xbd45b1c1	-0.048265222
8	0x3ddeaa20	0.108722925
9	0xbd677926	-0.05651202
10	0xbe8d1fb6	-0.27563256
11	0x3d4e6c90	0.050396502
12	0x3e215e04	0.1575852
13	0x3e26e02d	0.16296454
14	0x3de2e0fb	0.11078068
15	0xbe7b4d40	-0.24541187
16	0xbd102b86	-0.035197757
17	0xbcf5677e	-0.029956575
18	0x3e07f3ca	0.13276592
19	0x3c310e4a	0.010806629
20	0x3d698fd8	0.057021946
21	0xbe4c8fad	-0.19976683
22	0x3de866ff	0.1134777
23	0xbe883538	-0.26603103
24	0x3de74ca2	0.112939134
25	0x3cbde447	0.02318014
26	0xbe644a8e	-0.22294065
27	0xbd25702b	-0.040390175
28	0xbe540eed	-0.20708819
29	0xbe1d968b	-0.15389459
30	0x3c989f97	0.018630786
31	0x3e39de9b	0.18151323
32	0xbdf77de3	-0.12084558

conv2_ext.fc.weight f4 [32, 16]
0	0xbd6ff896	-0.05858668
1	0x3e465eaf	0.19372056
2	0xbe770e83	-0.2412663
3	0xbe8c64d4	-0.27420676
4	0xbdca401b	-0.098755084
5	0x3e39baf9	0.1813773
6	0xbe4451ee	-0.19171879
7	0xbeb554b2	-0.3541618
8	0xbe26ea72	-0.16300371
9	0xbd6f3b5f	-0.05840623
10	0xbe42afc7	-0.19012366
11	0x3e69b570	0.22823119
12	0x3e5821c5	0.21106632
13	0xbe9142f7	-0.28371403
14	0x3e78edb5	0.24309428
15	0x3e1232b1	0.1427715
16	0xbc88cbe4	-0.016698785
17	0xbd66999c	-0.056298837
18	0x3e8fc96f	0.2808337
19	0xbeb07163	-0.34461507
20	0xbe91043b	-0.2832354
21	0xbc36cb1b	-0.011156823
22	0x3e150b2b	0.14555041
23	0x3dd2a4c1	0.102853306
24	0xbe7cefbc	-0.24700826
25	0x3e5a6ef3	0.21331386
26	0x3d8be2fa	0.06830402
27	0x3dfb297b	0.12263771
28	0x3e27dbd4	0.16392452
29	0xbe7c0f8f	-0.2461531
30	0x3c1e91e0	0.009678334
31	0xbea26cc5	-0.3172361
32	0xbda5249e	-0.08063625
33	0x3e884d9a	0.26621705
34	0x3dd1d7fd	0.102462746
35	0xbe3d40ce	-0.18481752
36	0xbdf44e4e	-0.11928998
37	0x3c39e755	0.011346658
38	0xbe8a3aad	-0.2699789
39	0x3e876940	0.26447487
40	0xbdea31d3	-0.114352845
41	0x3d8d2a32	0.06892814
42	0xbe645aeb	-0.22300307
43	0xbdb96be2	-0.0905378
44	0x3d843208	0.06454855
45	0xbcc163f0	-0.023607224
46	0x3e1752b4	0.14777642
47	0xbe2ab17c	-0.16669267
48	0xbe5058c6	-0.20346364
49	0x3e0597a3	0.13046126
50	0x3e38634f	0.18006633
51	0xbe91b4bb	-0.284582
52	0xbe13f85a	-0.14450207
53	0x3da85348	0.0821901
54	0x3cf48b83	0.02985168
55	0x3ddde4cf	0.108346574
56	0x3e36a402	0.17836002
57	0xbb0825a9	-0.00207744
58	0xbe08a0c1	-0.13342573
59	0x3df6b5a2	0.120463625
60	0xbe03118f	-0.12799667
61	0xbe251110	-0.1611979
62	0xbd8e8dc6	-0.06960635
63	0x3db681e4	0.089114934
64	0xbe5599d2	-0.20859459
65	0xbd55bb8d	-0.052180815
66	0xbe812976	-0.25226945
67	0xbe54116d	-0.20709772
68	0xbe5bfb2f	-0.21482538
69	0x3f17b436	0.59259355
70	0x3ea43bbd	0.32076827
71	0xbcdfddd4	-0.027327456
72	0x3c1682e2	0.009186478
73	0x3e33d822	0.17562917
74	0xbe618182	-0.2202206
75	0xbe11890f	-0.1421244
76	0xbde3c554	-0.11121622
77	0xbe998ae6	-0.29988784
78	0x3e9bfc84	0.30466092
79	0x3e0969ad	0.13419218
80	0xbe047518	-0.12935293
81	0x3e66fc12	0.22557095
82	0x3edac235	0.42726293
83	0xbe92c0ba	-0.28662664
84	0xbed90e9e	-0.42393965
85	0x3e0564fa	0.13026801
86	0xbdf20d90	-0.11818993
87	0x3e0ae8df	0.13565396
88	0xbe04c023	-0.1296392
89	0xbe8d8a90	-0.27644777
90	0xbdd878ed	-0.1056994
91	0xbda8a318	-0.08234233
92	0xbdd67146	-0.10470824
93	0x3d5058e5	0.050866026
94	0x3d62d00c	0.05537419
95	0xbe96efd4	-0.2947985
96	0x3e68c14b	0.22729985
97	0x3de5361f	0.111919634
98	0x3e1613a2	0.14655927
99	0xbea6bb17	-0.32564613
100	0xbeda16a9	-0.42595413
101	0x3e45285a	0.19253674
102	0x3e745a2c	0.23862523
103	0x3d0b407a	0.033997037
104	0xbeabf4ef	-0.33585307
105	0x3cd439df	0.025906501
106	0xbecfcc33	-0.4058548
107	0xbde53cd8	-0.11193246
108	0xbe3ee579	-0.18642224
109	0x3c1e0e34	0.009646941
110	0xbdd41cc0	-0.10357046
111	0x3e1a32f5	0.15058501
112	0xbdba1d9c	-0.09087679
113	0x3de2d629	0.11076004
114	0xbce7f00c	-0.028312705
115	0xbe61695c	-0.22012848
116	0x3d073dda	0.03301797
117	0xbd324bad	-0.0435292
118	0x3e88690c	0.26642644
119	0x3d6869bd	0.056741465
120	0xbc34d764	-0.011037681
121	0x3e3009d0	0.17191243
122	0xbd17af3c	-0.03703235
123	0xbdf9b814	-0.12193313
124	0x3c1bdf8d	0.009513748
125	0x3dbd3dda	0.09240313
126	0xbb84efaa	-0.0040568905
127	0xbe8e2ad9	-0.27767065
128	0xbdeacea9	-0.114651985
129	0xbd06cb67	-0.032908823
130	0xbd25a484	-0.040440097
131	0xbe6d0e64	-0.23150021
132	0x3e732618	0.23745
133	0x3dd7c4dd	0.105355956
134	0xbec3fe98	-0.38280177
135	0x3e09a33a	0.13441172
136	0xbe0bef07	-0.136654
137	0x3e85d176	0.2613637
138	0x3dae9bbc	0.08525798
139	0xbd718e57	-0.058973636
140	0x3cc886e2	0.02447838
141	0xbe1db95e	-0.15402743
142	0xbd006796	-0.031348787
143	0xbec1c8d1	-0.37848523
144	0xbdc706d3	-0.097180985
145	0x3be29141	0.0069142883
146	0x3a4c73c8	0.0007799235
147	0x3c6cfaf4	0.014464129
148	0xbe6d8d71	-0.23198487
149	0xbe114aa7	-0.14188634
150	0x3e8da0d4	0.27661765
151	0x3e3a7bfb	0.18211357
152	0xbe3f9a02	-0.18711093
153	0x3df309ce	0.118671045
154	0xbe7fa084	-0.24963576
155	0xbd719ac5	-0.05898549
156	0x3ccf275b	0.02528732
157	0x3c32a3b2	0.010903286
158	0xbe4b24b2	-0.19838217
159	0xbe86e98c	-0.26350057
160	0xbe02326c	-0.12714547
161	0x3e4ed458	0.2019819
162	0x3e861b38	0.2619264
163	0xbcf18df8	-0.029486641
164	0xbd49c923	-0.049264085
165	0x3d40c24f	0.047060307
166	0xbe278544	-0.1635943
167	0x3d9461df	0.0724523
168	0xbd871331	-0.06595457
169	0x3e0752fc	0.1321525
170	0xbe61b845	-0.2204295
171	0xbdbc171a	-0.09184094
172	0xbd1fe57b	-0.03903721
173	0xba81e17d	-0.000990912
174	0x3dec3bd0	0.11534846
175	0xbe919eea	-0.28441554
176	0xbe616823	-0.22012381
177	0xbe561ff1	-0.20910622
178	0xbb19e8be	-0.0023484672
179	0xbe23418c	-0.15942973
180	0xbea9ba46	-0.33149928
181	0xbefcc5d5	-0.49369684
182	0xbe751cbd	-0.23936744
183	0xbe41690a	-0.18887725
184	0x3df887cd	0.12135277
185	0x3d9c7cc8	0.07640988
186	0x3e3d269c	0.1847176
187	0x3e298ba1	0.1655717
188	0xbdf15b02	-0.117849365
189	0xbe36ae3b	-0.17839901
190	0x3e3da8f7	0.18521486
191	0x3d82e9d2	0.06392254
192	0x3d911702	0.070844665
193	0x3cbad442	0.02280629
194	0xbdbf2b3a	-0.09334417
195	0xbe1af272	-0.15131548
196	0xbf12bd23	-0.5731985
197	0x3e5f80ba	0.21826449
198	0xbe81ad8f	-0.25327727
199	0x3e702fbe	0.23455712
200	0xbd05b5d5	-0.03264411
201	0x3e297157	0.16547142
202	0xbedd3f8d	-0.43212548
203	0xbdd1f26c	-0.102513164
204	0xbdb0acdc	-0.0862672
205	0xbe1be0f1	-0.15222527
206	0x3bea9ca5	0.0071597868
207	0xbd0a36ef	-0.033743795
208	0xbe8050a0	-0.25061512
209	0x3e811e9c	0.25218666
210	0x3f1dbb01	0.6161347
211	0xbf040ec6	-0.5158504
212	0xbebd7531	-0.37003472
213	0xbc0eb2a2	-0.008709582
214	0x3c4d08cb	0.012514303
215	0xbdd43fdd	-0.103637435
216	0x3da6461d	0.08118842
217	0xbae316a9	-0.0017325479
218	0x3e306838	0.17227256
219	0x3dcdca11	0.10048307
220	0xbb8692ee	-0.004106871
221	0xbf3048f5	-0.68861324
222	0xbdd15a3e	-0.102222905
223	0x3d141fe7	0.036163237
224	0xbe0d9c4a	-0.13829151
225	0x3e392962	0.18082193
226	0xbe132db4	-0.14372903
227	0x3d855d01	0.0651188
228	0xbe88ebd1	-0.26742414
229	0xbec0d25f	-0.376605
230	0xbe6ca4c6	-0.23109731
231	0x3e7ddcfa	0.24791327
232	0xbe2d75f3	-0.16939525
233	0x3c824cfb	0.015905848
234	0x3df21485	0.1182032
235	0xbeba9a39	-0.36445788
236	0xbe2737f4	-0.16329938
237	0x3e1abd5c	0.15111297
238	0x3c7d775f	0.015470355
239	0xbdf250c8	-0.11831814
240	0xbe163615	-0.14669068
241	0x3e564f8c	0.20928782
242	0xbd6700c8	-0.05639723
243	0x3dd172e8	0.10226995
244	0xbeaa26cf	-0.33232734
245	0x3e2a13d5	0.16609128
246	0xbdd367f7	-0.10322564
247	0x3e0c04ee	0.13673756
248	0xbe21941d	-0.15779157
249	0x3e3ad145	0.18243892
250	0xbe37bd69	-0.17943348
251	0xbc5b3701	-0.013379813
252	0xbe3201f1	-0.17383553
253	0xbe274e1f	-0.16338395
254	0x3dcee277	0.101017885
255	0xbe04667a	-0.12929717

conv2_ext.fc_attention.weight f4 [1, 65]
0	0xbcaeb017	-0.0213242
1	0x3e5a7c64	0.21336514
2	0x3e847a20	0.25874424
3	0xbbcfe559	-0.006344479
4	0xbea78196	-0.32716054
5	0xbd5fe707	-0.054663684
6	0xbe843012	-0.25817925
7	0x3e77536f	0.24152921
8	0xbe6a5453	-0.2288373
9	0x3e89583f	0.2682514
10	0xbd5d002d	-0.053955246
11	0x3e94b354	0.29043067
12	0xbe4e2642	-0.20131782
13	0xbe0b0228	-0.13575041
14	0xbdea862b	-0.11451372
15	0xbcf46fe6	-0.029838514
16	0x3eb04901	0.34430698
17	0x3ce7b47c	0.028284304
18	0x3e54d380	0.20783806
19	0x3edecbf5	0.43514982
20	0x3ef16747	0.47149107
21	0x3e32a109	0.17444243
22	0xbcece93e	-0.028919812
23	0xbd2eaa3a	-0.04264281
24	0xbf245005	-0.641846
25	0x3e8fb94f	0.28071067
26	0x3dd8c2c9	0.10584027
27	0x3e2baddc	0.16765541
28	0x3ea84379	0.32863978
29	0xbe7fefa6	-0.24993762
30	0xbeaeb1d0	-0.34120035
31	0x3c91a50e	0.0177789
32	0xbd7bd0da	-0.061478473
33	0x3ee56de4	0.44810402
34	0x3e2d3312	0.16914013
35	0x3e578eb6	0.21050534
36	0x3d07ed2c	0.03318517
37	0x3d9f578b	0.07780369
38	0x3e3a5d6f	0.18199705
39	0x3e96297f	0.29328534
40	0x3ebeac93	0.3724104
41	0x3e17de7d	0.14830966
42	0x3e5f7e5a	0.21825543
43	0xbd48bfaf	-0.04901093
44	0x3c38ca27	0.011278666
45	0x3df8fcfc	0.12157628
46	0xbda151f4	-0.078769594
47	0x3e092021	0.13391162
48	0x3ebb2cd8	0.3655765
49	0xbe14eb74	-0.14542943
50	0xbcfbc574	-0.030733801
51	0x3e8ddd85	0.27708068
52	0x3e33ffd1	0.17578055
53	0xbe202edc	-0.15642875
54	0xbd54edfb	-0.05198477
55	0x3e228ffa	0.15875235
56	0xbe906189	-0.28199413
57	0x3c8dd62b	0.017314037
58	0x3e49bf45	0.1970187
59	0xbebd4ee6	-0.36974257
60	0x3e8acf1e	0.27111143
61	0x3d151118	0.036393255
62	0x3e2b9c41	0.16758825
63	0xbf1b2878	-0.60608625
64	0x3ea40359	0.32033804

fc1.weight f4 [128, 64]
0	0xbc2320a2	-0.009956511
1	0x3c636904	0.013880018
2	0x3d85753c	0.06516501
3	0x3c71b6dc	0.01475307
4	0xbd22744a	-0.039661683
5	0xbe5bd33a	-0.21467295
6	0xbdbff349	-0.09372575
7	0x3d98a3a6	0.074530885
8	0xbea0a5c1	-0.3137646
9	0x3d59a009	0.053131137
10	0xbc506ec4	-0.012721721
11	0xbda8e2cd	-0.08246384
12	0x3da28b6c	0.07936749
13	0xbe1aab7c	-0.15104479
14	0x3dff3b79	0.124625154
15	0xbd13866c	-0.036016867
16	0x3d62d87f	0.055382248
17	0x3d972159	0.073794074
18	0x3afbbc39	0.0019205875
19	0x3d7c20e3	0.0615548
20	0x3d0e1e70	0.034696996
21	0xbd758154	-0.05993779
22	0xbe84db01	-0.25948337
23	0xbd981c07	-0.07427221
24	0xbd8471fc	-0.06467053
25	0xbd4f4edd	-0.05061232
26	0xbd342804	-0.043983474
27	0x3d9b82f6	0.07593338
28	0xbe63208e	-0.22180387
29	0xbe2cedbe	-0.16887566
30	0xbba2bd22	-0.004966394
31	0xbd721127	-0.05909839
32	0x3c9b7ac2	0.018979434
33	0xbe154a1a	-0.14579049
34	0x3d249d20	0.04018891
35	0xbd0ee1b6	-0.034883223
36	0x3e2972b7	0.16547666
37	0xbe0201a8	-0.12695944
38	0xbe3a8c0c	-0.18217486
39	0x3e3efe5d	0.1865172
40	0x3d22fd76	0.0397925
41	0x3d4f7191	0.050645415
42	0xbdef822a	-0.11694749
43	0xbe27e384	-0.16395384
44	0xbe60a7d1	-0.21939017
45	0x3d32e34d	0.043673802
46	0x3d69489c	0.05695401
47	0x3d9bd74c	0.07609424
48	0x3b9b1ee4	0.004733907
49	0xbde382ac	-0.11108908
50	0x3c501e7f	0.012702583
51	0xbd220dec	-0.03956406
52	0xbd9e8e95	-0.07742039
53	0xbe57aad5	-0.21061261
54	0x3d9a1028	0.07522613
55	0x3ea55181	0.32288745
56	0xbd1df979	-0.038567994
57	0x3e1a27cf	0.15054248
58	0xbdbc8dba	-0.0920672
59	0xbe4c376a	-0.19943014
60	0xbb3f0737	-0.0029148587
61	0x3dfbaa5e	0.12288354
62	0xbdd9fcac	-0.106438965
63	0x3e2724b5	0.16322596
64	0xbd8623ee	-0.06549822
65	0xbc7e0c77	-0.015505902
66	0x3db90a2c	0.09035143
67	0x3d6ff222	0.058580525
68	0x3de9d53a	0.11417623
69	0xbdf0dadd	-0.11760495
70	0x3dedfca6	0.116204545
71	0x3cf1c2b2	0.029511783
72	0xbdc456d2	-0.09586872
73	0x3caaf260	0.020867527
74	0x3dbdff3f	0.092772
75	0xbdb4d111	-0.08828939
76	0x3d9c626f	0.07635962
77	0xbd678dc1	-0.05653167
78	0xbd2070cb	-0.039170068
79	0xbd0b6804	-0.034034744
80	0xbdd7c17e	-0.105349526
81	0xbb4aa64c	-0.0030921875
82	0xbde3c627	-0.11121779
83	0xbc113570	-0.008862838
84	0xbdddb805	-0.108261146
85	0xbdf18518	-0.11792964
86	0x3d90bad3	0.07066884
87	0xbe1366fe	-0.14394757
88	0xbd88b74e	-0.066755876
89	0x3d143f27	0.03619304
90	0x3d4ff477	0.05077025
91	0xbde7e25c	-0.113224715
92	0x3b8d4593	0.0043112724
93	0x3c197a0d	0.009367478
94	0xbd58858a	-0.052861728
95	0x3d535b8d	0.05160098
96	0xbdf57f70	-0.119871974
97	0xbdb338c8	-0.087510645
98	0xbd636c0b	-0.05552296
99	0xbcb42457	-0.021989984
100	0xbdc6c2bc	-0.097051114
101	0x3cb35d78	0.021895155
102	0xbd5182ba	-0.05115006
103	0xbc1c1f21	-0.009528906
104	0x3c79d940	0.01524955
105	0x3cf159df	0.0294618
106	0xbd81fe50	-0.063473344
107	0xbde087e0	-0.10963416
108	0xbd5a185c	-0.053245887
109	0xbd52af50	-0.051436722
110	0x3d9fe010	0.078064084
111	0xbd82f66f	-0.0639466
112	0xbd3083cb	-0.043094438
113	0xbc749667	-0.014928437
114	0xbbffb3cd	-0.0078034163
115	0x3c864d04	0.016394146
116	0xbc1d073e	-0.009584246
117	0xbcdef574	-0.02721665
118	0x3b8e6f36	0.0043467535
119	0x3ca7db08	0.020490184
120	0xbde3c5bb	-0.111216985
121	0x3cf9f27d	0.030511135
122	0x3bd99b03	0.0066407933
123	0x3dd758cf	0.10514986
124	0xbe0cdc3c	-0.13755888
125	0xbdfee680	-0.12446308
126	0x3da8e643	0.08247044
127	0x3c6bbcc0	0.014388263
128	0xbabe578f	-0.0014521944
129	0xbd2ea595	-0.04263838
130	0xbdaba969	-0.08381922
131	0xbac6053b	-0.001510776
132	0xbe385c43	-0.18003945
133	0xbdf4667c	-0.1193361
134	0xbd340e86	-0.043959163
135	0xbe091f4a	-0.13390842
136	0xbbd21860	-0.006411597
137	0x3ce657e9	0.02811809
138	0xbc71fce1	-0.014769764
139	0x3d5599a9	0.052148495
140	0xbe26d68b	-0.16292779
141	0xbde50f91	-0.1118461
142	0xbe04f041	-0.12982275
143	0xbd146594	-0.036229685
144	0x3b20753d	0.0024483942
145	0xbde079f2	-0.10960759
146	0xbe15d885	-0.14633377
147	0x3d9bda5c	0.07610008
148	0xbdfdea92	-0.12398256
149	0xbe1c6906	-0.15274438
150	0x3d1658dc	0.036705837
151	0xbdc4b580	-0.09604931
152	0xbc6f4fd8	-0.014606439
153	0xbd72787f	-0.059196945
154	0xbe0f854b	-0.14015691
155	0xbde120c3	-0.10992577
156	0xbdda7be4	-0.106681615
157	0x3da0a77f	0.07844447
158	0xbdea2af8	-0.11433977
159	0xbd211dc6	-0.039335035
160	0x3d1f766c	0.038931295
161	0xbdf2a5f3	-0.118480586
162	0x3cb8d23d	0.022561187
163	0xbd3c7a81	-0.046015266
164	0x3df5e085	0.12005714
165	0xbdf307e1	-0.11866737
166	0x3d93f845	0.07225088
167	0x3d962b54	0.07332483
168	0x3da91b53	0.08257165
169	0x3db9b5d7	0.09067886
170	0x3d1479fc	0.036249146
171	0xbe0e2b0d	-0.1388361
172	0xbd8f8cab	-0.07009252
173	0xbd65da43	-0.056116354
174	0xbc83b059	-0.0160753
175	0x3d615c37	0.055019584
176	0x3d807bf8	0.06273645
177	0xbce5df2f	-0.028060524
178	0xbcd83339	-0.026391612
179	0xbd6f791e	-0.058465116
180	0xbd0c29c6	-0.034219526
181	0xbe01a841	-0.1266184
182	0xbbf9f969	-0.007628609
183	0xbe04c63c	-0.12966245
184	0xbc707c72	-0.014678108
185	0xbdaebb4e	-0.08531819
186	0xbde79fa9	-0.1130975
187	0xbd978c76	-0.07399838
188	0xbdc4b130	-0.09604108
189	0xbdc772c0	-0.09738684
190	0x3d9283db	0.07154056
191	0xbcc4f808	-0.024044052
192	0xbd8b34eb	-0.06797203
193	0xbdf6eeac	-0.12057242
194	0xbe2ba973	-0.16763858
195	0xbe19f6fc	-0.15035623
196	0xbe5752e3	-0.21027713
197	0xbd20e596	-0.03928145
198	0xbd056315	-0.032565195
199	0x3cc25b9a	0.02372532
200	0x3d80923c	0.06277892
201	0x3d9e2b20	0.07723069
202	0xbd4400d5	-0.047852356
203	0x3cc01e01	0.023451807
204	0x3daa6ec2	0.083219066
205	0xbd837a6c	-0.064198345
206	0xbd85ff13	-0.06542792
207	0xbcee031e	-0.02905422
208	0xbca2d950	-0.019879013
209	0xbd553aaa	-0.0520579
210	0xbd164223	-0.036684167
211	0xbde790fe	-0.11306952
212	0xbdf283ea	-0.11841567
213	0xbdcb202a	-0.09918244
214	0x3d5f6ab7	0.05454513
215	0xbce5e181	-0.02806163
216	0xbc8395cc	-0.01606264
217	0x3dba7d80	0.091059685
218	0xbda21942	-0.07914974
219	0x3dfe532d	0.12418208
220	0x3d04bc6e	0.032406263
221	0xbd07f8f6	-0.033196412
222	0xbd9d7660	-0.07688594
223	0x3db4b4e7	0.08823567
224	0x3dc770f4	0.09738341
225	0x3d00d442	0.031452425
226	0xbdf2b79d	-0.11851428
227	0xbcce93f9	-0.025217043
228	0xbd271164	-0.04078807
229	0x3d377ae1	0.04479492
230	0xbda28de6	-0.07937221
231	0xbda127cc	-0.07868919
232	0xbd115bdb	-0.03548799
233	0x3d504bbd	0.05085348
234	0xbd348190	-0.044068873
235	0x3b4e660d	0.0031493932
236	0xbd40710d	-0.046982814
237	0xbb4e7d0b	-0.0031507637
238	0x3cacc871	0.021091672
239	0xbd0333a1	-0.03203166
240	0xbd8d21ad	-0.06891189
241	0xbdbd9972	-0.09257783
242	0xbd7e62d6	-0.062105976
243	0xbb943deb	-0.0045239828
244	0x3dc2dff2	0.095153704
245	0x3d1ca71b	0.0382453
246	0xbde3b372	-0.11118211
247	0x3e0c6973	0.137121
248	0x3d7e4ea0	0.0620867
249	0xbe062adc	-0.13102287
250	0xbe029def	-0.1275556
251	0xbe136d39	-0.14397134
252	0x3d7551a8	0.059892327
253	0xbdb9a359	-0.09064359
254	0xbd62e6c3	-0.055395853
255	0xbd7b7116	-0.061387144

fc1.bias f4 [128]
0	0x3e0ac795	0.13552697
1	0xbdc313b4	-0.095252424
2	0x3d8ac89f	0.06776547
3	0x3d2e540d	0.042560626
4	0xbe2cfbd3	-0.16892938
5	0xbd3bdac0	-0.045862913
6	0xbe0f6665	-0.14003904
7	0xbe1f611e	-0.15564391
8	0x3e033e39	0.12816705
9	0x3d7c3d95	0.061582167
10	0x3dbfbc5b	0.09362098
11	0x3d11b2eb	0.03557102
12	0xbe016f94	-0.1264022
13	0x3db22b8a	0.08699711
14	0xbd2e379b	-0.0425335
15	0x3d351b47	0.044215467
16	0xbe1b1692	-0.15145329
17	0x3bf15503	0.0073648705
18	0xbe2606f4	-0.1621359
19	0xbd62b8e0	-0.05535209
20	0xbd109318	-0.03529653
21	0x3e4e3279	0.20136441
22	0x3e3cf2a7	0.1845194
23	0x3e3fe1ea	0.18738523
24	0xbe0f6d40	-0.1400652
25	0xbdd281f7	-0.10278695
26	0x3d0ada20	0.033899426
27	0xbd9fb58c	-0.07798299
28	0xbd0512d1	-0.032488648
29	0xbe272379	-0.16322125
30	0xbc8ac4f1	-0.016939612
31	0xbe042c3d	-0.129075
32	0x3cd97624	0.026545592
33	0x3c60b8c2	0.013715925
34	0xbd9b8d15	-0.07595269
35	0x3e07ad3d	0.13249679
36	0x3dbf7266	0.09347992
37	0x3c94aeb6	0.018149715
38	0xbc542c25	-0.012949978
39	0x3d7ae6f7	0.06125542
40	0x3d7e24bc	0.06204675
41	0x3e1a4c8a	0.1506826
42	0x3e151a79	0.1456088
43	0x3d7903ab	0.060794514
44	0xbd874c41	-0.06606341
45	0x3bcc5b4f	0.006236471
46	0xbd8ebb8a	-0.06969364
47	0x3e175be7	0.14781152
48	0x3ded13f3	0.11576071
49	0x3e6ad256	0.229318
50	0xbd1a9b8c	-0.037745997
51	0xbd950315	-0.072759785
52	0xbbe0448a	-0.006844108
53	0xbe0b1763	-0.1358314
54	0x3d8002af	0.06250512
55	0x3d637942	0.055535562
56	0x3ddc8cac	0.107690185
57	0x3e26aa04	0.16275793
58	0xbc6e4240	-0.014542162
59	0x3d439112	0.04774577
60	0x3d97808e	0.07397567
61	0x3c81a18a	0.015824098
62	0xbd5b7de5	-0.05358686
63	0xbd24a576	-0.04019686
64	0xbe2f1e2b	-0.17101352
65	0x3c0e7aff	0.008696317
66	0xbd9d0746	-0.07667403
67	0xbc004d74	-0.007830966
68	0xbdc3da68	-0.09563142
69	0xbd52428e	-0.051333003
70	0xbe17aaad	-0.14811201
71	0xbbfcd441	-0.0077157323
72	0x3d879839	0.06620831
73	0x3dfd6941	0.12373591
74	0x3da56e6a	0.080777004
75	0xbda21854	-0.079147965
76	0xbd793c92	-0.06084878
77	0xbe19176c	-0.14950341
78	0xbe13f8a5	-0.14450319
79	0xbce64343	-0.028108245
80	0x3d62b830	0.055351436
81	0xbe06820e	-0.1313555
82	0x3e6d996a	0.23203054
83	0xbbf362dc	-0.0074275564
84	0x3d84392f	0.064562194
85	0xbc6e9b3a	-0.014563376
86	0xbd0fbcc0	-0.035092115
87	0xbe209206	-0.15680704
88	0xbe048773	-0.12942295
89	0xbd6da876	-0.058021985
90	0xbd7891e1	-0.060685996
91	0xbbbc9979	-0.0057556
92	0x3e30ca03	0.17264561
93	0xbe54217d	-0.207159
94	0x3bcc2583	0.0062300577
95	0x3d87dac9	0.06633527
96	0x3cde6db3	0.027151918
97	0x3cbf1109	0.023323553
98	0xbccd48c5	-0.025059113
99	0xbe1d9d6e	-0.15392086
100	0x3e145454	0.14485294
101	0xbe095aef	-0.13413595
102	0xbd21643d	-0.039402235
103	0xbd7e27c7	-0.062049653
104	0xbddeda93	-0.108815335
105	0xbe13b500	-0.14424515
106	0xbd8446b6	-0.064587995
107	0xbdd08ce8	-0.10183126
108	0x3dadf068	0.084931195
109	0xbe20589e	-0.15658805
110	0xbc8dbd7a	-0.017302264
111	0x3d7e846e	0.062138014
112	0xbd83d23a	-0.06436582
113	0xbd6f717c	-0.058457837
114	0x3e9fa383	0.31179437
115	0xbe222361	-0.15833808
116	0xbdb2796f	-0.08714568
117	0x3d04a931	0.032387916
118	0x3db33d24	0.08751896
119	0x3cf2b243	0.029626017
120	0x3e04dc9b	0.1297478
121	0xbe0b3b9d	-0.1359696
122	0x3e1ee6d5	0.15517743
123	0xbd9ab900	-0.07554817
124	0xbe59a2a0	-0.21253443
125	0xba28ce00	-0.0006439388
126	0x3de9dbec	0.114189
127	0x3dc2565f	0.0948913

fc2.weight f4 [1, 128]
0	0xbc2679c7	-0.01016087
1	0x3d2dd1d0	0.04243642
2	0x3d25afd0	0.04045087
3	0x3c900148	0.017578736
4	0xbde3eb48	-0.11128861
5	0xbd7c7bb3	-0.061641406
6	0x3d5bc540	0.05365491
7	0x3d656357	0.05600294
8	0xbd71199e	-0.05886232
9	0x3d785e3e	0.06063675
10	0xbdd8006b	-0.10546955
11	0xbe0c0d73	-0.13677005
12	0x3d65416a	0.055970587
13	0xbcf75447	-0.030191554
14	0xbd9d6d2a	-0.07686837
15	0xbd999b74	-0.075003535
16	0x3d730fdf	0.059341308
17	0x3d2046e8	0.03913012
18	0x3d72f1da	0.05931268
19	0x3ca46834	0.02006922
20	0xbcb33ec9	-0.021880524
21	0xbc8c0847	-0.01709379
22	0xbdbccff9	-0.09219355
23	0xbc8f79e3	-0.017514175
24	0xbd40cf19	-0.047072504
25	0xbd73e4bd	-0.059544314
26	0xbda524da	-0.080636695
27	0x3d83d32c	0.06436762
28	0x3d1b7146	0.037949823
29	0x3d480d12	0.04884059
30	0x3d589dab	0.05288474
31	0x3ce8ee90	0.028434068
32	0xbdc3c1b4	-0.0955843
33	0xbdb5b16c	-0.08871731
34	0x3d6030ee	0.054734163
35	0xbdf872d2	-0.12131275
36	0x3d46d2a5	0.04854073
37	0x3cf52e22	0.029929224
38	0x3d025d10	0.031827033
39	0xbdca0cc4	-0.09865716
40	0x3b135f9c	0.0022487408
41	0xbd5f9bf5	-0.05459209
42	0xbd1253fc	-0.035724625
43	0x3da1f60a	0.07908256
44	0x3d0bb06e	0.034103803
45	0xbe0a26f9	-0.1349143
46	0xbd1cbb50	-0.038264573
47	0xbc21d22b	-0.009876768
48	0xbd733bdd	-0.059383262
49	0xbc396f40	-0.011318028
50	0xbd09e00c	-0.033660933
51	0x3cbe28a9	0.023212748
52	0x3d9743c5	0.07385973
53	0x3d6a3e48	0.057188302
54	0x3c642710	0.013925329
55	0xbcc6b933	-0.024258232
56	0xbc2bf79c	-0.010496046
57	0xbc42ad0d	-0.011882079
58	0x3a37d458	0.00070125377
59	0x3bf06813	0.0073366254
60	0xbd5d8da7	-0.05409017
61	0xbd7ed0b8	-0.06221077
62	0x3d04d3d3	0.032428574
63	0x3dcce777	0.10005086
64	0x3d2d775b	0.042350154
65	0xbc30a822	-0.0107822735
66	0x3d4721b3	0.048616122
67	0x3d6886e2	0.05676926
68	0xbd6b490c	-0.05744271
69	0x3cb7b27c	0.022423975
70	0x3d5c1b99	0.053737257
71	0x3d8ce7bf	0.068801396
72	0xbc81231b	-0.01576381
73	0xbd923bed	-0.07140336
74	0x3d8b5f96	0.06805341
75	0xbd5aa8a8	-0.0533835
76	0xbd89226e	-0.0669602
77	0x3d0235b3	0.031789493
78	0xbd3e3cee	-0.046444826
79	0xbddaa93f	-0.106768124
80	0xbd6fe0e5	-0.058564086
81	0x3d6580a5	0.056030888
82	0xbc130889	-0.008974203
83	0x3d5d6dd4	0.05405982
84	0xbc1fc3a9	-0.009751239
85	0x3e545fac	0.20739621
86	0xbd566ee2	-0.05235184
87	0x3d6c96c5	0.057760973
88	0xbcd86fee	-0.02642056
89	0x3ce34b16	0.027745765
90	0xbd187bc2	-0.0372274
91	0x3d2bf1d4	0.041978672
92	0xbded64bc	-0.11591479
93	0x3d67f784	0.056632534
94	0x3ca59662	0.02021331
95	0x3c60b1aa	0.013714233
96	0x3c2be72e	0.010492129
97	0x3d8df499	0.06931419
98	0xbc15c444	-0.009141032
99	0x3d63c589	0.055608306
100	0xbce14e96	-0.027503293
101	0x3d581380	0.05275297
102	0x3d5178c0	0.051140547
103	0x3d85f4ba	0.065408185
104	0xbd595655	-0.05306085
105	0xbc8111a1	-0.015755476
106	0x3d503c58	0.0508388
107	0x3d243266	0.040087126
108	0xbd83933c	-0.06424567
109	0xbc9750fa	-0.01847123
110	0xbdb1731d	-0.08664534
111	0xbd655c1f	-0.055996057
112	0x3d979ff7	0.07403558
113	0x3ca059d4	0.019574083
114	0xbc60acbb	-0.013713057
115	0x3d599376	0.053119145
116	0x3ddba0cd	0.1072403
117	0x3d2a0159	0.04150519
118	0xbda33e71	-0.07970894
119	0xbcbf47ad	-0.023349607
120	0xbdab5e01	-0.08367539
121	0x3d641c78	0.055691212
122	0xbe03e171	-0.12878968
123	0xbd9cebe8	-0.07662183
124	0x3da53c40	0.080681324
125	0x3d8b1e17	0.067928486
126	0xbdb0cb13	-0.08632483
127	0x3cd7b811	0.026332887
