paper_pretrained_models/scoring_of_docking_models/all_models/fold10_treg_yfnat_b128_e20_lr0.001_5.pt (torch, 150943 bytes, 33 tensors)

conv1.fc.weight f4 [16, 48]
00000000: 0351 9fbd d11d 413f fd3a d83e ced6 0e3e
00000010: 1290 94be 3acb 0cbf d310 4d3e b8ab 47be
00000020: 3002 08bf a1d3 1abf 9c3d 993e 3ac6 26bf
00000030: 2de9 203f 4989 8f3e 706d 293f cc68 613f
00000040: 07cc e2be 0d5c 963e 25e9 f23e 9822 febe
00000050: 5431 ed3e 9555 2b3e d71f 703e b0bf e5be
00000060: e94e 2a3d df81 eb3d fc6b cf3b 348d 083e
00000070: e8c4 a73d dd48 303e 7cc4 233e 90d8 c0bd
00000080: e52b 6c3e 6785 843d a775 86bd f0c2 663e
00000090: fbbc 563e d9e7 7bbd cabd 773a 96fd f9bc
000000a0: dd49 6d3c 34b8 933d 7db3 c23d 61c6 d33e
000000b0: 9b10 213e a76c 143e 44f2 233d be76 b0bb
000000c0: d302 58be 34d1 a73e e868 ab3e 0410 60bd
000000d0: 22ab 2e3e 3676 233f 038e 1abf d588 81be
000000e0: 064e 443f cf7b 783e eb79 01bf bc22 953e
000000f0: b12b 5c3d 7301 6bbf 8d67 53bf c86b bb3e
00000100: cf0f 9cbe 0545 423e 7209 8bbe c9f2 85be
00000110: 1e4d e83d 4de2 aabd 8eb2 85be 6e7e c4be
00000120: f1c1 e73c 66ac 0b3e a07e cabd 6bc2 29be
00000130: 703d f53d 9819 1bbe 60b2 0abe ded5 97bc
00000140: 7312 16bc 792a 85be 2715 6e3e 869e 8f3e
00000150: 21d2 c7bd 0e52 24bd a654 a53e 0575 5cbe
00000160: 753d f4bd aacb 09be f934 383e 6c86 2a3d
00000170: e013 71be a3c8 7b3d 0489 03bd 0849 833e
00000180: 82e9 7b3f 7fec 9dbe 1acf 11bf 14e4 49be
00000190: c702 19bf 4c8b 8b3d 2535 973f b895 dc3e
000001a0: 0f3d 143f c921 71be 11ca 953f a828 bcbe
000001b0: f3a2 9abd df15 d33e c8ad 3b3f 24a9 d43e
000001c0: 8dbb cdbe 09e0 7e3f fcc1 e73e 5a33 563f
000001d0: 9bbc c73d b45a 9a3e 8b31 633e 6fef 3c3f
000001e0: d7e4 40bd 071d d3be 2ebd 813d 9770 cbbd
000001f0: 1c7e a13d bddb 323d 0569 38bd e505 40be
00000200: 4d62 89bc bad7 36be f018 4abe 91db c83d
00000210: f432 eebd a726 2d3d 0e20 a53e 1890 2c3c
00000220: 05bd a73d ba47 fdbc d127 35be c4c6 e03d
00000230: d086 863d 900e 04be 8450 353e 850b 263d
00000240: ca9d ee3d 7723 27bf 29f5 5cbe 22c1 6f3e
00000250: 3f50 f0be fe5a 74be cb83 08be c81f 713d
00000260: ad8a c4be 6b51 873e 4815 263e 8ae0 f5bc
00000270: 5894 3fbe 42ed ffbd 3399 9ebf eb11 4fbe
00000280: a81d 2d3d 0efa 0abf f5da 73be 32b3 bebe
00000290: e2fe d0be f36a 51be af4b a1be 33f2 d9be
000002a0: 5540 a23c 5d3b 703e 4864 7a3e 450b 03be
000002b0: 7ad7 b8bd 42bc b63e 2dec 4fbd d082 eebd
000002c0: d011 61be 92e4 8a3d e574 343c 80bc 253e
000002d0: 67d3 71be 97d7 013b 4749 d13e 2254 393d
000002e0: d36d fd3d 099e 09bd c461 a9bc 3b1b 01be
000002f0: 7f7a 9e3d 5d57 163e 321f 383e 711f 3b3e
00000300: 9f42 cdbe 925b 42bf fe7d 603f 2065 debe
00000310: cb8d a2be 5dd0 4bbe 19bb f03d 5f55 1f3e
00000320: 49ef 98be ef32 17be d839 b7be 783e f9bd
00000330: 81df 8e3e de7f 563e 3337 a73d 0537 e63d
00000340: 9ce7 473f 67c2 29bf 793d f9be 4b1a bc3c
00000350: 4201 74bd a36b a23d a003 70be 7806 7c3e
00000360: d9bf fd3b 7dfa cebd b438 553b 5825 d53c
00000370: b0b1 f43c b823 b43d 29eb 9e3d bb83 6bbe
00000380: fbd8 fdbc df34 18bd e0cc 27be a5b4 21be
00000390: b322 573e 24c8 5d3d 4b64 97bd 473b 2e3e
000003a0: 4eb5 073f 8989 743e 2e65 fcbc 4b0a 1d3e
000003b0: b58b b13e 32b5 96be eb95 31be 789c 8bbc
000003c0: e0f7 ae3e 3a77 7fbe 0928 263e 403f e53c
000003d0: c87c 34bf 3bca d33e d691 a13d 51a9 1d3e
000003e0: 8770 9d3e fb11 db3e 9943 d13e 1dba cf3e
000003f0: 361b d6be 6dfe 5b3f 8b4e 66bd b606 acbe
-0.07779124 0.7543612 0.42232504 0.13949129 -0.29016167 -0.549976 0.20025949 -0.19499099
-0.5312834 -0.6047917 0.29929817 -0.6514622 0.628558 0.28034428 0.66182613 0.8805053
-0.44296286 0.29367104 0.474435 -0.49635768 0.46326697 0.16731866 0.23449646 -0.44872808
0.04157916 0.1149938 0.0063300114 0.13335115 0.08191854 0.17215295 0.15992922 -0.09416306
0.2306362 0.06470757 -0.06565409 0.225353 0.20970528 -0.061500404 0.0009450583 -0.030516427
0.014482942 0.07212868 0.09506891 0.4136229 0.1572899 0.14494573 0.040025964 -0.005385249
-0.21094827 0.32776797 0.33478475 -0.054702774 0.1705747 0.6385225 -0.6037294 -0.25299707
0.76681554 0.24265979 -0.5057666 0.29128063 0.053752605 -0.91799086 -0.8257988 0.36605668
-0.3048081 0.18971641 -0.27155644 -0.26161793 0.11342834 -0.08343945 -0.2611279 -0.38377708
0.02829072 0.13639984 -0.09887433 -0.16578071 0.11974609 -0.15146482 -0.13544607 -0.018534597
-0.009159672 -0.26008967 0.23250256 0.2805063 -0.09756876 -0.040117316 0.32291144 -0.21529014
-0.119257845 -0.13456598 0.17988957 0.0416321 -0.23542738 0.06147064 -0.03211309 0.25641656
0.9840318 -0.30844495 -0.56956637 -0.19715911 -0.5976986 0.06813678 1.1813093 0.43082976
0.5790567 -0.23548044 1.1702291 -0.36749768 -0.07550611 0.41227624 0.73312044 0.41535294
-0.40182152 0.995606 0.45265186 0.83672106 0.097527705 0.30147326 0.22186868 0.73802847
-0.04709324 -0.41233084 0.06334911 -0.09933584 0.078853816 0.04366659 -0.04502203 -0.18752249
-0.016770506 -0.1785573 -0.19736075 0.09807504 -0.11630812 0.04227319 0.32251018 0.0105324015
0.081903495 -0.030917991 -0.1769097 0.109754115 0.06568682 -0.1289618 0.17706496 0.04053833
0.116511896 -0.6528849 -0.21577896 0.23413518 -0.46936223 -0.23862836 -0.13331525 0.0588682
-0.3838705 0.26429304 0.16219056 -0.030014295 -0.18708932 -0.12496425 -1.2390503 -0.20221679
0.04226461 -0.54287803 -0.23813994 -0.3724609 -0.4081946 -0.20450954 -0.31503054 -0.42567596
0.019806067 0.23460145 0.24452317 -0.12797268 -0.09025474 0.35690504 -0.050762344 -0.11646044
-0.21979451 0.067818776 0.011014198 0.16185188 -0.236158 0.001981234 0.4087622 0.04524625
0.12374463 -0.03359798 -0.020676501 -0.12608044 0.07738208 0.14681764 0.1798065 0.18273713
-0.4008989 -0.75920975 0.8769225 -0.43436527 -0.31748804 -0.19903703 0.11754436 0.1555991
-0.2987006 -0.14765523 -0.3578632 -0.12170118 0.27904895 0.20947215 0.08164825 0.11240963
0.7808778 -0.6631226 -0.48679712 0.022961756 -0.059571512 0.07930686 -0.23438883 0.24611843
0.0077438173 -0.101063706 0.0032535018 0.026018783 0.029869884 0.08795875 0.07759697 -0.2299947
-0.030987253 -0.037159797 -0.16386747 -0.15791567 0.2100933 0.054145947 -0.07392176 0.170148
0.53011024 0.2388059 -0.030809965 0.15335958 0.346769 -0.29435116 -0.17342345 -0.017042384
0.3417349 -0.24947825 0.1622621 0.027984262 -0.705029 0.41365227 0.07889144 0.1539662
0.30749914 0.42787156 0.40871885 0.4057168 -0.41817635 0.859351 -0.05622725 -0.3359887

conv1.fc_attention.weight f4 [1, 33]
00000000: d14a 513e 61c4 8abe dcae 1bbe f132 e53d
00000010: 9f9f e13d f6a3 ccbd cc23 1bbe 117e 923d
00000020: fee6 b3bd 86d1 87be c5b3 ed3c 2fb4 84bd
00000030: 0c67 533e 68ec e3bd 5a78 793e 8d34 31be
00000040: b1c6 113c 418c f23c de09 033d 2883 473e
00000050: 5429 f7bd 35e4 c0bd 7876 a6bd f81d 253e
00000060: ee05 1abe 26bd 02be c15b 1bbd c902 433e
00000070: 344a 34be 9e46 ef3d 60f6 2f3d af5d 11bd
00000080: 0706 be3e
0.20438696 -0.2710295 -0.15203422 0.11191357 0.110167734 -0.099922106 -0.15150374 0.071529515
-0.08784293 -0.2652704 0.029016385 -0.0647968 0.20644778 -0.11129075 0.24362317 -0.17305203
0.008897469 0.029607894 0.031991832 0.19483626 -0.120684296 -0.09418527 -0.08128065 0.16124713
-0.15041324 -0.12767467 -0.0379293 0.19044031 -0.17606431 0.11683391 0.04295957 -0.035489734
0.37113973

conv2.fc.weight f4 [32, 16]
00000000: 6ccc a4bd 2494 6f3e 9ce6 f43c b96a b8be
00000010: ead2 afbd e784 943e 3f16 05be c034 2ebe
00000020: 4cdb c6bb 3a8d babe 35be d5bd 3f74 e1bc
00000030: 8a64 8ebe e529 abbe 4e87 353e d416 3dbd
00000040: ae33 593e 1be7 993d 8dcb 1a3e c8c0 dcbd
00000050: 69d1 0dbe 0b9f 56be 6d37 9dbe 31f4 74be
00000060: edbb 663e b91e 4c3e 72cd 5d3c 1831 f2be
00000070: 787f 81be 3ab0 aebe 8fdd 753e 51bc 9ebc
00000080: 3a0d fdbd 79af 9b3c b94d 92be a481 453e
00000090: f3ef 4cbe a7b7 113d 28b3 6fbe 5fa2 93bd
000000a0: 2ec0 c33d 6a33 41bd 2e33 543e 792d 7bbc
000000b0: 1856 423e cf26 e1be 5d1c 87bd b4bd fa3c
000000c0: cc5c b4bd 9882 07bd 3a49 623e e725 013e
000000d0: 1dd0 25bf d266 263e 4aeb 94be 3776 cc3e
000000e0: 321b d93b eaef 283e 2b3e d03d 94bc 78bc
000000f0: 2be7 a8bc 6483 a6be ce04 5bbe 91f8 273e
00000100: 9af3 29be ec9c 42bd eaee 6abe e131 71be
00000110: c42e 313e dcd6 cfbd 732e 0fbc 5f0b 31be
00000120: 65fa 723a 03b5 123e 8ca1 15bd ca94 a23b
00000130: 0e5d d43d a550 d9bd 863e 583e 9639 343e
00000140: 6b1b 7a3d 40f7 84be 9d9d 8d3e a8c2 6fbe
00000150: df9e 4abd f8e8 a73d 2af7 3f3e 443e 103f
00000160: f227 fdbe 231e 65be ffd7 41be 1180 f93d
00000170: f484 40bd 9537 423e c64e 2c3e a84d 5b3e
00000180: d403 80be 5625 1f3d df22 aebe 26dd 283e
00000190: 688f f73d 5329 82bd 45b0 f9bc de65 20bd
000001a0: 7d0a 78bc 57ae cebd 9145 6fbe 309b 18be
000001b0: 0fd1 1d3e 0c07 0d3c 7605 cfbc 17a1 523e
000001c0: a395 02be 6bbd 5f3e 12f1 cebd 7b5b 15be
000001d0: 1240 03be 057b 38be dfd0 f93d ac49 afbe
000001e0: 7fa7 5cbc f825 ff3d b18e 693e 7972 3b3d
000001f0: 33e6 cebd 68a2 a53e 60e6 6fbe 9b62 953c
00000200: 494a a43e ed73 1d3e dc10 14bf cdb8 903e
00000210: 0e79 6a3e a0f8 a9be 9d7c 84bd a87d 683d
00000220: e085 b83d 6c6f e73b d007 71be 2ebf 88bd
00000230: 9cb0 d5ba 8c2e 4ebe 385d 87be 0c30 6dbc
00000240: 6459 003e 5ec7 1d3e 703e e03e fab8 36be
00000250: f814 94be ffe0 87be 5c2c 05be 9bb4 cebc
00000260: 89fc f03d 5e13 3a3e 7c43 c9bd ae17 423d
00000270: f54d 443e e7f6 193e 6346 1ebe 8e73 18be
00000280: 682c 3dbe 8929 943e 7799 13be b21f 8d3e
00000290: 2554 a2bd 4a0b 4d3e 3195 0dbe 8b4e ae3e
000002a0: ca44 5dbd 01d5 22bd e71f 003d de76 a7be
000002b0: 1d86 92be 1e46 333d 3d89 06be 5305 64be
000002c0: 6917 73bd 954c 76bd 9019 3bbe 9371 43be
000002d0: 0216 08bd a3b4 8a3d c4a5 fcbd 424b e53d
000002e0: 25b3 d93e 913f 813e 73c6 32be a8cc 9dbe
000002f0: 2d5b f53c 4ab6 843d 45cb a93d 4fd9 fcbd
00000300: 0d84 2c3e 3628 553e 5d93 de3e 57fd 3ebe
00000310: 3542 c7be 3846 abbe 507a 30bd 6313 f43c
00000320: 97a7 afbe f6f8 08be 80d4 ecbd ac4d 75be
00000330: 0b81 85bd 5525 493e 63b3 8cbe d47b 3f3e
00000340: 5176 a13d 12e3 b3be e748 003e 966f 1f3e
00000350: 7397 aa3d e69b a0bd bf2e c4bc 20ff 803d
00000360: e75b 1cbe 3e3b 943e 776b a9bd be52 91bd
00000370: f915 963d 000a 963e 6a11 1ebe 66d8 233e
00000380: 08d5 533e 4dda 50be f67b 4dbe 744f 2abe
00000390: 7dc5 9c3e fe5f 233d 3a4f 6cbe 30f1 90bd
000003a0: c85e 8dbe 7b14 43be 2838 533e 2d2b 783e
000003b0: 5448 3cbe 4a75 9abc b86d 30be 2bef 8bbe
000003c0: 2eeb f2bd 4360 623e 1be7 0dbd 9fd8 96bd
000003d0: 9369 01be cdd3 2ebd a04c 50be 4ba2 003e
000003e0: 8524 e93c c412 b33c 47d7 a03d 80cc 4abe
000003f0: 7a6f 063e 0c3f c9be 8648 80be 74b9 4c3e
-0.08046803 0.23396355 0.02989512 -0.36018923 -0.085851505 0.29007646 -0.12996767 -0.1701231
-0.0060686227 -0.36435872 -0.1043667 -0.02752125 -0.2781108 -0.334304 0.17727396 -0.04616435
0.2121112 0.07514783 0.15116711 -0.107789576 -0.13849415 -0.20959108 -0.3070635 -0.23921277
0.22532625 0.19933595 0.0135377515 -0.4730308 -0.25292563 -0.34118825 0.24010299 -0.019376906
-0.123560384 0.01900457 -0.28574923 0.19287735 -0.20013408 0.035575535 -0.23408186 -0.07208704
0.0955814 -0.047168173 0.20722649 -0.015330666 0.18978155 -0.4397492 -0.06597207 0.030608036
-0.08806762 -0.03308353 0.22098246 0.12612115 -0.6477068 0.1625016 -0.2908576 0.3993394
0.0066255564 0.1649777 0.101681076 -0.015181679 -0.020618042 -0.32522118 -0.21388552 0.16403414
-0.16596833 -0.047512934 -0.22942701 -0.23554184 0.17302996 -0.10148403 -0.008739102 -0.17289494
0.0009268879 0.14326863 -0.036531016 0.0049615847 0.10369311 -0.10611085 0.21117601 0.17600092
0.061061304 -0.25969887 0.27659312 -0.23414099 -0.049467918 0.08198732 0.1874663 0.5634501
-0.49444538 -0.22374777 -0.18930052 0.1218263 -0.047001794 0.18966515 0.16826925 0.21416342
-0.2500292 0.038853966 -0.3401098 0.16490611 0.120878994 -0.06355538 -0.03047956 -0.039159648
-0.015139219 -0.100918464 -0.23366381 -0.1490295 0.15411781 0.008607637 -0.025271159 0.20569263
-0.12752394 0.21849601 -0.10104574 -0.14585678 -0.1281741 -0.18015678 0.12198042 -0.34235895
-0.013467669 0.12458414 0.22808339 0.045763467 -0.10102501 0.3235047 -0.23427725 0.018235495
0.32087925 0.15376253 -0.57838225 0.28265992 0.22897741 -0.33197498 -0.064690806 0.05676046
0.0900991 0.007062843 -0.23538136 -0.0667709 -0.0016303244 -0.20134944 -0.26438308 -0.014476787
0.125341 0.15408084 0.43797636 -0.17844 -0.28922248 -0.26538846 -0.13005203 -0.025232604
0.11766917 0.1817145 -0.09827325 0.047385864 0.19170363 0.15035592 -0.15456538 -0.1488783
-0.18473971 0.2893794 -0.14414011 0.27563244 -0.079262055 0.20023838 -0.13826443 0.340443
-0.05402068 -0.039753918 0.031280424 -0.32707876 -0.28617945 0.04376804 -0.1313829 -0.22267656
-0.059348498 -0.060131628 -0.1827147 -0.19086294 -0.033224113 0.06772735 -0.12336305 0.11195995
0.4251949 0.2524381 -0.17458515 -0.30820203 0.029950703 0.064800814 0.08290724 -0.12346136
0.16847248 0.2081612 0.43471804 -0.18651329 -0.389177 -0.3345201 -0.043085396 0.0297944
-0.34307548 -0.13376221 -0.11563969 -0.2395541 -0.065187536 0.19643147 -0.2748061 0.1869958
0.07883895 -0.35134178 0.1252781 0.1556991 0.08329668 -0.07842235 -0.023948072 0.06298661
-0.15269433 0.28951448 -0.082724504 -0.0709586 0.0732841 0.29304504 -0.1543633 0.16000518
0.20686734 -0.20395775 -0.20066819 -0.16631871 0.30619422 0.039886467 -0.23077098 -0.07077253
-0.27611375 -0.19050781 0.2062689 0.2423522 -0.18386966 -0.018854756 -0.17229354 -0.27330908
-0.11861263 0.22107033 -0.034644227 -0.07365536 -0.1263793 -0.042682458 -0.2034173 0.1256191
0.028459797 0.021859534 0.07853561 -0.19804573 0.13128462 -0.39305913 -0.2505533 0.1999262

conv2.fc_attention.weight f4 [1, 65]
00000000: 4bd1 82be 5191 c43d 30c9 003c aa91 9c3c
00000010: f4d8 2abd 0f49 1f3e b267 c7bd 7068 f8be
00000020: baa3 803e b564 d43c f579 b13e 0e10 1a3e
00000030: 47fa 39be 8b96 cf3e 4130 5fbe 54d7 d3bd
00000040: 5108 d4bc ddf1 973c 7c30 c23e c1ca 723e
00000050: 5eda 4a3b deb3 80bc 1da9 0abe d988 6abd
00000060: 9dc8 13be 5fd5 543e 1769 6c3e 28a6 f4bd
00000070: 1c05 623e 70d7 2abe 4187 f7bd 84ed 49bd
00000080: 4008 b73d 48fa 203e 9c2f 603e fd01 c73e
00000090: d8f9 ffbd 11b8 84be 5b46 093e 908d 1abe
000000a0: cb6a f2bd d50b ddbd d74f 9a3e ca35 05bd
000000b0: 9290 493d 5221 80be 980e 1cbf 1c42 d03e
000000c0: ce43 033e 0702 9ebd ed0a 373e e117 2bbe
000000d0: e5c0 babe e01d eabd 1834 6c3e 0393 ff3d
000000e0: bcd6 dcbd 4ce5 83be 141b 043e 3e05 5dbe
000000f0: 4196 983e aefa 0a3f 9cc5 32be d318 1cbd
00000100: d544 a63e
-0.25550303 0.095980294 0.007860467 0.019112427 -0.04171081 0.15555213 -0.09736575 -0.4851718
0.25124913 0.025926927 0.34663358 0.15045187 -0.1816188 0.40544543 -0.21795751 -0.10343805
-0.025882872 0.018547947 0.37927616 0.23710157 0.003095291 -0.015710767 -0.13541074 -0.057259414
-0.14431997 0.2078452 0.23086964 -0.11945754 0.22072262 -0.16683745 -0.120863445 -0.04929878
0.089371204 0.15720475 0.21893162 0.38868704 -0.12498826 -0.25921682 0.13405745 -0.15093064
-0.118367754 -0.107932724 0.30139038 -0.032522 0.04921014 -0.2502542 -0.6095977 0.40675437
0.12818834 -0.077152304 0.17875262 -0.16708328 -0.36475292 -0.114314795 0.23066747 0.12479212
-0.10783145 -0.25760877 0.12900954 -0.21584031 0.29802135 0.54288757 -0.17458194 -0.03810961
0.3247439

conv1_ext.fc.weight f4 [16, 48]
00000000: c7e7 5cbd ce33 15bf d94e 053f e2cf 6c3f
00000010: c054 123f 884f 3bbf 65f6 dbbe 6651 dd3e
00000020: 2f6a bcbe 0475 27be 405a 05bf 5932 223f
00000030: e967 b9bd 5f3e bebe 1c60 323e 5c5d ea3c
00000040: 1669 7fbf b3b5 253d a2be 3e3e 697a 0abf
00000050: 58b8 8e3d 21a2 27be 5cd5 d3be ce1e 00bf
00000060: 9edd 0d3c af0a f33d c190 f03d 358d 2abd
00000070: 747c 8d3d 36eb 03be d833 b5bd 5865 9dbc
00000080: 3cef 783d a897 0fbc 6b86 57bd 6a02 b23d
00000090: da94 463e 3ede 353e 21fe 3c3d f86f 4dbe
000000a0: 764a 1e3e c2cd 483e cdf2 c3bc b72c d2bd
000000b0: 471c 203e 142e d1bd 4d90 37be 65ba b6bd
000000c0: eed4 af3e 8ba8 d63e 6b71 533e 5b1d 1e3f
000000d0: e0cb 38be bb77 c73e 2f8f 9ebe 223e c53d
000000e0: e573 4b3d 2b37 443e 3e1a 463e 5391 61be
000000f0: 16be 8f3e 8426 04bc c6e3 0d3e 8119 1c3d
00000100: 9d53 cdbd ee91 23be 594d 4cbc da92 a8be
00000110: e24c 273e f45b a83e 3512 cbbd 6175 03be
00000120: c1b1 eb3b e556 833d 0826 cf3d 504e 46be
00000130: a6b9 0e3e 5e37 f23d 52cb 803e 1d61 d8bd
00000140: 95a4 f53c 36a1 833e ffbc a2bb 68d2 973d
00000150: a3f8 b13e b321 febd d7bb e1bd 1519 95bc
00000160: bb22 00be 98a4 a3bd 0c62 a7bd 24ea b83c
00000170: 6b4f 1bbe c658 d0bc b32d dc3d 3a08 913c
00000180: 5add 253f 57d3 c6be 4cf0 773e b699 fa3d
00000190: 7d85 d8bd 5049 853d fa3f 5a3e 45e9 2e3f
000001a0: 7cc1 5bbe a1fc 84be 5b51 90bd b4b0 1a3f
000001b0: db34 c3be 1a62 98be 93e5 1c3f 4578 06bd
000001c0: 5d5e 1c3e fd4c e33d 0025 3c3f 22a2 f7be
000001d0: bb92 1b3e 157f 293e 1cf8 ef3e 0f92 f7be
000001e0: d6df 3fbd bdbe 81bc 2637 4a3d b9de 53be
000001f0: 6182 cebd 5898 32bd c0fa 5b3e 789b 8bbd
00000200: 88d3 febb 064e 2abd 033c 2b3d adfd 943d
00000210: 26af 8c3d 2308 7b3d 5b1a 3f3e e7e0 f6bc
00000220: aed3 453e 95a6 573e e710 edbd 00fe 9a3d
00000230: 820b 8c3e ede9 e1bc 02d0 a5bd ca98 02be
00000240: 245d 193f 655e 80bf bd0c 6bbe d89a f5bc
00000250: d8ed 263f b392 fcbd 0345 123e 107a d33e
00000260: 4643 bc3e 138d bc3d c97c a6be 1a62 01bf
00000270: 8f0d be3d 0fb6 21bb 9f5a 16be e0f1 47be
00000280: 81c3 e93b 5a33 52be bbd9 d8be 3f06 1a3f
00000290: 5274 6dbe e86b 513e 85f6 e0be 81b5 2d3f
000002a0: e9c7 f83c fb75 43be 1ac6 5d3d d847 a63d
000002b0: ce95 323d 74c0 033d 7298 3abe eb86 213e
000002c0: a8ab c1ba 9f0d ffbd 8794 503d 723a 58bc
000002d0: aa87 da3d da75 8abe a3dc 96bd a3db 8e3d
000002e0: 3eea c53d 47dd 8cbb a5bb f63c a886 313e
000002f0: 6584 573e c39a e53d 1a8f b43e db55 be3d
00000300: 6d66 bf3e 191c 38be 6605 48be 027a 093f
00000310: 93cc eabe ab03 8c3e 9bca 593f 79c8 afbe
00000320: 20fb f3bd b449 13bf 5219 fcbd c9cd 77bc
00000330: 36e3 1dbe 27cb 993c b3d8 4d3e c666 0c3f
00000340: 0eb7 48bf d423 c83e b30d 29be 9946 4cbd
00000350: e473 223e d4cb 8c3e 48f2 4abd 5800 053e
00000360: 1e3a 75be 85d5 cebb c219 043e 5597 15be
00000370: 69e2 9abd ecde 343e 726f 0a3d eab0 3e3d
00000380: 90f2 1e3e b28f 3fbd cf79 b7bd 5f9c 0bbd
00000390: 6da4 49bd d789 043d c635 933e 5a9c c7bd
000003a0: 808c dfbd 8465 e9bd 0c56 1fbe 4e05 c2bd
000003b0: 5139 b13d 49d0 49bd 1993 2ebc d461 5cbc
000003c0: e038 383f c037 7c3c d739 b2bd d269 d33e
000003d0: 4978 173e 495c e73e b243 0abf 2cfb 143d
000003e0: ad43 363e 91f1 e2be 15a3 46bf 11e6 3ebf
000003f0: f2b5 cc3e 800a f93e 63f6 7dbe f1d3 1f3e
-0.053931978 -0.5828217 0.52073437 0.92504704 0.5716057 -0.7316823 -0.42961422 0.43226165
-0.36799762 -0.16353232 -0.52090836 0.63358074 -0.090530224 -0.3715696 0.17419475 0.02860897
-0.99769723 0.040456485 0.18627408 -0.54093033 0.069687545 -0.16370441 -0.41373718 -0.50047004
0.008658795 0.11867272 0.117463596 -0.04163857 0.06908503 -0.12882695 -0.08847779 -0.019213364
0.060775027 -0.008764185 -0.052618425 0.08691867 0.1939272 0.1776056 0.046140794 -0.20062244
0.15458092 0.1960974 -0.023919487 -0.10262435 0.15635787 -0.10213867 -0.1792614 -0.08922271
0.3434214 0.41925463 0.20648734 0.6176354 -0.18046522 0.38958535 -0.30968615 0.096309915
0.049671073 0.1916167 0.19345948 -0.22028093 0.28074712 -0.008065823 0.1385642 0.03811026
-0.100257136 -0.15973637 -0.012469613 -0.3292454 0.16337922 0.32882655 -0.09915582 -0.12837745
0.007192821 0.06413058 0.10114676 -0.19365811 0.13938007 0.11826967 0.2515512 -0.10565398
0.029985705 0.25708932 -0.0049663777 0.07413179 0.34760007 -0.12408771 -0.11022156 -0.018200437
-0.12513249 -0.07990378 -0.08172998 0.022572584 -0.15167014 -0.025432955 0.10750904 0.017704118
0.6479088 -0.38833115 0.2421276 0.12236349 -0.10572336 0.06508124 0.21313468 0.6832469
-0.21460527 -0.2597399 -0.07046767 0.6042588 -0.38126263 -0.29762346 0.612878 -0.03282954
0.15270372 0.11098669 0.7349396 -0.48365885 0.15192692 0.16552384 0.4686898 -0.4835362
-0.046844326 -0.015838021 0.049369 -0.2069043 -0.100834616 -0.043602318 0.21482372 -0.06816763
-0.0077766813 -0.041578315 0.04180528 0.07274947 0.068693444 0.061287057 0.18662398 -0.030136539
0.1931903 0.2105964 -0.115754895 0.07567978 0.2735253 -0.027577365 -0.08096315 -0.12753597
0.59907746 -1.0028807 -0.22954078 -0.029981062 0.6520667 -0.12332668 0.14284138 0.41304064
0.36770076 0.09206595 -0.3251708 -0.50540316 0.0927993 -0.0024675166 -0.14683007 -0.19525862
0.0071339016 -0.20527402 -0.42353615 0.6016578 -0.23188904 0.20451319 -0.4393808 0.6785508
0.030368762 -0.19087975 0.054144002 0.08119172 0.043599896 0.03216596 -0.18222216 0.15774123
-0.0014775889 -0.1245377 0.050922897 -0.013197528 0.10670407 -0.2704304 -0.07366302 0.06975486
0.09663819 -0.0042988393 0.030118773 0.17336524 0.21046598 0.11211159 0.35265428 0.092937194
0.37382832 -0.17979468 -0.1953331 0.53701794 -0.45859203 0.27346548 0.85074776 -0.34332636
-0.11913133 -0.5753434 -0.12309517 -0.015124747 -0.15418705 0.018773628 0.20102195 0.5484432
-0.7840432 0.39089835 -0.16509132 -0.049872015 0.15864521 0.2749926 -0.049547464 0.12988412
-0.23947951 -0.0063120746 0.12900451 -0.1460851 -0.075627156 0.17663163 0.03379769 0.046555437
0.15522218 -0.046767898 -0.0895878 -0.034084674 -0.049229074 0.032358017 0.28751963 -0.097466186
-0.1091547 -0.11396316 -0.15560168 -0.09473668 0.0865351 -0.0492709 -0.010655188 -0.013451058
0.71961784 0.015394151 -0.08702438 0.41291672 0.14791979 0.45187595 -0.54009545 0.03637235
0.17799254 -0.44324926 -0.77592593 -0.74569803 0.39982563 0.48640823 -0.2480102 0.15608193

conv1_ext.fc_attention.weight f4 [1, 33]
00000000: 5bb0 073d ddc7 b83e 16f6 c1bd 960a 3a3d
00000010: 988d 143c 6645 90bd 7b61 5bbe afb3 273d
00000020: aa9d 093e 2809 613e 5098 a23d 27c7 913d
00000030: 39d9 243e 25d1 37be e062 c33d d072 b4bd
00000040: 5022 1e3e 8741 00be 30ad 203e 01ae 633d
00000050: f33a e03d 9b00 e43c e9a6 173d 9f6c b5bd
00000060: bc06 7cbe 0ac6 b5bd 8d40 a0be 194b 5fbd
00000070: 0479 8dbd 47f5 a53d d05a 2c3e bef4 ff3d
00000080: 9f64 0f3e
0.03312717 0.36089984 -0.09470765 0.04542025 0.009066962 -0.07044487 -0.21423905 0.040942844
0.1343905 0.21976149 0.079392076 0.071180634 0.16098489 -0.17950876 0.09540343 -0.08810961
0.15442777 -0.12524997 0.15691066 0.055585865 0.10948744 0.02783232 0.037024412 -0.088586085
-0.24611944 -0.088756636 -0.31299248 -0.054514978 -0.069078475 0.081034236 0.16831517 0.12497853
0.14003228

conv2_ext.fc.weight f4 [32, 16]
00000000: 737b 4a3e ca89 0a3e b48a c6be 1041 d73c
00000010: cb92 87be ef2e 5abd 84bc cabc 873e 00be
00000020: f4cd b03d 9d50 78bd 2f20 053d fb06 5b3d
00000030: 1497 c8bd a1b3 47be 3cf7 c8bd 0ce6 e73c
00000040: 80b8 333e bdd0 903d 72e7 56be 51e3 833c
00000050: 48b7 d2be 6e78 8f3d 99fd 4abe 80ae 633e
00000060: 8ee9 493d f852 893e afb5 81be d23f 15be
00000070: 37b5 8fbe a3e5 9cbc 8865 1c3d b2ad 813e
00000080: e4cb 2a3e 8a30 703e 477d e6be aa97 903d
00000090: 2909 6bbe 27bb 063e 6569 df3d d2d8 d0bd
000000a0: c315 03be 9b5c f73d dec3 e7bd aa00 1a3e
000000b0: 8617 c3be cf75 b73d a744 473e eb35 50be
000000c0: a8ab 1dbe 62f5 313c 8020 11bd 05c5 a6bd
000000d0: 17a5 273d 104d 36be 265a 313e 1264 fdbd
000000e0: 21d6 593d dfd6 c73b 9860 023b 90c9 10be
000000f0: 310b 0abe 6f3c a73d 0442 153d 137e 333e
00000100: d888 b8be 4240 c1bd bea9 74be 2f17 12bd
00000110: f80d 82be bba3 cbbd f7e8 473c 868f 22bd
00000120: ef47 793e 1893 193e 8c9c 40be b7a9 033d
00000130: 610f 953e f0eb 403e 8a68 bd3c 9889 c3bd
00000140: 99e3 eabe 5ef0 0bbd 2dcb 013f 40b3 2dbe
00000150: 5da6 0f3c ab31 8d3e ba19 763e b162 02bd
00000160: df8c 24bf 7267 803c 0f82 9bbe 6cef 2ebe
00000170: 7c46 603e d9a0 b2be f98a 903d efa5 b7be
00000180: 77dd 243c 1e45 6b3d 90f8 ac3e 4888 833e
00000190: 865e bf3d f760 54be efc2 06be 7c87 243e
000001a0: 1dbd 80be db26 f7be 6491 11bd e8b9 123c
000001b0: 7c81 9e3d 9b95 733c f7d6 9dbe 1cde 4f3e
000001c0: 1676 59be 27db 53be ecfd 44bd b60c a13d
000001d0: 8a24 bf3d 5e40 03be d4eb 4bbe 148e 14be
000001e0: 3916 4f3e 7ea9 87bb 13f1 d43c 8c25 16bf
000001f0: e068 e8bc 62d8 8e3e 4783 4bbe a336 503e
00000200: c864 12bd f7bc 7e3d e4f3 463e 278a 0dbd
00000210: fc2d 1e3e 8f36 d9bb 009f 6fbe fbca d83d
00000220: a75c ddbd 2ef2 ccbe 2540 433e b7c3 343e
00000230: 811a b33c b385 83be 9a55 bcbe 0e68 3a3e
00000240: 35f4 98bd b8b2 5cbe 448c 4b3e c2e7 913d
00000250: 6ca2 243e 0858 62be c33c 973e 9aea 883b
00000260: de29 11be a7a8 85bd 6fff 06be 4893 bcbd
00000270: 3e94 3a3e a201 bf3b 29a3 623e a337 f0bc
00000280: ee53 b5be 2914 9cbe 829e b33e f6b8 b13e
00000290: 2ceb e2bd e712 5dbc fc99 303d fa19 583e
000002a0: 5d75 dcbd 519b 133e 2ab1 acbd 8a99 bb3d
000002b0: 4c57 9ebe 597f 99be 1102 463d d971 8bbe
000002c0: 8338 7fbe 09f9 e13d 7557 453e 1ab2 093e
000002d0: 127f a8bd e7ce 963e aba1 57be b7bf 53be
000002e0: 7153 7c3d b1f1 4d3e a477 f7b8 218f 4abd
000002f0: 75b2 883d 7132 43bc d551 893d 16ad 6abc
00000300: 5f6c c8bd e79b 623e c211 e03e d196 4cbd
00000310: 840f a83d 7212 35be e166 933e 9d0c ec3d
00000320: 1737 213b 2a3c b03d 7cc4 50be 44ff 343b
00000330: a718 f23d 0406 c7be 0953 d7bd 3c9c 01bd
00000340: 7cd7 63bc 96af fcbd 9873 7dbe b375 2a3e
00000350: 0032 e8bc 9806 a5be d2c0 7a3e 8179 e3bb
00000360: b048 50bc 08b3 55be 5ed7 6d3d bc29 85bd
00000370: c2cf 3abe 4adb 143e 28ad dabd f0e5 e63c
00000380: bed4 03be e87e 563d e31a b0be 2f1a 19be
00000390: a948 74be 3686 b0be 525b 973c beab a63d
000003a0: 612b 1ebe 271f 413e 5077 683d 8375 adbc
000003b0: 69e8 28be 9073 343e 0655 a73d 607b 94bd
000003c0: 21fd 47bd cfe3 a9bc 2da1 55be 33b7 653e
000003d0: 5b0d 3e3e c7fa adbe 3590 e1bc dd1d 1aba
000003e0: 2b2a 7f3d 1fc6 9ebe df27 133e 40ff 03be
000003f0: 538d 53bd e128 0fbe 1f54 17bd 8b2c a7be
0.19773655 0.13529125 -0.38777697 0.026276141 -0.26479182 -0.053267416 -0.024748094 -0.12523852
0.086330324 -0.060623754 0.032501396 0.053473454 -0.09794441 -0.19502117 -0.09812781 0.028307937
0.1755085 0.07071064 -0.20986727 0.016099604 -0.41155457 0.07005392 -0.19823302 0.22234535
0.049295 0.26821113 -0.25333926 -0.14575127 -0.28067943 -0.019152468 0.038182765 0.25327832
0.1667934 0.23456016 -0.45017454 0.070601776 -0.22952713 0.1315733 0.10908774 -0.10197605
-0.1280127 0.1207821 -0.113166556 0.15039316 -0.38103884 0.08958017 0.19459783 -0.20333068
-0.15397513 0.0108617265 -0.035431385 -0.08143047 0.040928926 -0.17802835 0.17319545 -0.123726025
0.053182725 0.0060986127 0.0019894 -0.1413939 -0.13480832 0.08165824 0.03643991 0.17528562
-0.36041903 -0.09436084 -0.23892877 -0.03566664 -0.25401282 -0.099433385 0.012201539 -0.039687656
0.24343847 0.14997518 -0.18809718 0.032144275 0.29113296 0.18840003 0.023121137 -0.09547728
-0.45876768 -0.03416478 0.50700647 -0.1696291 0.008767691 0.27576956 0.24033251 -0.0318324
-0.6427745 0.015674327 -0.30372664 -0.1708352 0.21901888 -0.34888342 0.07057757 -0.35868785
0.010062567 0.057438962 0.33783388 0.25689912 0.09344201 -0.20740114 -0.13160299 0.16067308
-0.25144282 -0.48271832 -0.035539046 0.008955456 0.07739541 0.014867212 -0.30828068 0.20299572
-0.21236452 -0.20689069 -0.04809372 0.078637525 0.09333141 -0.12817523 -0.1991418 -0.14507324
0.20223321 -0.004140078 0.02599386 -0.5865104 -0.02837032 0.27899462 -0.19874297 0.20333342
-0.035740644 0.06219193 0.19428974 -0.03455558 0.15447229 -0.0066288183 -0.23400497 0.105855905
-0.10808688 -0.40028518 0.19067438 0.17652784 0.021863224 -0.25687942 -0.3678406 0.18203756
-0.07468454 -0.21552551 0.19877726 0.071242824 0.16077584 -0.22103894 0.29538545 0.0041783573
-0.14176127 -0.065263085 -0.13183378 -0.09207779 0.18220612 0.005829052 0.22132553 -0.029323405
-0.35415596 -0.3048413 0.3508187 0.34711426 -0.11080012 -0.013493276 0.0431156 0.2110366
-0.10764573 0.14414717 -0.08432229 0.091601446 -0.30925977 -0.2997997 0.048341814 -0.27235296
-0.24923901 0.11033828 0.19271643 0.13446847 -0.08227362 0.2945473 -0.21057765 -0.20678602
0.061603013 0.20111729 -0.000118001626 -0.049452905 0.06674663 -0.011913882 0.06705061 -0.0143234935
-0.09786295 0.22129785 0.43763548 -0.049948517 0.08206084 -0.17682818 0.28789428 0.11525843
0.0024599486 0.086052254 -0.20387453 0.002761797 0.11821108 -0.38871777 -0.105138846 -0.031643137
-0.013906356 -0.12338178 -0.24751127 0.16646461 -0.028344154 -0.32231593 0.24487618 -0.0069419746
-0.012712643 -0.20869076 0.05806672 -0.06502101 -0.18243316 0.14536777 -0.10677558 0.028185815
-0.12874123 0.05236712 -0.34395513 -0.14951394 -0.23855843 -0.34477395 0.018476162 0.08138226
-0.15446235 0.1885954 0.05675441 -0.021174198 -0.16494907 0.17622209 0.08170514 -0.072500944
-0.048825387 -0.02073851 -0.20862265 0.22433166 0.18559782 -0.3398039 -0.027534584 -0.0005879084
0.062296074 -0.3101053 0.14370678 -0.12890339 -0.05164845 -0.13980438 -0.03694546 -0.3265117

conv2_ext.fc_attention.weight f4 [1, 65]
00000000: 4638 10bd c4a2 7bbe 565b 793e 5820 fabd
00000010: eedb 633e 6e89 f23d c6cc abbd ca28 583b
00000020: 51a7 bbbe 76f8 bf3e 4b18 bebd bd3c 3dbd
00000030: 5230 edbe 09f5 373e a701 ac3e fe70 72be
00000040: badf d63e e939 89ba 145e d2be a012 ca3d
00000050: c012 4d3c 6b9d 913d d395 303d e647 543e
00000060: f0ca d9bd 3c39 673e 5900 0dbe f944 233e
00000070: 44c7 bfbe 2117 83be 012f 813d 1e8d da3c
00000080: b1b3 363e 1edb 963e 6cec 3d3e 29bf 89bc
00000090: 1927 7a3e f069 aebe 9fa4 003e 465b b83e
000000a0: e809 34be 3e8a abbe f849 1abf b6a9 44bc
000000b0: cb79 69be f609 17be 0827 01be 309d 45bd
000000c0: d2f3 05be 0787 c2be f188 803d f4ad 253e
000000d0: 5541 2ebe 9e18 133f 7d9a 07bd da42 d33d
000000e0: 50c2 1abe 27e5 2ebc 74c4 d43d 3a7a d6be
000000f0: 8f24 93be 571d a6be 24cb 03bf 62bf 063f
00000100: 630a dd3e
-0.035209917 -0.24573809 0.24351248 -0.122132 0.22251865 0.11842619 -0.08388667 0.0032983297
-0.3665109 0.37494248 -0.09281977 -0.046200503 -0.46325928 0.17964567 0.3359501 -0.23675916
0.41967565 -0.0010469529 -0.410874 0.09866834 0.012516677 0.07110103 0.043111634 0.20730552
-0.106344104 0.22580427 -0.13769664 0.1594428 -0.37456715 -0.25603583 0.063077934 0.026678618
0.17841984 0.29464048 0.18547219 -0.016814785 0.24428977 -0.340652 0.12562798 0.36007136
-0.17581904 -0.33503908 -0.6026912 -0.012003353 -0.22800367 -0.14749894 -0.12612545 -0.04824561
-0.13081291 -0.37993643 0.062761195 0.16179639 -0.1701711 0.5745944 -0.033106316 0.10315485
-0.15113187 -0.010674751 0.10389033 -0.41890126 -0.2873883 -0.3244426 -0.51481843 0.52635777
0.43171987

fc1.weight f4 [128, 64]
00000000: 055e 84be ad9e 193e d79d 0d3d b1c4 3fbe
00000010: 1c39 f2bb 818b 88bc 298b b73d 1e2c 26be
00000020: 654f aa3c ff73 ebbc 3aa7 243e 75a7 abbe
00000030: 6ee8 6dba 97cb 82bc bd43 7fbe 8cb0 a3bd
00000040: bf2b 6dbb 739c 793d f6e7 483d 213e 7ebe
00000050: 024a b8be 2cbe 91bc 4115 c03c c01a 6cbd
00000060: 9aa6 623e 88d9 5f3b 5b19 823d c6c1 5b3d
00000070: 0e37 06bd 1857 36be a10e cf3d ded5 44be
00000080: bdcb 093c 5467 cabd 31f5 e43d 7eb4 afbc
00000090: 31ed 743d 4a03 543e 748f e5bc ce44 39be
000000a0: 2ab7 a23d b3df 00bd 7b40 54bd ad68 19bd
000000b0: a14b bebe ac09 c8bc 6715 45bd 29cb fd3b
000000c0: 1b93 92bd 8265 87b9 cad1 0a3e 49fa e83d
000000d0: 46d0 8f3d 26a8 43be 2fca 123e 99a1 cabe
000000e0: ebc7 7e3d 5f4e cc3d f6ea b3be 9203 2bbe
000000f0: af24 4a3e 7cd4 d2bd 0951 0abe 4229 683d
00000100: 70e4 babd d2be 393e ac7b b83d e98d b3bd
00000110: ddda 7d3d dd2f 28be 4e50 a13d ed41 6a3d
00000120: 2aec 0d3e 0af2 73be dbbe 0fbe 8b45 193e
00000130: ed74 60be 92ca d0bc 8f50 9ebe 4080 aabd
00000140: df65 efbd 02c3 463d 5755 bcbd 77ae 52be
00000150: 4998 f73d b061 ab3c 2a48 8bbe 51c3 31be
00000160: a1de 813e 41af 503d 0b55 be3d 239b babe
00000170: e13e 8abd 5740 58be 0a96 af3d f04c 29be
00000180: 37d1 303c 9f30 5f3e d409 833d a1bc 98bd
00000190: a9f0 90bd 6193 073f 8253 19be 820c 483d
000001a0: 0841 abbc 896b 11be 38c2 debd 703e bbbd
000001b0: 4c0f 03be ab97 443d ecce 02bd a7ce 463d
000001c0: 1639 803d 22c6 da3b fe27 713c bfb5 b93d
000001d0: 5331 9dbc 2599 4e3d d7d0 bdbd d6ad 3fbe
000001e0: a813 8c3b 0e7d c3bc 3dcb 403e eaff 29be
000001f0: fb1b a73c a20e 8cbd 22a0 fbbd 7391 433d
00000200: 6374 fabd fcc3 8dbc 5713 b9bc 4200 a13d
00000210: 9193 5d3b a0ac fdbd c363 47bc ca93 993d
00000220: 3ca1 59bd a7dd dfbd 9f24 803c 4c71 6ebd
00000230: 9137 793d 9c1d 56bd 1eb8 0ebe 0074 08bd
00000240: 95f8 b2bd 32fd f7bd c85c beba 68fa d53c
00000250: 324c f4bd 848a c93c e534 05be f975 eebd
00000260: ba83 d13c 28c6 afbd 64c8 a8bd 6e04 44bd
00000270: a9a7 d83d 3abd ec3c 00ee b23b 47dd 5b3d
00000280: cf67 1abe c9fb a2bd 80d6 09bd da50 5a3d
00000290: 772f 4cbd c0d4 5b3d d7ed 8a3a baa0 99bd
000002a0: 1be0 e93c 97a8 503d 30a8 7b3c 67ab afbd
000002b0: aa2f 7c3d caeb 76bd 7dd6 12be f508 32be
000002c0: 91e8 0bbe 0010 bcbb e07c 973d eea9 433c
000002d0: ecba 70bd 547c 0d3c ca37 3e3d f8a6 81bd
000002e0: d0a8 b3bd 80d7 90bd 230a 36bd 008d b2bd
000002f0: e90c 69bd 8c1d 7cbd ce53 19be 9ccc 24be
00000300: 683b 713e 8236 ac3d 1033 38be d418 823d
00000310: 1895 2abe 5ce5 ee3d 6df2 4d3d edac 363b
00000320: 6d64 a3be 3182 023d 713b 543e 1fa8 41bd
00000330: cd80 92bd ee5b f2bc e301 a6bd b887 8fbd
00000340: ae33 1ebe bfa2 003d 73c2 003d b30f 4b3e
00000350: 9e3e a23c eba2 20bc 03bc bd3c ecbe c3bc
00000360: e952 a03c 6fd9 dfbd 4d8c 1cbe 920a 753e
00000370: 602a 603e eae8 62ba 6812 5dbe 1afb 49bd
00000380: 8393 11bc 1ed4 bfbd c974 b3bd 29e1 c5bd
00000390: 3729 163e 2393 edbe 1066 413e 9e4e 03bd
000003a0: 8940 25bd 0bae 4a3e 4e12 523e 4ab9 c83d
000003b0: 3722 c03d ff34 8dbd 5e94 f73d 56bc 33bc
000003c0: 2755 03be 1186 1abe 01dc a33d 71fc 38be
000003d0: 5919 363d 8467 86be a182 2a3e be86 113e
000003e0: 62a4 84bc 8f8a 00be 474e 64bc d359 e9be
000003f0: a164 75be 8861 a23d 8105 d03d 5d7c 09bb
-0.2585298 0.15001936 0.034574356 -0.18727376 -0.007392062 -0.016668083 0.089620896 -0.16227767
0.020789811 -0.028741835 0.16079417 -0.33526197 -0.0009075467 -0.01596622 -0.24928184 -0.07992658
-0.0036189405 0.060940217 0.04904934 -0.24828388 -0.35993963 -0.017790876 0.023447635 -0.0576427
0.22133866 0.0034156758 0.063524924 0.053651594 -0.032767348 -0.17806661 0.10110212 -0.19222209
0.008410391 -0.098829895 0.11179579 -0.02144837 0.059796516 0.2070438 -0.028022505 -0.18092653
0.07945092 -0.031463336 -0.051819306 -0.037453342 -0.37167075 -0.024418674 -0.048116114 0.007745166
-0.071569644 -0.00025824836 0.1355659 0.11375863 0.07022147 -0.19107112 0.1433494 -0.39576414
0.062202375 0.099758856 -0.35140198 -0.1670058 0.19740556 -0.102944344 -0.13507475 0.05667997
-0.09125602 0.18139198 0.090079635 -0.087673016 0.061976302 -0.16424508 0.07876645 0.057191778
0.1385962 -0.238228 -0.1403765 0.14967935 -0.21919604 -0.025487218 -0.30920836 -0.08325243
-0.11689352 0.048525818 -0.09195965 -0.20574366 0.12089593 0.020920604 -0.27203494 -0.17359664
0.25365165 0.050948385 0.092935644 -0.36446485 -0.067502744 -0.21118294 0.085735396 -0.16533256
0.010792068 0.21795891 0.06398359 -0.07457853 -0.07077152 0.5295926 -0.14973262 0.048840053
-0.020905033 -0.14201178 -0.10876888 -0.091427684 -0.12798804 0.047996204 -0.031935617 0.048536923
0.06260888 0.0066764513 0.014719008 0.090678684 -0.019188559 0.05043902 -0.09268349 -0.18718657
0.004274804 -0.023863342 0.18827529 -0.1660153 0.020399084 -0.068387285 -0.12286402 0.047746133
-0.1222923 -0.017305367 -0.02259223 0.07861377 0.003380988 -0.12386441 -0.012169781 0.07498892
-0.05313228 -0.10930949 0.015642462 -0.058213517 0.060844008 -0.05227433 -0.13937423 -0.03331375
-0.087388195 -0.1210884 -0.00145235 0.02612038 -0.119285956 0.024602182 -0.13008459 -0.11643595
0.025575507 -0.08582717 -0.082413465 -0.047855787 0.10578854 0.028898824 0.0054605007 0.053677823
-0.15078662 -0.079581805 -0.03365183 0.053299762 -0.049849954 0.05366969 0.0010599446 -0.07501359
0.028549245 0.05094203 0.015359923 -0.08577614 0.061568893 -0.06028346 -0.14339633 -0.1738623
-0.13662936 -0.005739212 0.07396865 0.01194237 -0.058772013 0.008635599 0.046439923 -0.06330675
-0.08772433 -0.07072353 -0.04444326 -0.087183 -0.056897078 -0.061551616 -0.14973375 -0.16093677
0.23557818 0.08408834 -0.17988229 0.06352392 -0.16658437 0.116648406 0.050280023 0.0027874068
-0.31912556 0.03186244 0.207258 -0.047279473 -0.07153473 -0.029584851 -0.081058286 -0.07008308
-0.15449402 0.031405207 0.03143544 0.19830208 0.019805249 -0.009804468 0.02316094 -0.02389475
0.019570785 -0.10930144 -0.15287896 0.23929814 0.21891165 -0.0008655923 -0.21589053 -0.049311735
-0.008885267 -0.0936663 -0.087625094 -0.096620865 0.1466416 -0.4640132 0.1888659 -0.032057397
-0.04034475 0.19792955 0.20514795 0.09800966 0.09381526 -0.06894874 0.12088846 -0.010970196
-0.12825452 -0.15090205 0.08000947 -0.18065049 0.044457767 -0.2625085 0.16651393 0.14211556
-0.016191665 -0.12552856 -0.013934678 -0.45576343 -0.23964168 0.07928759 0.101573 -0.0020978667

fc1.bias f4 [128]
00000000: 80f7 c7bd 514f 0f3d a99e 32bd 908e 3e3d
00000010: 5cc5 9a3b 79f2 3fbd 4fb6 f8bd 3a62 39bc
00000020: 4eb3 90bd d14d 34be 2f91 d53d c949 333e
00000030: c67d c53d ab47 823d 27eb 3abd bf27 3b3e
00000040: 0161 873c b9fc 6dbd a9af 1e3e 7ef2 9bbd
00000050: a77a 18be 31e7 873e 88f3 a03d a9dc a0bd
00000060: ffda 49bd aca1 573a 2377 c33d e1b0 fdbd
00000070: 80f7 f63b 972d 263d 3e2c fe3d c9e9 79bc
00000080: d45d 473d a1d9 643e f6b7 aabd fb78 5ebe
00000090: b85f a9ba d68f a73c 10d9 9abd 49dc 743d
000000a0: 967b d23d d2b9 4c3c f187 1a3e 6c2e ffbc
000000b0: d5d9 d4bd 2799 b9bd 2ebd adbd 0b62 c13d
000000c0: d322 bebd ca6c 03be 8a02 033e 0eef 1fbe
000000d0: a71b 7abd bd67 303d 5459 3d3d 81f8 0e3c
000000e0: 9257 02be ab3c 5c3e 93aa a1bd 2c03 2cbd
000000f0: 468d f43c 52e3 01be ab2d 9ebd 9032 72bd
00000100: 54ec 2dbe 5388 10be a351 8fbd 26c5 a1bd
00000110: 1160 713d 6791 11be 448b 1d3e b872 a7bd
00000120: d0ea 17bd 4ea3 c3bd 80ec 0d3d 89ea b23c
00000130: ffe1 8dbc 13f8 16bd 2d09 2fbd d804 0e3e
00000140: 97a5 943d be7c 18be 6c0f 5fbb e4b9 4abd
00000150: 9e0f 203c 9e9c 09be 07fd 8e3d ab7c 87bd
00000160: d872 8ebc 81f7 9b3c af5c c03d fc8b fcbb
00000170: 30bf aa3c a0b3 883d d813 263d 329f 6e3d
00000180: aa16 953d a263 bfbd ceee cebd 99ad 82bd
00000190: 2ba0 1e3e 62ec ae3b f221 bb3c 7813 eabc
000001a0: 04a1 44bd 3bb2 13be dabd d93d 44aa 8b3e
000001b0: 4658 c73d a5d2 1e3e acda 05be 6f67 443e
000001c0: 56ee cd3d defe c6bc 2d26 b4bd 7251 c2bd
000001d0: 0728 fa3c 8286 693e 50ec 853d 69ff 913d
000001e0: 1bdb e63d db56 edbd 3260 5e3c 159a d9bd
000001f0: a4e2 b83d 3c65 4c3e 3dd8 c9bd 1269 3a3e
-0.09764004 0.03498775 -0.04360834 0.046522677 0.004723234 -0.0468621 -0.121441476 -0.011314923
-0.0706545 -0.1760781 0.10428082 0.17508616 0.0964313 0.06361326 -0.045634415 0.1827688
0.016525747 -0.058102343 0.15496697 -0.07614611 -0.14890538 0.26543573 0.0785895 -0.078545876
-0.049281117 0.000822569 0.09544208 -0.123872526 0.0075368285 0.04057082 0.12410782 -0.015253493
0.048673466 0.22348644 -0.08335869 -0.21725838 -0.0012922203 0.020454329 -0.07560933 0.059780393
0.102774784 0.012495475 0.1509092 -0.031150065 -0.10393111 -0.090624146 -0.08483349 0.09442528
-0.09283986 -0.12834468 0.12793937 -0.15618536 -0.061061528 0.043067683 0.046227768 0.00872624
-0.12728718 0.21507518 -0.078938626 -0.041995212 0.02985252 -0.12684372 -0.07723554 -0.05913025
-0.16984683 -0.14114504 -0.06997993 -0.07898931 0.058929507 -0.14215623 0.15385157 -0.08176178
-0.03708917 -0.09552632 0.034649372 0.02184035 -0.017319677 -0.036857676 -0.04273336 0.13869035
0.07258146 -0.14891335 -0.0034036292 -0.049493685 0.009769348 -0.13438651 0.06981855 -0.066155754
-0.017388746 0.019038917 0.09392678 -0.007707117 0.020843118 0.06674886 0.04054627 0.05825729
0.072797135 -0.09345175 -0.10104142 -0.063807674 0.15490787 0.0053382376 0.022843335 -0.028573737
-0.04800512 -0.14423458 0.106319144 0.2727834 0.09733634 0.15510042 -0.13071698 0.19180082
0.100552246 -0.024291452 -0.08796344 -0.09488191 0.030536665 0.22805217 0.06539214 0.07128794
0.1127226 -0.11588832 0.013572739 -0.10625092 0.09027603 0.19960493 -0.09855697 0.18204144

fc2.weight f4 [1, 128]
00000000: daa3 ea3d 44a4 9e3d 39fb e83b 7d3a 9b3d
00000010: 214f 08be 0af4 853d 27cf 44bc 3ec1 2abd
00000020: d5c1 8e3d f786 2cbc 066c 70bd 2f1a 13bd
00000030: 8d50 743d e8b4 ad3d e7ac 02be 8342 1fbd
00000040: 5ea0 d33e bad6 0cbe ee0d dbbc 279b fcbd
00000050: 0bce 31bd 352c e6bc 58fc 2abe ad11 04be
00000060: c6bf c03b 85fc ad3d 521f cabd 81a7 593d
00000070: 30b0 71be a737 f43d 5f17 a13d 52a0 b53d
00000080: cd60 6a3d 1dbc ebbc 1092 363d 1d15 e93d
00000090: 65e9 ca3d 273d 983d b417 0ebe 0bdd 593d
000000a0: 2e38 053e 5449 2fbd 3bc7 14bd 6876 94bd
000000b0: d44a 89bd 4b9d 35bb 9144 6f3d 45b4 623d
000000c0: 279c 01be 55c5 8fba 0837 87bd b54d 4f3d
000000d0: e872 ce3c df29 553e 4632 e2bd 015e 52be
000000e0: 483b b13c 1dc0 23bd af86 153d c766 ac3d
000000f0: d3c8 b33d 99b5 b83c 2d70 05be cf9a 243d
00000100: 7a80 d5bc 394a 3d3e d347 c03d d50a a33d
00000110: 37ff 973d 515c f03d a205 1fbd 3af9 25be
00000120: 3f21 8bbd b566 9bbd 335c aa3d 7fd7 6d3d
00000130: c69b bcbd d0f3 c7bd dd1d 0e3e 760a 39be
00000140: da14 32be 18f5 bb3d fb88 a13d fff9 7e3d
00000150: 520a 6f3d d853 33be 1fc0 25be 0d30 983b
00000160: a898 0b3e 150f 12be 7d82 03bd 88cc c03d
00000170: d9af 133d a4b7 c13e e729 853d c6c3 023e
00000180: fcc5 ddbd 7f19 e9bd d131 17bd 9e24 523d
00000190: 8c78 d7bc ee8a 373d 0475 a43d b128 bdbd
000001a0: 820b 33be 7166 83bc 61c8 e2bc 047e 73bd
000001b0: a5e9 673d 43cc eebc 50ec ea3c d75e a1bc
000001c0: b768 d6bd 8c1b 533d 0cd5 e4bb bfb1 fa3d
000001d0: bf92 a73d e828 2fbd 0d7b 9a3d 5aa9 57bd
000001e0: bb70 e2bd dcde a43d 7d48 e9bc 0d11 d5bc
000001f0: fbf2 2dbd 521f 17bd 9e10 41bd d9d4 01be
0.114570335 0.07746175 0.007110026 0.07579515 -0.13311435 0.065406874 -0.01201228 -0.041688196
0.06970564 -0.010530225 -0.05869677 -0.035913642 0.05964713 0.08481771 -0.1276127 -0.03888179
0.41333288 -0.13753787 -0.02674004 -0.123342805 -0.04340939 -0.028097251 -0.16697824 -0.12897368
0.005882236 0.0849543 -0.09869255 0.05313826 -0.23602366 0.11924677 0.07865786 0.08868469
0.057221223 -0.028776223 0.04457289 0.1138098 0.09907798 0.07433539 -0.1387623 0.05318932
0.13009712 -0.04279454 -0.036322813 -0.07249147 -0.067037255 -0.0027712162 0.058415 0.0553477
-0.12657224 -0.0010968844 -0.06602293 0.050611217 0.025201276 0.20816754 -0.11044745 -0.20543672
0.021634713 -0.039978135 0.036505397 0.08418041 0.087785386 0.02254753 -0.13031073 0.0401867
-0.026062239 0.18485345 0.093886994 0.079610504 0.07421725 0.11736358 -0.03882373 -0.16208354
-0.067934506 -0.07587949 0.08318367 0.05806684 -0.09209399 -0.097633004 0.1387858 -0.18070397
-0.17390767 0.09177607 0.07887455 0.062250134 0.05835945 -0.17512453 -0.1618657 0.0046444
0.13632452 -0.14263566 -0.032106865 0.09414011 0.036056373 0.3783542 0.06502133 0.12769994
-0.10828778 -0.11381816 -0.036912743 0.051304452 -0.026302598 0.044810228 0.080301315 -0.09236277
-0.17484859 -0.016040059 -0.027683439 -0.05944635 0.056619305 -0.029150134 0.028677136 -0.019698543
-0.104691915 0.051539943 -0.006983405 0.122409336 0.081822865 -0.04276362 0.07543001 -0.05265174
-0.11056658 0.080503196 -0.028476948 -0.026009107 -0.042468052 -0.036895104 -0.047134988 -0.12678851

exp_avg f4 [16, 48]
00000000: 9722 2a36 5254 00b7 141f 9eb5 fcd0 2237
00000010: 4b0b ad37 f9bd 9e37 13c2 6fb7 ea60 0837
00000020: 6418 66b6 3f92 1c38 a6d9 1fb7 f124 5fb7
00000030: 4af8 f7b7 f712 ad36 29af a936 26a3 1838
00000040: 8334 1938 6155 f2b7 5197 3a37 a6a0 8937
00000050: 9de0 eb37 ba5c 1a38 525f 9d37 a6a0 8937
00000060: ca0f 753c 816c b5b8 7138 253a 8240 2839
00000070: e66e 6ab9 b110 c8b9 3753 01b9 6666 9bb9
00000080: 4d53 17ba 690b c2b8 9f1d 2c38 8d4d d838
00000090: a248 66b8 4826 49ba cb66 25ba e166 93b9
000000a0: fc7f b5b9 b7fd b6b9 fb91 08ba 7ddb 59b9
000000b0: c327 4bb9 aa62 68ba 97ff 5db9 a2c4 1aba
000000c0: 88c6 96b6 9052 dc37 dc77 4cb8 8e22 7a37
000000d0: 04ab 8db7 4ce6 2535 0f24 2937 d953 0ab7
000000e0: 69ff 6e38 9ed0 c637 e742 8237 f6a1 a038
000000f0: 5fce 98b8 2ff2 2737 d6d5 db37 2722 d538
00000100: b630 3a38 93e2 59b6 7eab 3b35 ca14 aa35
00000110: 0657 7939 4b51 deb7 3f81 2f38 ca14 aa35
00000120: 7f4a 823c 279f bab8 0e34 953a cb2f 6939
00000130: 4304 37b9 cceb a8b9 0cff 0dba 5e16 bab9
00000140: 02ec 25ba e017 8fb9 55b5 20ba 0d2f efb9
00000150: d114 a2b8 03d8 7ab8 9909 85b9 a8ce 88b9
00000160: 6f0a aeb9 7d39 13b9 0904 19ba 2596 b8b9
00000170: 3e8b 1fba 0c66 1eb7 6809 6538 9308 20ba
00000180: 4640 32b7 55dc 32b7 be7c b0b7 3cba 1cb7
00000190: 6c0a 83b7 b746 ed36 4be6 f1b5 256f 29b8
000001a0: 42af bf36 3c7f c135 c609 e5b7 ea48 c5b7
000001b0: cd00 9bb8 50be eab7 0c1e bdb6 1fee b0b8
000001c0: 7539 db37 5742 98b7 4b52 2238 b927 33b8
000001d0: 1502 77b9 63c7 d6b8 dccd 4338 b927 33b8
000001e0: 81f1 acbb 386a 6439 d893 d5ba 1f67 20ba
000001f0: 24e4 aa3a 0b2c f43a c705 c83a 71a6 da3a
00000200: f524 b63a a9eb d63a 6a4b f13a 9952 b93a
00000210: 79fe fb3a c367 cdb9 aca6 52b8 90d9 053b
00000220: 341e 9839 cdf0 2b3a 1b69 ff3a fad5 b13a
00000230: 4240 803a 3bc8 343a 8322 793a 666a e1b8
00000240: d600 3a36 3adf 8337 11f3 b837 f9a1 9438
00000250: 7e32 bfb7 a721 4136 7392 59b7 ff19 3738
00000260: 5eeb 2038 2b76 a037 f9f4 9738 3626 d038
00000270: 0db2 71b8 011b 9b37 936e 8eb6 1afa 36b8
00000280: 7119 eb37 b6a2 7737 e9f2 44b7 c86c 5037
00000290: 1a1c 1539 df1e 0039 ab38 0238 c86c 5037
000002a0: 5a12 383c 8ab7 86b9 2276 db3a 3cda 603a
000002b0: 4fdd eaba 1e74 b4ba 991a c9ba 8ebf d5ba
000002c0: e4d2 e9ba 8b66 50ba 93c3 feba 5472 7eba
000002d0: 9bf8 50ba 1e5a 86ba 12b6 62ba 00db f0ba
000002e0: 5e01 b8ba 18b3 84b9 6c1d 26bb 93ee 05bb
000002f0: 50f8 ffba 5931 fc3a cec1 33ba bf35 efba
00000300: d862 2837 2163 01b7 9666 a3b7 7946 b636
00000310: 076f 3d37 dc87 9637 8a89 27b8 5192 de37
00000320: dd6b bbb7 9418 41b8 3121 8eb7 d3e8 25b8
00000330: d034 5838 789e b836 8db4 4236 48ed 0bb9
00000340: 2a65 06b8 fd39 9037 9867 6e37 c691 7d38
00000350: 4702 50b9 9ba5 8936 4e90 2bb5 c691 7d38
00000360: a5a1 dfbc cf54 1fb7 d206 baba 506e 34b8
00000370: f3e8 f138 564b 3939 ea80 46b9 cb1f 51b9
00000380: e785 2939 e37c 93b9 6d2d 1439 bef4 8db9
00000390: 3239 08ba 30cc 83b8 d3b8 d4b7 ad9e 2ab9
000003a0: 2e9f 4d38 adba b5b9 6dad b739 32df ac38
000003b0: 7b6c 3e39 e2f3 553a 2a01 d7b9 b068 6b3a
000003c0: 0fef 05b6 7853 04b7 22ac 0ab8 e996 e0b8
000003d0: d506 6fb6 0d07 23b8 87a8 3d37 c9e0 93b6
000003e0: e027 1e36 9d9a 01b8 ca07 31b8 93cd 86b8
000003f0: e2f8 7637 3236 99b7 44d3 cab7 4552 2936
2.5352108e-06 -7.649027e-06 -1.1780962e-06 9.70461e-06 2.0628466e-05 1.892353e-05 -1.42906965e-05 8.128796e-06
-3.4286868e-06 3.73295e-05 -9.527814e-06 -1.3300437e-05 -2.9560313e-05 5.1580096e-06 5.056984e-06 3.6391568e-05
3.6526948e-05 -2.8888406e-05 1.1121695e-05 1.640648e-05 2.8118777e-05 3.680282e-05 1.8760245e-05 1.640648e-05
0.014957378 -8.650963e-05 0.0006302661 0.0001604576 -0.00022357292 -0.0003815941 -0.00012333399 -0.00029640197
-0.00057726057 -9.252766e-05 4.1035582e-05 0.000103141276 -5.4903918e-05 -0.0007673246 -0.0006309568 -0.00028114676
-0.00034618366 -0.00034902777 -0.0005209741 -0.00020776498 -0.00019374401 -0.00088648 -0.00021171417 -0.00059039344
-4.4934604e-06 2.626449e-05 -4.8749018e-05 1.4909207e-05 -1.6888145e-05 6.1802416e-07 1.00815805e-05 -8.244963e-06
5.698149e-05 2.3700584e-05 1.5528361e-05 7.659562e-05 -7.2863644e-05 1.0010363e-05 2.620641e-05 0.00010162993
4.439122e-05 -3.2467403e-06 6.991248e-07 1.2672037e-06 0.00023778909 -2.6502317e-05 4.184362e-05 1.2672037e-06
0.015904663 -8.8988156e-05 0.0011383311 0.00022238416 -0.00017453828 -0.0003221914 -0.0005416728 -0.0003549335
-0.00063294184 -0.00027292874 -0.0006130536 -0.00045620688 -7.728639e-05 -5.980582e-05 -0.00025374888 -0.00026093912
-0.0003319564 -0.00014040429 -0.0005837088 -0.0003520708 -0.00060861174 -9.4412935e-06 5.4606615e-05 -0.0006104793
-1.0624592e-05 -1.0660927e-05 -2.1038923e-05 -9.341686e-06 -1.562127e-05 7.0713827e-06 -1.8022923e-06 -4.039625e-05
5.7126463e-06 1.4416651e-06 -2.7303478e-05 -2.3518183e-05 -7.391125e-05 -2.7983595e-05 -5.636137e-06 -8.4366875e-05
2.613359e-05 -1.8150704e-05 3.870045e-05 -4.271392e-05 -0.00023556531 -0.00010241454 4.6683344e-05 -4.271392e-05
-0.005277813 0.00021783344 -0.0016294671 -0.0006118882 0.0013037962 0.0018628848 0.0015260511 0.0016681683
0.0013896512 0.0016397136 0.0018409316 0.0014138996 0.0019225619 -0.00039177955 -5.0223127e-05 0.0020423867
0.00029014202 0.00065590144 0.001948628 0.0013567798 0.0009784775 0.0006896292 0.0009503739 -0.00010748654
2.7716646e-06 1.5720365e-05 2.2047696e-05 7.08736e-05 -2.2792487e-05 2.877883e-06 -1.2968306e-05 4.365481e-05
3.8366175e-05 1.9128513e-05 7.245871e-05 9.92533e-05 -5.76247e-05 1.8490015e-05 -4.2448023e-06 -4.3625107e-05
2.802603e-05 1.4760231e-05 -1.1739067e-05 1.2423094e-05 0.00014220216 0.00012218532 3.104719e-05 1.2423094e-05
0.011234844 -0.0002569522 0.001674358 0.00085774413 -0.0017918738 -0.0013767516 -0.001534301 -0.0016307698
-0.001783934 -0.00079498504 -0.0019436948 -0.0009706367 -0.00079716154 -0.0010250246 -0.00086483464 -0.0018375814
-0.0014038493 -0.00025310437 -0.0025347127 -0.002043639 -0.0019528959 0.0019240781 -0.0006857187 -0.001825027
1.0036594e-05 -7.712079e-06 -1.9478884e-05 5.4322268e-06 1.1291128e-05 1.7944658e-05 -3.9943996e-05 2.6532596e-05
-2.2342365e-05 -4.6037676e-05 -1.6943175e-05 -3.95559e-05 5.15476e-05 5.5020755e-06 2.9013347e-06 -0.00013344467
-3.2042306e-05 1.719314e-05 1.4210025e-05 6.0455663e-05 -0.00019837274 4.102197e-06 -6.3912455e-07 6.0455663e-05
-0.027298758 -9.496885e-06 -0.0014192706 -4.301808e-05 0.00011535166 0.0001767104 -0.00018930776 -0.00019943637
0.00016166978 -0.00028131073 0.00014131302 -0.00027075963 -0.0005196511 -6.2846e-05 -2.5358435e-05 -0.00016271575
4.9024056e-05 -0.00034662095 0.00035033692 8.2431725e-05 0.00018160224 0.00081616465 -0.00041008863 0.0008980138
-1.9957695e-06 -7.887247e-06 -3.3062075e-05 -0.000107092616 -3.5617752e-06 -3.8868795e-05 1.1304516e-05 -4.40711e-06
2.3567045e-06 -3.089999e-05 -4.2207343e-05 -6.427909e-05 1.472069e-05 -1.8264258e-05 -2.4178655e-05 2.523085e-06
