paper_pretrained_models/scoring_of_docking_models/all_models/fold3_treg_yfnat_b128_e20_lr0.001_9.pt (torch, 150943 bytes, 33 tensors)

conv1.fc.weight f4 [16, 48]
0	0x3ed2c8a6	0.41168708
1	0xbd3f9e47	-0.046781804
2	0xbe5b2e3d	-0.21404357
3	0x3eb1aad9	0.3470066
4	0x3c236fc3	0.009975377
5	0xbe55e6a9	-0.20888771
6	0x3f47e25a	0.7807976
7	0xbe58d119	-0.21173514
8	0xbe34237e	-0.17591664
9	0xbf967ab4	-1.1756196
10	0x3ca762b4	0.020432808
11	0x3d10c8ff	0.035347935
12	0xbebd12fd	-0.3692855
13	0x3f1284ca	0.5723387
14	0xbe37c698	-0.17946851
15	0x3f00db34	0.5033448
16	0x3ea69c61	0.32541183
17	0xbe97a6ae	-0.29619354
18	0xbe4f3e6f	-0.2023866
19	0xbd985ba4	-0.07439354
20	0x3d436215	0.04770096
21	0x3e74577d	0.23861499
22	0xbe471ab6	-0.19443783
23	0xbcf65f53	-0.030074751
24	0xbe2501c5	-0.16113956
25	0xbde9a8a1	-0.114091165
26	0x3e237e9e	0.1596627
27	0x3d9c5e79	0.07635207
28	0xbd84c7e4	-0.064834386
29	0x3daadabc	0.083425015
30	0xbe3ffa17	-0.18747745
31	0xbe1ba9e2	-0.15201524
32	0x3e3714d8	0.17879045
33	0xbd8750dd	-0.0660722
34	0xbdd56740	-0.10420084
35	0xbda7537d	-0.08170221
36	0x3e49fc43	0.19725136
37	0x3e9383bb	0.2881144
38	0xbd9eebea	-0.07759841
39	0x3df50302	0.11963464
40	0xbda83dc1	-0.082149036
41	0xbdb0a7d8	-0.08625764
42	0xbd900514	-0.070322186
43	0x3dd3b03d	0.10336349
44	0x3d4ae4a3	0.04953445
45	0x3c5a1143	0.01330978
46	0x3c14b123	0.009075436
47	0xbd6851b4	-0.056718543
48	0xbe17ca49	-0.1482326
49	0x3ef4398e	0.4770016
50	0x3f7b608e	0.98194206
51	0x3eb7caee	0.3589701
52	0x3ef1ce6b	0.47227797
53	0xbec7d48a	-0.39029342
54	0xbea48101	-0.32129672
55	0x3e78ed30	0.2430923
56	0xbe8289f8	-0.25495887
57	0x3ed7ea5b	0.42170987
58	0xbe352b7e	-0.17692372
59	0xbf356ec1	-0.7087212
60	0x3d484e05	0.04890253
61	0xbe33c3c3	-0.17555146
62	0x3f0d0d2a	0.5509821
63	0xbf519dd4	-0.8188145
64	0x3ee5efad	0.4490942
65	0x3d1fb286	0.038988613
66	0x3f23055e	0.63680065
67	0xbdd1bb25	-0.10240773
68	0xbde3ad66	-0.111170575
69	0x3e7b7a92	0.24558476
70	0x3f1ef083	0.6208574
71	0xbe8f14db	-0.279456
72	0xbd3f0595	-0.046636183
73	0xbeb16e11	-0.34654287
74	0xbd38deeb	-0.045134466
75	0xbe053b59	-0.1301092
76	0xbce53215	-0.027977983
77	0x3d5f00fa	0.05444429
78	0x3dc5113f	0.0962243
79	0xbe2a852d	-0.16652365
80	0x3bf2c944	0.0074092466
81	0x3d7ffe5a	0.062498428
82	0xbe1481ba	-0.14502612
83	0xbe658f83	-0.22418027
84	0xbc92116c	-0.017830573
85	0xbe6128f2	-0.21988276
86	0xbda4a77d	-0.08039758
87	0x3de1fdc1	0.11034728
88	0xbe58c808	-0.21170056
89	0x3e5611c9	0.20905222
90	0x3d87548a	0.066079214
91	0xbd9aaf2f	-0.07552945
92	0xbe4078d5	-0.18796094
93	0xbd7d61c3	-0.06186081
94	0x3ea07311	0.3133779
95	0xbd66ec93	-0.05637796
96	0xbf2306fe	-0.63682544
97	0xbda5cc3e	-0.08095597
98	0xbdd12b41	-0.10213328
99	0x3e0ef385	0.13960083
100	0x3eea019e	0.4570436
101	0xbf113c11	-0.5673228
102	0xbe0173dc	-0.12641853
103	0x3d61cbc3	0.055125963
104	0xbe9eacc1	-0.30991176
105	0x3f309ee3	0.6899244
106	0x3e8c02d7	0.27345917
107	0xbe8adec8	-0.27123094
108	0x3dc24ebd	0.094876744
109	0xbcb037f1	-0.02151105
110	0x3e35fd6f	0.17772458
111	0xbf898634	-1.074408
112	0x3e9a918e	0.30189174
113	0x3e0f6f44	0.14007288
114	0x3ed91773	0.42400703
115	0x3f16b45f	0.58868974
116	0xbee0c270	-0.43898344
117	0xbef73de5	-0.4828941
118	0x3e8db9b3	0.2768074
119	0x3f1818ce	0.5941285
120	0xbd24e1bd	-0.040254343
121	0xbcf1e7b3	-0.029529428
122	0xbd7b30cc	-0.061325833
123	0x3d9c6d35	0.07638017
124	0xbd885482	-0.066567436
125	0xbdde3ffa	-0.10852046
126	0xbce9ea09	-0.02855398
127	0x3e2b56e1	0.1673236
128	0x3b7c0278	0.003845362
129	0x3ec4b8d7	0.38422272
130	0x3c22de6b	0.009940724
131	0xbe311f7d	-0.17297168
132	0x3cdeb6e3	0.027186817
133	0xbec2ec8f	-0.38071105
134	0xbd9c3c2d	-0.07628665
135	0x3e5ed064	0.21759182
136	0xbdf23cfa	-0.118280366
137	0x3dcd73dc	0.10031864
138	0x3d991fa7	0.0747674
139	0xbdceed01	-0.10103799
140	0x3ea906cc	0.33012998
141	0xbe1ab242	-0.15107062
142	0x3d279f63	0.040923487
143	0x3ddc5d10	0.10759938
144	0x3f939f00	1.1532898
145	0x3f952ff0	1.1655254
146	0x3e921969	0.2853501
147	0x3ec04de3	0.37559423
148	0xbe6a14fd	-0.22859569
149	0x3e26857e	0.1626186
150	0xbdb0294d	-0.086016275
151	0x3f1c2478	0.60993147
152	0xbcdc81ae	-0.026917305
153	0xbe578b70	-0.21049285
154	0xbe51ebe0	-0.20500135
155	0x3edfdc7f	0.43722913
156	0xbec9f4b0	-0.39444494
157	0x3d32153c	0.043477282
158	0x3f1d8636	0.61532915
159	0x3d4241db	0.047426086
160	0xbf8fb660	-1.1227531
161	0x3f2d8f2e	0.677966
162	0x3e09eab5	0.1346844
163	0x3f306bac	0.68914294
164	0x3e3ae043	0.18249612
165	0x3f0131fe	0.5046691
166	0xbea5aeb3	-0.32359847
167	0x3f2252df	0.634077
168	0xbcf77211	-0.030205758
169	0xbeb508e2	-0.3535834
170	0xbd571434	-0.0525095
171	0xbdfe64f8	-0.12421602
172	0x3d0b819f	0.034059163
173	0x3e060436	0.13087544
174	0xbe7c7df0	-0.24657416
175	0xbe2d518c	-0.16925639
176	0x3d763240	0.060106516
177	0x3daaeb9d	0.08345721
178	0x3e2b8192	0.16748646
179	0xbdb30aae	-0.08742271
180	0xbd0f0117	-0.03491315
181	0xbe11a973	-0.14224796
182	0x3ea1a51e	0.31571287
183	0xbd45c6d7	-0.04828533
184	0xbdd99523	-0.10624149
185	0xbb6f5261	-0.0036517608
186	0xbd51a072	-0.051178403
187	0x3e963c2e	0.29342788
188	0x3ec8369e	0.3910417
189	0xbdb2190e	-0.08696185
190	0xbe1e1c7d	-0.15440555
191	0x3e3f68ea	0.18692365
192	0x3e1aef66	0.15130386
193	0x3c162a80	0.009165406
194	0xbe9ec6b4	-0.31010973
195	0xbf852e9e	-1.0404851
196	0xbf0d2b55	-0.55144244
197	0x3f66793f	0.90028757
198	0xbeaad9b0	-0.33369207
199	0x3ee159de	0.44013876
200	0x3e4a4986	0.1975461
201	0xbd8e0d03	-0.069360755
202	0xbc871fbb	-0.016494622
203	0xbe2ad085	-0.16681106
204	0x3f865035	1.0493227
205	0xbd646510	-0.055760443
206	0xbedcab7b	-0.4309958
207	0x3e094146	0.13403806
208	0xbf6e25ff	-0.9302673
209	0xbf02c0bd	-0.51075345
210	0xbe4e6ff7	-0.20159899
211	0xbf682f07	-0.9069676
212	0xbd83c3fd	-0.06433866
213	0x3cdfc898	0.02731733
214	0xbefdc1f8	-0.4956205
215	0xbf61b87c	-0.88172126
216	0x3c5ae6c9	0.0133606875
217	0x3ea234b9	0.3168085
218	0xbd9d3004	-0.07675174
219	0x3d88ce61	0.06679989
220	0x3e963b65	0.2934219
221	0x3e499048	0.19683945
222	0xbde2cd4f	-0.11074316
223	0x3e0c995b	0.13730375
224	0x3df9bb74	0.12193957
225	0xbd4acc01	-0.04951096
226	0xbe1c370c	-0.15255374
227	0x3c67b0a4	0.0141412355
228	0xbcb206df	-0.021731792
229	0x3dce3af8	0.10069841
230	0x3ec4154e	0.38297504
231	0xbdf7f168	-0.121065915
232	0x3d85c579	0.065318055
233	0xbe873436	-0.2640702
234	0xbcde959c	-0.027170949
235	0xbd987b84	-0.07445434
236	0xbdd7d917	-0.105394535
237	0xbdb82dec	-0.08993134
238	0xbdf241e4	-0.11828974
239	0xbcc6d9f2	-0.024273846
240	0xbe5c0eaa	-0.21489969
241	0x3ea6bef7	0.3256757
242	0x3f86f034	1.0542054
243	0xbdc8acde	-0.09798597
244	0xbe6838cc	-0.22677916
245	0xbee21c6a	-0.44162303
246	0xbe98f866	-0.29877013
247	0x3e30c0b9	0.17261018
248	0xbe356722	-0.17715123
249	0xbe8e5eda	-0.2780674
250	0xbf0443cd	-0.51665956
251	0xbdb62a38	-0.08894771
252	0xbcafd5d1	-0.02146426
253	0x3ed1037a	0.40822965
254	0x3f386886	0.7203449
255	0xbf3d8c2b	-0.74042004

conv1.fc_attention.weight f4 [1, 33]
0	0xbdab43bd	-0.083625294
1	0xbe93ee3a	-0.2889269
2	0xbdff31c0	-0.12460661
3	0xbe39ef43	-0.18157677
4	0xbe38e940	-0.18057728
5	0xbd8c0f4a	-0.06838854
6	0xbda206cd	-0.079114534
7	0x3e04cba0	0.12968302
8	0xbdfa2a2d	-0.12215076
9	0xbe957ee2	-0.29198366
10	0x3d3690f8	0.044571847
11	0xbe308942	-0.1723986
12	0x3d8df3cb	0.069312654
13	0x3e0183f6	0.12647995
14	0x3e3b5768	0.18295062
15	0x3f172027	0.59033436
16	0x3cb48603	0.022036558
17	0xbe125874	-0.14291555
18	0xbefa9a2f	-0.48945758
19	0xbc4517f6	-0.0120296385
20	0x3e6bfc91	0.23045565
21	0x3c44ae37	0.012004427
22	0x3de36326	0.111028954
23	0x3cb74fdb	0.022376945
24	0x3d45e189	0.04831079
25	0x3d649032	0.055801578
26	0xba6e9808	-0.0009101634
27	0xbdbb004c	-0.09130916
28	0xbe0208e2	-0.12698701
29	0xbe122493	-0.14271764
30	0x3e790abe	0.24320504
31	0x3e44c560	0.19215918
32	0x3f03bd2d	0.51460534

conv2.fc.weight f4 [32, 16]
0	0x3eb2a624	0.3489238
1	0x3dbbff43	0.09179547
2	0xbe121bc1	-0.142684
3	0x3f0b988f	0.5452966
4	0xbd1dfb6e	-0.03856986
5	0xbe2258e2	-0.15854219
6	0xbc2dfc7e	-0.010619281
7	0x3dad0a8f	0.084492795
8	0xbe0776a9	-0.13228859
9	0xbd2d8555	-0.042363483
10	0xbc2218e3	-0.009893629
11	0x3ddeb1ff	0.10873794
12	0x3e513218	0.20429265
13	0x3e0760c4	0.13220507
14	0xbdb7cb21	-0.08974291
15	0xbe3e3278	-0.1857394
16	0xbe2458ea	-0.16049543
17	0xbe512970	-0.20425963
18	0xbee15f61	-0.4401808
19	0x3e0c640f	0.13710044
20	0x3e70d994	0.235205
21	0xbea239fb	-0.3168486
22	0xbe8cc36b	-0.27492842
23	0xbdf340bc	-0.118775815
24	0x3e8f4047	0.27978727
25	0x3e7f27d9	0.24917544
26	0xbec687ac	-0.38775384
27	0x3e37f417	0.17964207
28	0x3d649510	0.05580622
29	0xbdfe8a0c	-0.12428674
30	0xbd6653e6	-0.056232356
31	0xbd0b4f38	-0.034011096
32	0x3c92cea4	0.0179208
33	0xbd06562e	-0.03279703
34	0xbe0e0221	-0.13868
35	0x3da1ba17	0.07896822
36	0x3e43b8ef	0.19113515
37	0xbd395b4d	-0.045253087
38	0x3e220c75	0.15825064
39	0xbe0aae3b	-0.13543026
40	0xbe544bbc	-0.20732015
41	0xbe62ebb6	-0.22160229
42	0xbdbaf76e	-0.09129225
43	0xbda2ac3a	-0.07943006
44	0x3e0f6f62	0.14007333
45	0xbedac2ba	-0.4272669
46	0x3e09b444	0.13447672
47	0x3d12eb3a	0.03586886
48	0x3eb6b3c5	0.35684028
49	0xbe8ed320	-0.2789545
50	0x3e2ccbbd	0.16874595
51	0xbe92df64	-0.2868606
52	0xbe8de7d2	-0.27715927
53	0x3dc20c7f	0.0947504
54	0xbe5cb23d	-0.21552368
55	0x3dcd3b83	0.100211166
56	0xbd818e8a	-0.06326015
57	0x3e26d22c	0.16291112
58	0x3e54a7f9	0.20767201
59	0x3e61acec	0.2203862
60	0xbd24f4e5	-0.040272612
61	0x3e1c0d95	0.15239556
62	0xbe75cd7f	-0.24004172
63	0xbebaa663	-0.36455068
64	0xbda0c06f	-0.07849204
65	0x3defefb0	0.11715639
66	0x3e7825aa	0.24233118
67	0x3e94fab0	0.2909751
68	0xbe023b9b	-0.1271805
69	0xbcd5d886	-0.026104223
70	0xbe691912	-0.2276347
71	0xbeaf1cbc	-0.3420161
72	0x3e327e35	0.17430957
73	0xbdf15949	-0.11784608
74	0xbdc7275e	-0.097243056
75	0xbe7a2786	-0.2442914
76	0xbe7d3305	-0.24726494
77	0x3e3c6b3a	0.18400279
78	0x3e8dfd42	0.27732283
79	0xbeacd20c	-0.33754003
80	0xbd3481e6	-0.044069193
81	0xbe03250d	-0.12807103
82	0x3d483f22	0.048888333
83	0xbebbe4c3	-0.3669797
84	0x3e4d962b	0.20076816
85	0x3e7fccaa	0.24980417
86	0x3e701b3d	0.2344789
87	0xbd96ad3c	-0.073572606
88	0x3c0e47a5	0.008684074
89	0xbdee2654	-0.11628404
90	0x3e05a299	0.13050307
91	0xbe312e67	-0.17302857
92	0xbe226cdc	-0.15861839
93	0xbe18866f	-0.14895032
94	0x3d73dc49	0.059536252
95	0xbda44a03	-0.08021929
96	0xbe9aef36	-0.30260628
97	0xbde3a160	-0.11114764
98	0x3f00283e	0.50061405
99	0xbd8b819a	-0.06811829
100	0xbe759bc4	-0.23985201
101	0xbe38c761	-0.18044807
102	0xbe29a77d	-0.16567798
103	0x3e455829	0.19271912
104	0xbe97112d	-0.29505292
105	0xbe0caaeb	-0.13737075
106	0xbe7a4db3	-0.24443702
107	0xbe1a1684	-0.15047652
108	0xbe273c4a	-0.16331592
109	0xbd54b2f7	-0.051928487
110	0x3e0f12f1	0.1397207
111	0xbe6bc825	-0.23025568
112	0xbe667509	-0.22505583
113	0xbd744989	-0.05964044
114	0x3db48b31	0.08815611
115	0xbed0af91	-0.40758947
116	0x3d75722d	0.05992334
117	0x3d7ccead	0.06172054
118	0x3e0ccb51	0.13749434
119	0x3e05b717	0.13058124
120	0x3e8689a0	0.26276875
121	0xbe4eaeca	-0.20183864
122	0x3e57527c	0.21027559
123	0xbe9693bf	-0.29409596
124	0x3e6fafcd	0.23406906
125	0xbe0b99f1	-0.13632943
126	0x3d522a25	0.051309723
127	0xbe2a3bf1	-0.16624428
128	0xbe7d85a0	-0.24758005
129	0x3d9e640b	0.077339254
130	0x3d5d3404	0.054004684
131	0xbf07e8b9	-0.5308948
132	0xbb8e1453	-0.004335919
133	0x3dd57b2e	0.10423885
134	0x3d433438	0.04765722
135	0x3dcace2d	0.09902606
136	0xbe083e65	-0.13305052
137	0x3e3c7180	0.18402672
138	0xbdc81dab	-0.09771284
139	0x3cdad871	0.026714535
140	0xbe7b977e	-0.24569508
141	0xbe955b45	-0.29171196
142	0x3d08736d	0.033313204
143	0xbd9bda5f	-0.0761001
144	0xbd886ff4	-0.06661978
145	0xbe064433	-0.13111953
146	0xbe805da1	-0.25071433
147	0x3d4c1105	0.04982092
148	0x3e0c1f3b	0.13683788
149	0xbb347770	-0.002753701
150	0x3d6ca6b1	0.057776157
151	0xbe96c81b	-0.29449543
152	0xbddd7fab	-0.10815366
153	0x3e1439ed	0.14475222
154	0xbe7579b1	-0.23972203
155	0x3cc5c804	0.024143226
156	0x3ecfd303	0.40590677
157	0xbecdff03	-0.4023362
158	0xbd0eaa9a	-0.034830667
159	0xbd696dac	-0.056989357
160	0x3d834aff	0.06410789
161	0xbcdac00f	-0.026702909
162	0x3de2c310	0.110723615
163	0xbed93226	-0.42421073
164	0x3e4edbaf	0.2020099
165	0xbe5089ea	-0.2036511
166	0x3c179619	0.009252095
167	0x3d47f720	0.04881966
168	0xbf10e9e0	-0.56606865
169	0x3c822aa1	0.015889468
170	0xbea2f89e	-0.31830305
171	0x3e735e0f	0.2376635
172	0xbe5b2240	-0.21399784
173	0xbe27d3a6	-0.16389331
174	0xbd18ad32	-0.037274547
175	0x3e097603	0.13423924
176	0xbd89815b	-0.06714126
177	0x3e996ad8	0.29964328
178	0x3dc36e2d	0.09542499
179	0xbd70a8dd	-0.05875479
180	0xbeadad18	-0.33921123
181	0x3e379414	0.17927581
182	0xbc905c71	-0.017622204
183	0x3e104fdb	0.14092962
184	0x3ddb6c6f	0.107140414
185	0x3db6dc92	0.08928789
186	0xbe161b6f	-0.14658903
187	0x3e1e17fc	0.15438837
188	0x3da98619	0.0827753
189	0xbd084180	-0.03326559
190	0xbea1ce05	-0.31602493
191	0xbe9d1ffd	-0.30688468
192	0xbe8d12d9	-0.27553442
193	0xbdf496c5	-0.119428195
194	0x3e577bea	0.21043363
195	0xbda24725	-0.07923726
196	0xbe8bb831	-0.27288964
197	0x3da291fd	0.07938001
198	0xbe3f5966	-0.18686447
199	0xbdbbcc0e	-0.0916978
200	0xbe0ab8d7	-0.13547073
201	0xbde75e0b	-0.11297234
202	0xbe4a5b6e	-0.1976144
203	0x3c130b1e	0.0089748185
204	0xbe9d5c44	-0.30734456
205	0xbca9a8fb	-0.020710459
206	0x3d9c8282	0.0764208
207	0xbeac99d8	-0.33711123
208	0xbe9b275d	-0.3030347
209	0xbe13aea7	-0.14422093
210	0xbf12c091	-0.57325083
211	0xbe3f932e	-0.18708488
212	0x3d65f9f3	0.056146573
213	0x3e26547f	0.1624317
214	0x3e3528e6	0.17691383
215	0xbdbbb885	-0.09166054
216	0xbecc1aec	-0.3986429
217	0xbe142ba7	-0.14469777
218	0xbe580dc5	-0.21099003
219	0xbec45a11	-0.38349965
220	0x3e43eb29	0.19132675
221	0xbdcfeb0b	-0.10152253
222	0xbd6a37b1	-0.057182018
223	0x3d3cabfe	0.046062462
224	0x3e983778	0.2972982
225	0xbb7dbceb	-0.003871734
226	0xbec57bd0	-0.38571024
227	0xbe1f0a9e	-0.15531394
228	0x3ec24e94	0.37950575
229	0x3d03106f	0.031998094
230	0xbe5a8757	-0.2134069
231	0xbe5baa18	-0.21451604
232	0xbdfd0a82	-0.1235552
233	0x3d0f1637	0.034933295
234	0xbd0afcdb	-0.033932548
235	0x3d0fcf52	0.035109825
236	0x3e853ce5	0.2602302
237	0x3d8adb6b	0.06780132
238	0xbedf04a7	-0.43558237
239	0xbe3c6693	-0.18398504
240	0xbe00d87d	-0.12582584
241	0xbee6c713	-0.45073757
242	0x3d5574f8	0.052113503
243	0xbdb7a6f1	-0.089673884
244	0xbe488d34	-0.19585115
245	0xbe4d1af3	-0.20029812
246	0xbddb9737	-0.10722201
247	0x3c93e958	0.018055603
248	0xbda9abe7	-0.08284741
249	0xbeae2c75	-0.34018293
250	0x3e50c086	0.20385942
251	0xbe70d742	-0.23519614
252	0x3d8bb693	0.06821933
253	0x3d9250d4	0.07144323
254	0x3e01d288	0.12677968
255	0x3de501d0	0.11181986

conv2.fc_attention.weight f4 [1, 65]
0	0x3e48e4fd	0.19618602
1	0xbd39f73e	-0.045401804
2	0x3e987822	0.29779154
3	0xbcf97876	-0.030452948
4	0xbe4e2ada	-0.20133534
5	0x3e05dc2f	0.13072275
6	0x3e0224cb	0.12709348
7	0xbe35ec39	-0.17765893
8	0xbd57c588	-0.052678615
9	0x3eb8d18d	0.36097375
10	0x3c192f93	0.0093497215
11	0xbd6bcf4d	-0.057570744
12	0x3d48ff27	0.049071457
13	0xbe301c73	-0.17198353
14	0xbde36bca	-0.111045435
15	0x3db7f0eb	0.08981498
16	0x3d870d37	0.065943174
17	0x3e2c2b03	0.16813283
18	0x3dc9ff7d	0.09863184
19	0xbe12fb9d	-0.14353795
20	0x3e271e61	0.16320182
21	0xbe509269	-0.20368351
22	0xbe37bcc1	-0.17943098
23	0xbdda23e5	-0.106513776
24	0xbe4fb0c0	-0.20282269
25	0x3f0b2a6b	0.543616
26	0xbd8128ca	-0.06306608
27	0xbd7e43f5	-0.062076528
28	0x3d8a066e	0.067395076
29	0x3ec97472	0.39346653
30	0xbe50f820	-0.20407152
31	0x3de38c29	0.11110718
32	0xbdcccbff	-0.09999847
33	0xbeec22d3	-0.4612032
34	0xbe3bdd0e	-0.18346044
35	0x3e9fd0f0	0.31214094
36	0x3e948b48	0.29012513
37	0xbd4f6684	-0.050634876
38	0x3e950ae3	0.29109868
39	0x3e8fdd08	0.2809832
40	0x3e1ad77c	0.15121263
41	0xbe9db9b6	-0.3080575
42	0x3d80c534	0.062876135
43	0x3c0b0805	0.008485799
44	0x3e6e531a	0.23273888
45	0xbe67c1fa	-0.2263259
46	0xbe36d61f	-0.17855118
47	0xbd3bce37	-0.04585096
48	0x3e055097	0.13019024
49	0x3e542233	0.20716171
50	0x3e1b55a6	0.15169391
51	0xbd0bc752	-0.034125634
52	0x3f0636fc	0.5242765
53	0xbd97f938	-0.074205816
54	0x3e059470	0.13044906
55	0x3d923093	0.07138171
56	0x3d66b1a9	0.056321774
57	0x3dbbc209	0.09167869
58	0xbd959068	-0.07302934
59	0xbe1608a7	-0.14651738
60	0x3e3fb0e2	0.18719819
61	0x3c372106	0.011177307
62	0x3de6bdd0	0.112666726
63	0xbebb8b25	-0.36629596
64	0xbf45dc33	-0.7728912

conv1_ext.fc.weight f4 [16, 48]
0	0xbf8f5b7d	-1.1199795
1	0xbf02dd44	-0.51118875
2	0x3ec8d744	0.39226735
3	0x3f6336e1	0.88755614
4	0x3eb8e0fd	0.36109152
5	0xbed671a3	-0.41883573
6	0xbe14977a	-0.14510909
7	0x3eeadb06	0.45870227
8	0xbf1e2985	-0.61782104
9	0x3cae5f88	0.021285787
10	0x3e5692d9	0.20954455
11	0xbecbbbb0	-0.39791632
12	0xbefd4973	-0.494701
13	0x3ed95c9c	0.42453468
14	0x3f0626bc	0.52402854
15	0x3cf4fee9	0.029906707
16	0x3f03c5bd	0.514736
17	0xbeee2029	-0.4650891
18	0x3e8212fd	0.25405112
19	0x3ceffe84	0.029296167
20	0xbe219cf9	-0.15782537
21	0xbce8234f	-0.028337149
22	0x3dfd38cb	0.12364348
23	0x3e43d9b7	0.1912602
24	0x3caedfa3	0.021346873
25	0xbe8eaebf	-0.27867696
26	0xbdc73a77	-0.09727948
27	0x3dab5a01	0.08366776
28	0xbcd78c9c	-0.026312165
29	0xbe1c853b	-0.15285198
30	0x3e4d03f5	0.2002104
31	0xbd9a6005	-0.075378455
32	0xbe3ea245	-0.18616588
33	0xbcf848cb	-0.030308148
34	0xbdaf84e0	-0.08570266
35	0x3ddc0284	0.10742667
36	0xbd92a16e	-0.071596965
37	0x3eafd6d4	0.34343588
38	0xbe0e258b	-0.13881509
39	0xbd4c6ba9	-0.04990736
40	0x3e8b50d2	0.27210099
41	0xbcf29870	-0.029613703
42	0x3e96553f	0.29361913
43	0xbd62cfef	-0.055374082
44	0x3c2d8c3e	0.010592518
45	0xbcbeaf57	-0.023276968
46	0x3e8cdfcc	0.27514493
47	0x3e77b5b0	0.24190402
48	0x3eaadce8	0.33371663
49	0x3e17fce1	0.1484256
50	0xbe0d5ec0	-0.13805676
51	0x3f1c0db1	0.6095839
52	0xbf85ef3d	-1.0463635
53	0x3e4b9e37	0.19884573
54	0x3dccbf71	0.09997452
55	0xbed5d0a5	-0.41760746
56	0x3f7b4693	0.9815456
57	0xbc229fb5	-0.009925772
58	0xbe834ef7	-0.25646183
59	0x3c97d4f1	0.018534156
60	0x3e8e837b	0.27834687
61	0xbec03e65	-0.37547603
62	0xbec96119	-0.39331892
63	0x3e89ac36	0.268892
64	0xbf106337	-0.5640139
65	0x3ea0d0b8	0.3140924
66	0xbdb1d7ee	-0.086837634
67	0xbf2c315f	-0.67262834
68	0x3e8504ac	0.25980127
69	0x3e30c912	0.17264202
70	0xbdd300dd	-0.10302899
71	0xbf19eeca	-0.6012999
72	0x3d258fbe	0.040420286
73	0x3d70dc44	0.05880381
74	0x3cd4f2da	0.025994707
75	0xbe22d0fc	-0.15900034
76	0xbcd82b79	-0.026387917
77	0x3e7ec3e2	0.24879411
78	0x3e41ce83	0.18926434
79	0xbe040d5f	-0.12895726
80	0x3cf6eafa	0.030141342
81	0x3e202ee7	0.15642892
82	0x3e8fa564	0.2805587
83	0x3c98dd3a	0.018660177
84	0xbd138962	-0.03601969
85	0x3ddc7c94	0.10765949
86	0x3eb2f7d9	0.34954718
87	0x3d5ca4ae	0.05386799
88	0x3d92d6db	0.07169887
89	0x3dbe44b5	0.092904486
90	0xbe080513	-0.13283186
91	0xbdc90d5d	-0.09817002
92	0x3cefa63a	0.029254068
93	0xbe5379a9	-0.20651878
94	0x3cbe84b4	0.023256637
95	0xbc32c8a4	-0.010912094
96	0xbda4f5a0	-0.08054662
97	0xbe14bffc	-0.14526361
98	0x3eba281d	0.3635873
99	0x3e5a6eef	0.2133138
100	0x3e082e0f	0.1329882
101	0x3d801bc8	0.06255299
102	0x3ed1b4a3	0.40958127
103	0x3e80bf13	0.25145778
104	0x3e7cd074	0.24688894
105	0xbecc6a16	-0.39924687
106	0x3e365b7c	0.17808336
107	0xbd5590fc	-0.05214022
108	0xbf95aa6e	-1.1692636
109	0x3d8f8c15	0.070091404
110	0xbdebd741	-0.11515666
111	0xbc8e565e	-0.017375167
112	0x3d2863ea	0.04111091
113	0xbe3d6723	-0.18496375
114	0x3e72d613	0.23714475
115	0x3dd4cc48	0.10390526
116	0xbdc3fdca	-0.09569891
117	0x3e9583c7	0.292021
118	0xbd8a0aae	-0.06740318
119	0x3e1ca18a	0.15295997
120	0x3cfe5c6c	0.03104993
121	0xbd943767	-0.0723713
122	0xbdc41103	-0.09573557
123	0x3e35ad0d	0.17741795
124	0x3e8ee270	0.27907133
125	0xbd9f65ad	-0.07783065
126	0x3d8b300d	0.06796274
127	0x3df62747	0.1201921
128	0xbe12c23b	-0.14331906
129	0xbe7f2e56	-0.2492002
130	0xbd924fc6	-0.07144122
131	0x3c2f1c86	0.010687953
132	0x3e25afb8	0.16180313
133	0xbb5c5635	-0.003362072
134	0x3a4c366e	0.0007790093
135	0x3d275602	0.040853508
136	0x3dd7865c	0.10523674
137	0x3e318a53	0.17337923
138	0x3ea35461	0.31900313
139	0x3dec50fc	0.11538884
140	0xbd9ca7cd	-0.07649193
141	0xbd691602	-0.056905754
142	0xbe0f77c9	-0.14010538
143	0xbcc85914	-0.024456538
144	0x3f45712d	0.7712582
145	0x3e4932ed	0.19648333
146	0x3dafe617	0.08588808
147	0x3eab0363	0.3340102
148	0xbeef81d7	-0.46778747
149	0x3e157a62	0.14597467
150	0xbb290d2f	-0.0025795212
151	0xbec12c34	-0.37729037
152	0x3efb3e1b	0.4907082
153	0x3e5cad4d	0.21550484
154	0x3ea91b00	0.33028412
155	0xbe3154ba	-0.17317477
156	0x3e4bcf51	0.19903304
157	0xbe9e739e	-0.30947584
158	0xbe820382	-0.253933
159	0x3f0b80bf	0.54493326
160	0xbe5d7946	-0.21628293
161	0x3f076679	0.52890736
162	0x3d65dc08	0.05611804
163	0x3f24d697	0.6438994
164	0x3e43aa90	0.19108033
165	0x3da61cb5	0.08110944
166	0x3e72abc3	0.23698334
167	0x3f2009f1	0.6251517
168	0xbdbac234	-0.091190726
169	0xbeb631b0	-0.35584784
170	0x3d36e008	0.044647247
171	0x3c811e17	0.015761418
172	0xbd36ae10	-0.044599593
173	0xbdee5231	-0.116367705
174	0xbdf27d79	-0.11840338
175	0x3bccefeb	0.0062541864
176	0x3caf02b1	0.021363588
177	0xbce72fbf	-0.02822101
178	0xbe3d3a3d	-0.18479247
179	0xbd522704	-0.05130674
180	0xbd8d611f	-0.0690329
181	0xbe054690	-0.13015199
182	0xbe38d336	-0.1804932
183	0x3b50a1e1	0.0031834769
184	0xbdc9a55b	-0.09845992
185	0x3e657cb4	0.22410852
186	0x3d839705	0.06425289
187	0xbdb5a6cd	-0.08869705
188	0x3c3730ab	0.011181037
189	0x3db40b71	0.08791245
190	0xbc8cdc6c	-0.01719495
191	0x3e06b7eb	0.13156097
192	0x3fa82a18	1.3137846
193	0x3dbbfb53	0.09178796
194	0x3dca8167	0.09887963
195	0xbf45e5dc	-0.7730386
196	0x3f240991	0.640771
197	0x3eefdea0	0.46849537
198	0x3db7a88c	0.08967695
199	0x3ee28435	0.4424149
200	0x3e18ef33	0.14934997
201	0x3f9691bc	1.1763225
202	0xbedf3a7c	-0.43599308
203	0x3ebdeae3	0.37093267
204	0x3d08df8c	0.033416316
205	0x3e658178	0.2241267
206	0xbef945f7	-0.4868619
207	0x3dbe639f	0.09296345
208	0xbf03b9e6	-0.51455534
209	0x3e59e69b	0.21279375
210	0xbe66c8c8	-0.2253753
211	0xbdc36092	-0.09539904
212	0x3e68005b	0.22656386
213	0x3eb35208	0.35023522
214	0xbec426b5	-0.3831078
215	0xbdd01fff	-0.10162353
216	0x3c95c3c5	0.018281827
217	0x3d5a30a3	0.05326904
218	0xbda392b8	-0.07986969
219	0xbd23622e	-0.039888553
220	0x3e66a702	0.22524646
221	0x3e0ddf69	0.13854755
222	0x3e83210c	0.2561115
223	0x3da56a17	0.08076876
224	0xbdfa09ee	-0.12208925
225	0x3d088b1a	0.033335783
226	0xbc1b923f	-0.009495317
227	0xbe5491db	-0.20758764
228	0x3d72b89b	0.059258085
229	0xbbd966bb	-0.006634561
230	0xbe6f4378	-0.23365581
231	0xbd288167	-0.041139033
232	0xbe9dd9df	-0.30830285
233	0x3e5c37d2	0.21505669
234	0x3e986a39	0.2976854
235	0xbbba7a31	-0.005690836
236	0x3e72005b	0.23632948
237	0xbe398e86	-0.18120775
238	0xbe21d59a	-0.15804139
239	0x3de807b2	0.11329593
240	0xbf894e25	-1.0726973
241	0xbf4d1917	-0.8011641
242	0xbea29e30	-0.31761312
243	0xbea417e7	-0.32049486
244	0xbf2f9dd2	-0.6860019
245	0x3b960a42	0.0045788595
246	0x3ebb62ca	0.36598808
247	0xbe92cd0d	-0.28672066
248	0x3c00e5b7	0.007867268
249	0xbe9387a7	-0.28814432
250	0x3e1cc616	0.15309939
251	0x3d7261ca	0.05917529
252	0x3f0f41dd	0.55959874
253	0x3ec345fa	0.38139325
254	0xbd2a5f87	-0.04159501
255	0xbe3f70d0	-0.18695378

conv1_ext.fc_attention.weight f4 [1, 33]
0	0x3ecf6c16	0.4051215
1	0xbe79f9ee	-0.24411747
2	0x3da02e7d	0.07821367
3	0xbdafbe17	-0.08581179
4	0xbd65d9a4	-0.05611576
5	0xbdbcc625	-0.092174806
6	0x3e8a7451	0.27041867
7	0xbdff8175	-0.12475864
8	0x3e102333	0.14075927
9	0x3de560c6	0.11200099
10	0xbe08d07f	-0.13360785
11	0xbccf9fee	-0.025344815
12	0x3e13c956	0.14432272
13	0x3dbd8b18	0.09255046
14	0xbe5b3562	-0.21407083
15	0x3e08bc17	0.13353
16	0xbc4d7eba	-0.012542421
17	0x3e179894	0.14804298
18	0xbbaf1556	-0.0053431196
19	0xbb480f4d	-0.0030526698
20	0x3dc53ae0	0.0963037
21	0xbe0b510c	-0.13605136
22	0xbce55ce4	-0.027998395
23	0xbb87c79a	-0.0041436674
24	0xbe0eeca2	-0.13957456
25	0x3da43b3f	0.08019113
26	0x3e8ac7d7	0.2710559
27	0xbe431bd4	-0.19053584
28	0xbcf0fe6b	-0.029418191
29	0x3d640b73	0.05567498
30	0xbdb55020	-0.08853173
31	0xbd9d1c67	-0.07671433
32	0x3e29adf7	0.16570269

conv2_ext.fc.weight f4 [32, 16]
0	0xbeace529	-0.33768585
1	0xbe665f35	-0.22497256
2	0xbc33f366	-0.010983324
3	0xbdcd3ae0	-0.10020995
4	0x3eab6f18	0.33483195
5	0xbd7050b9	-0.058670733
6	0x3cf1dd5b	0.029524496
7	0xbe84f0af	-0.25964877
8	0xbe6dc3eb	-0.23219268
9	0xbeda7b92	-0.42672402
10	0x3e4eda67	0.20200501
11	0x3e643948	0.22287476
12	0xbe305b24	-0.17222267
13	0xbe5b1b5a	-0.21397153
14	0x3e92f12b	0.28699622
15	0x3e4ea456	0.20179877
16	0x3ea63a7c	0.32466495
17	0x3e6c8dab	0.23100917
18	0xbd058bd4	-0.032604054
19	0x3ddfcd9b	0.10927888
20	0xbe8f2529	-0.27958038
21	0xbe7391ca	-0.23786083
22	0xbe21007f	-0.15722845
23	0x3eb3d636	0.35124367
24	0xbea4ccaf	-0.3218741
25	0x3d8b34e1	0.06797195
26	0x3deb12b7	0.11478179
27	0xbe503545	-0.2033282
28	0xbe26fa02	-0.16306308
29	0xbe44d0bd	-0.19220252
30	0x3e12b9ba	0.14328662
31	0x3b51b9be	0.003200158
32	0x3e24ebc0	0.16105556
33	0x3e1d8661	0.15383293
34	0x3c843c88	0.016142145
35	0xbe163316	-0.14667925
36	0xbe308b1a	-0.17240563
37	0xbde2d0e2	-0.110749975
38	0xbcbecedd	-0.023292
39	0x3d4bcbce	0.04975491
40	0xbe4781c3	-0.19483094
41	0xbe35d586	-0.17757234
42	0xbdfe8159	-0.12427015
43	0xbe520450	-0.20509458
44	0x3dfc5dca	0.12322576
45	0x3e62eac6	0.22159871
46	0xbd00507b	-0.031326752
47	0x3d8e322f	0.069431655
48	0x3e41bb26	0.18919048
49	0xbe8ba169	-0.27271584
50	0xbe99d98c	-0.30048788
51	0xbcc13875	-0.023586491
52	0xbdfbfa82	-0.1230364
53	0xbe08b9c0	-0.13352108
54	0x3e8b5692	0.27214485
55	0x3dacac76	0.08431332
56	0x3ea40d1a	0.32041246
57	0x3ea8c109	0.32959774
58	0xbe0bea6e	-0.13663647
59	0xbd834b50	-0.06410849
60	0x3e80c784	0.25152218
61	0xbd653c07	-0.05596545
62	0xbd97848e	-0.0739833
63	0xbe923a7e	-0.2856025
64	0x3e394d63	0.18095927
65	0x3cc20ddb	0.023688247
66	0x3d9c36d3	0.076276444
67	0xbea29a03	-0.31758127
68	0xbe7be74f	-0.24599956
69	0xbe015d5b	-0.12633269
70	0x3d9269c9	0.07149083
71	0x3e52220b	0.20520799
72	0x3d8b361b	0.06797429
73	0xbdd6f319	-0.10495586
74	0xbd3a9f32	-0.045561977
75	0xbe1607d9	-0.14651431
76	0x3dc2bf7c	0.09509179
77	0x3e4bf4b7	0.1991757
78	0xbe377f9c	-0.17919773
79	0xbdaece98	-0.085354984
80	0xbd58bfe2	-0.05291737
81	0xbe5cf4a9	-0.21577705
82	0x3d9c1567	0.0762127
83	0xbc4a7feb	-0.0123596
84	0x3ddc7347	0.10764175
85	0x3d2c0eb1	0.0420062
86	0x3e8f83b5	0.28030172
87	0xbe234385	-0.15943725
88	0xbe52915b	-0.20563261
89	0x3c2278bc	0.009916481
90	0x3d4798c9	0.04872969
91	0x3ebafb47	0.36519834
92	0xbedc743a	-0.43057424
93	0x3e6a249d	0.2286553
94	0x3e0c645d	0.1371016
95	0xbe5e92cd	-0.21735688
96	0xbe4115f4	-0.1885603
97	0x3dd60551	0.10450233
98	0x3cebd752	0.028789196
99	0xbe3ca1b7	-0.18421064
100	0x3ddc6de5	0.10763148
101	0xbd96a3ef	-0.073554866
102	0x3e9cbd2d	0.3061308
103	0xbd4af5d0	-0.04955083
104	0x3dff5330	0.12467039
105	0x3dc21057	0.09475773
106	0xbdb418e4	-0.0879381
107	0x3e1d4bad	0.153609
108	0xbeb890c9	-0.36047962
109	0x3e6e6f11	0.23284556
110	0xbd416e51	-0.047224347
111	0xbe0e8926	-0.13919505
112	0xbeee1772	-0.46502262
113	0xbd97e8cc	-0.07417449
114	0x3d4165e5	0.047216315
115	0x3e1aa96e	0.15103695
116	0xbf196057	-0.5991263
117	0xbe599dc9	-0.21251597
118	0x3c235569	0.009969094
119	0x3ea40991	0.3203855
120	0xbacebbf6	-0.001577257
121	0xba8c60aa	-0.001070996
122	0xbdb7443f	-0.08948564
123	0xbe2f0714	-0.17092544
124	0x3d9926c0	0.07478094
125	0xbe2cf037	-0.1688851
126	0xbab3d9ec	-0.0013721562
127	0x3d79fb18	0.061030477
128	0xbe7880c8	-0.24267876
129	0xbda1be96	-0.078976795
130	0x3d79474d	0.060859013
131	0xbe0e5004	-0.13897711
132	0x3dc8f78f	0.09812843
133	0xbd95cfdc	-0.07315037
134	0xbd8cb715	-0.068708576
135	0x3e9faa81	0.31184772
136	0xbef8fdba	-0.48631078
137	0x3b32b5f5	0.00272691
138	0x3e71dde4	0.23619801
139	0x3e2b2c1b	0.16716044
140	0x3e075e24	0.13219506
141	0xbd6007ed	-0.05469506
142	0xbe8884bb	-0.26663765
143	0x3e139026	0.14410457
144	0x3dc88b44	0.09792188
145	0x3cfb3349	0.030664103
146	0xbe18b1d1	-0.14911582
147	0xbd3f07b7	-0.046638217
148	0x3db38e7c	0.08767411
149	0x3e25fd1c	0.16209835
150	0xbd8d93b8	-0.06912941
151	0x3da049c9	0.078265734
152	0xbdce9510	-0.10087025
153	0x3e55d194	0.20880729
154	0x3e8d0cb0	0.27548742
155	0x3e6f1f38	0.23351753
156	0xbe6459d2	-0.22299889
157	0x3e0986d3	0.13430338
158	0xbdbfdacb	-0.09367903
159	0xbe1af642	-0.15133002
160	0x3cbf9426	0.023386072
161	0x3e1ea237	0.15491568
162	0xbdc091bf	-0.09402799
163	0xbe5e8c81	-0.21733285
164	0x3de82857	0.11335819
165	0x3d80e9d3	0.062945984
166	0x3e58afbd	0.21160789
167	0xbe62cd8e	-0.22148725
168	0x3c85a84d	0.016315604
169	0xbeb517e3	-0.35369787
170	0x3ed0ff9b	0.40820011
171	0x3d9bf490	0.07615006
172	0xbef2afd5	-0.47399774
173	0x3da92017	0.08258074
174	0xbd551a0d	-0.052026797
175	0xbe468cdf	-0.19389676
176	0xbd550933	-0.052010726
177	0xbcb0078f	-0.02148798
178	0x3e0f5557	0.13997398
179	0xbcc5ed5b	-0.024161031
180	0x3e0ea613	0.1393054
181	0xbe7b6e18	-0.24553716
182	0xbe80aafd	-0.25130454
183	0x3e242c73	0.16032581
184	0xbeb79a7f	-0.3586006
185	0xbe210a53	-0.15726595
186	0xbdf32ac2	-0.1187339
187	0xbf1cdf41	-0.6127816
188	0x3e3f71c4	0.18695742
189	0xbd8c780e	-0.06858836
190	0x3e4317cd	0.19052048
191	0x3e8ea9f6	0.27864045
192	0xbec2d1ba	-0.38050634
193	0xbec95a4c	-0.39326704
194	0x3d38c551	0.04511005
195	0x3e5ebc90	0.21751618
196	0x3e093b65	0.13401563
197	0xbdf48523	-0.11939456
198	0xbde08377	-0.10962575
199	0x3dc76f87	0.09738069
200	0x3dddd9c2	0.1083255
201	0xbe5b7881	-0.21432687
202	0x3e21193f	0.15732287
203	0x3e1d8170	0.15381408
204	0xbe171ea0	-0.14757776
205	0x3e94542f	0.28970477
206	0xbe9f1fa7	-0.31078836
207	0xbe37dcb3	-0.17955284
208	0x3e01cf48	0.12676728
209	0xbe042b67	-0.12907182
210	0x3de2e70f	0.11079227
211	0x3ddb39ad	0.1070436
212	0xbdf0052f	-0.11719739
213	0x3da244a4	0.079232484
214	0x3e5a3cdb	0.21312277
215	0xbeb0d87b	-0.34540161
216	0xbed87e3e	-0.42283815
217	0xbdd43234	-0.10361138
218	0x3e846d11	0.2586446
219	0xbe9667dd	-0.29376116
220	0xbe4c6e2e	-0.19963905
221	0xbd4757dc	-0.048667774
222	0xbef9ea27	-0.48811457
223	0x3db5576c	0.08854565
224	0x3e3d63fe	0.18495175
225	0xbe478ff1	-0.19488503
226	0xbeacf967	-0.3378403
227	0x3e02c886	0.12771806
228	0xbc6bf078	-0.014400594
229	0xbcd87734	-0.026424028
230	0x3d0dc68d	0.03461318
231	0x3e36bcd5	0.17845471
232	0x3e8e4bc0	0.27792168
233	0x3e4840e1	0.19556
234	0xbdf86140	-0.12127924
235	0xbd3a2de4	-0.04545392
236	0xbdabdc5d	-0.0839164
237	0xbdf764e0	-0.12079787
238	0xbe43c5c1	-0.19118406
239	0xbea2dc9f	-0.31808946
240	0xbe3e45d8	-0.18581331
241	0xbd1ebd27	-0.03875461
242	0xbe46d8c6	-0.1941863
243	0xbe94d88f	-0.2907147
244	0xbe27ebe9	-0.16398586
245	0xbd8c22f3	-0.068426035
246	0x3eb58faa	0.3546117
247	0xbe8c719a	-0.2743042
248	0x3e825d26	0.25461692
249	0x3e205ff1	0.15661599
250	0xbbae58e8	-0.005320657
251	0xbea486a1	-0.32133964
252	0x3e46aca8	0.194018
253	0x3e22af68	0.15887225
254	0xbe454a96	-0.19266734
255	0xbe5fabeb	-0.21842925

conv2_ext.fc_attention.weight f4 [1, 65]
0	0x3df26318	0.11835307
1	0xbe8e52fd	-0.2779769
2	0xbdfa3c3c	-0.1221852
3	0x3e3cabe2	0.18424943
4	0x3ec10438	0.3769853
5	0x3e5f4f19	0.21807517
6	0x3e569e93	0.20958929
7	0xbe20f487	-0.1571828
8	0x3e2e604e	0.17028925
9	0x3e1ebfdc	0.15502876
10	0xbd3c1ad0	-0.045924008
11	0xbe1d464e	-0.1535885
12	0x3c76bc5b	0.015059556
13	0x3dfabfb5	0.122435965
14	0xbd79cfa1	-0.060989026
15	0x3e9275af	0.2860541
16	0xbd6994db	-0.057026725
17	0xbe942b74	-0.28939402
18	0x3d931e97	0.07183569
19	0x3eaacb62	0.33358294
20	0x3e14963d	0.14510436
21	0x3eca5d4e	0.3952431
22	0xbe9d0329	-0.30666474
23	0x3e71bdb0	0.23607516
24	0xbe15b9d1	-0.14621665
25	0xbc4702fa	-0.012146706
26	0xbeef69da	-0.46760446
27	0xbd5d684a	-0.054054536
28	0x3e2c4d46	0.16826352
29	0x3c709e5f	0.014686196
30	0xbe162c4c	-0.14665335
31	0x3ce6832a	0.028138716
32	0x3d94eb63	0.07271459
33	0xbe34cd0f	-0.17656349
34	0x3e4b3159	0.19843043
35	0xbe69ebfc	-0.22843927
36	0x3d02721e	0.031847112
37	0x3e5e9c21	0.21739246
38	0x3e9cb107	0.3060381
39	0xbe6fa66a	-0.23403326
40	0x3d36c41b	0.044620614
41	0x3ddf5eaa	0.109067276
42	0x3eea23a4	0.45730317
43	0xbd99625d	-0.074894644
44	0x3d8a6d70	0.06759155
45	0x3dd96b2b	0.10616144
46	0xbe61cd2c	-0.22050923
47	0x3ea668df	0.32501885
48	0xbec7d554	-0.39029944
49	0xbcb98cee	-0.022650208
50	0xbd81ea99	-0.06343574
51	0xbeec13f7	-0.46108982
52	0x3e18e69b	0.14931719
53	0x3dad147f	0.08451175
54	0x3eb241f8	0.34815955
55	0xbe376a37	-0.17911611
56	0xbee2150c	-0.44156682
57	0x3da2da03	0.07951739
58	0xbd6ceedf	-0.057844993
59	0xbe7cc539	-0.2468461
60	0xbe5d36cf	-0.21602939
61	0xbe6a49a9	-0.22879662
62	0x3d9746dc	0.07386562
63	0x3ce9eb1f	0.028554497
64	0x3c9910d1	0.018684776

fc1.weight f4 [128, 64]
0	0xbe399cd9	-0.18126239
1	0x3e897547	0.26847288
2	0x3aa56da8	0.0012621181
3	0xbe7f1a61	-0.24912407
4	0x3d6dc03b	0.058044653
5	0x3dd68a74	0.104756266
6	0x3c82f0e7	0.015984012
7	0x3d899324	0.06717518
8	0x3c510ff8	0.012760155
9	0xbd630e87	-0.055433776
10	0x3db31852	0.08744873
11	0xbd9f1ce0	-0.07769179
12	0xbe38b740	-0.18038654
13	0x3ca1a45b	0.019731691
14	0xbe1791e9	-0.14801754
15	0x3c8d81d7	0.017273827
16	0xbdf94e55	-0.12173144
17	0x3dde4a0a	0.108539656
18	0xbd89d1e1	-0.06729484
19	0xbd3cd6d7	-0.046103325
20	0x3d8c5c06	0.068534896
21	0xbdba46e9	-0.09095556
22	0x3d5822ce	0.052767567
23	0x3eb83ce7	0.35983965
24	0x3e0e1611	0.13875605
25	0xbe846482	-0.2585793
26	0x3deb26c0	0.11482
27	0xbe254b84	-0.16142088
28	0x3c8fc6c8	0.017550841
29	0x3db10a93	0.08644595
30	0xba59fba7	-0.0008315392
31	0x3e5b08dc	0.21390098
32	0xbe0a2885	-0.1349202
33	0xbe5cbcd2	-0.21556404
34	0xbd26a9ae	-0.040689163
35	0xbe517387	-0.20454226
36	0x3c51c71b	0.012803818
37	0x3c83a86e	0.016071524
38	0x3e38d961	0.18051673
39	0x3e381e8c	0.17980403
40	0xbdde4c40	-0.10854387
41	0x3e323636	0.17403492
42	0x39813432	0.00024643686
43	0xbd55bf23	-0.052184235
44	0xbe265b50	-0.1624577
45	0xbde6da4d	-0.11272106
46	0xbdf5daeb	-0.12004646
47	0xbe04f0d3	-0.12982492
48	0x3ecfee68	0.40611577
49	0xbe25ec23	-0.1620336
50	0xbe80e595	-0.25175157
51	0x3d858057	0.065186195
52	0xbeb20797	-0.34771416
53	0xbd92efef	-0.0717467
54	0x3dbec991	0.093157895
55	0x3ca1185f	0.019664941
56	0xbe75ac37	-0.23991476
57	0xbe4987df	-0.19680737
58	0xbda47220	-0.0802958
59	0x3e95d021	0.29260352
60	0x3e3049d2	0.1721566
61	0x3c3a5093	0.011371749
62	0x3dc6be1f	0.097042315
63	0x3d5e8006	0.05432131
64	0xbe4abcdf	-0.19798611
65	0xbd9530d0	-0.07284701
66	0xbe0f7b81	-0.14011957
67	0x3cc1dffc	0.023666374
68	0xbcb25cda	-0.02177279
69	0xbda076e8	-0.078351796
70	0xbdc9f884	-0.09861854
71	0xbd19ac91	-0.037518088
72	0x3aa0627d	0.0012236383
73	0xbe5f3892	-0.21798924
74	0x3c3c2871	0.011484251
75	0x3c863512	0.016382728
76	0xbde783e4	-0.11304453
77	0xbde607f7	-0.11231988
78	0x3d64e211	0.055879656
79	0x3dd3169d	0.103070475
80	0xbde0d7b5	-0.10978643
81	0xbe3fe165	-0.18738325
82	0xbab3ca2b	-0.0013716867
83	0x3dae760d	0.0851861
84	0xbbae9dc4	-0.0053288657
85	0xbd6e60ac	-0.058197662
86	0xbcd2e64b	-0.025744578
87	0xbdc8b00d	-0.09799204
88	0xbe8d086c	-0.27545488
89	0xbd2095e4	-0.039205447
90	0x3dee8124	0.11645725
91	0x3d527d69	0.05138913
92	0xbd762605	-0.060094852
93	0x3d3fd574	0.046834424
94	0x3c34cdf3	0.01103543
95	0xbe1f205c	-0.15539688
96	0xbd27a6e6	-0.04093065
97	0xbcb25f2c	-0.021773897
98	0xbcd28d1a	-0.025702048
99	0x3db62390	0.08893502
100	0x3dfea2c0	0.12433386
101	0x3d6343e0	0.055484653
102	0x3d236e6f	0.03990024
103	0xbe39e7bb	-0.18154804
104	0xbdf7ea83	-0.121052764
105	0xbd9c534c	-0.07633075
106	0x3db4a845	0.08821157
107	0x3d2a1d80	0.04153204
108	0xbe17eb90	-0.14835954
109	0xbcd039bf	-0.02541816
110	0x3cc031af	0.023461191
111	0x3d169aae	0.036768608
112	0x3e676eda	0.2260088
113	0xbdf8eea6	-0.121548936
114	0xbda77bd8	-0.08177918
115	0x3d05d3b4	0.0326726
116	0xbe41766b	-0.18892829
117	0xbcedc095	-0.029022494
118	0x3cdf0a20	0.027226508
119	0x3cf1a804	0.029499061
120	0xbd09e910	-0.03366953
121	0x3e02d138	0.12775123
122	0xbb5653b9	-0.0032703711
123	0xbd819514	-0.063272625
124	0x3d4149c1	0.047189478
125	0xbdc1bc47	-0.09459739
126	0x3b127f25	0.0022353616
127	0xbc8f159a	-0.017466355
128	0xbbfbdbf6	-0.0076861335
129	0x3d951d31	0.072809584
130	0x3d1fa634	0.038976863
131	0x3a5ac40a	0.0008345252
132	0xbd1ff947	-0.03905609
133	0xbe1c6e2c	-0.15276402
134	0xbd37534c	-0.044757172
135	0x3d587eb9	0.052855227
136	0xbcd79c95	-0.026319781
137	0xbd942e0b	-0.072353445
138	0x3c113bd4	0.008864362
139	0xbdc457b3	-0.0958704
140	0xbdf0653a	-0.117380574
141	0xbd585ace	-0.052820973
142	0xbe21061f	-0.15724991
143	0x3d4da98d	0.050210524
144	0x3d7b29d4	0.061319187
145	0xbdf85ed9	-0.12127466
146	0x3da77652	0.08176865
147	0xbd1fce63	-0.039015185
148	0xbdfd398b	-0.12364491
149	0x3c7b747e	0.015347598
150	0x3c188519	0.009309077
151	0xbdc50aa6	-0.09621172
152	0xbd889434	-0.066688925
153	0xbdf7ff89	-0.12109286
154	0x3d03cb0b	0.03217606
155	0xbd73fa1b	-0.05956469
156	0xbe057ae5	-0.13035162
157	0xbdff1d78	-0.124567926
158	0xbde9f7c7	-0.11424213
159	0xbd685700	-0.056723595
160	0xbd936393	-0.07196727
161	0x3da6b3a6	0.08139734
162	0x3ceccf03	0.028907305
163	0xbe0388dd	-0.12845178
164	0x3d4815d6	0.04884895
165	0x3d3eab3b	0.046550017
166	0xbca82b00	-0.020528316
167	0x3d505f58	0.050872177
168	0xbd3a30d1	-0.04545671
169	0xbc4d252a	-0.012521068
170	0x3d3f72e3	0.046740424
171	0xbdb0a277	-0.08624738
172	0x3d984cc0	0.07436514
173	0x3cca8bf7	0.024724944
174	0xbd2b8d98	-0.04188308
175	0x3d33fceb	0.043942373
176	0xbdd08bcc	-0.10182914
177	0xbae4c4af	-0.0017453636
178	0xbdb4295b	-0.087969504
179	0xbdbbd6a1	-0.091717966
180	0x3d10f868	0.03539315
181	0xbd346a67	-0.044046786
182	0xbe1214a6	-0.14265689
183	0x3c4a0d2f	0.012332245
184	0xbd50eef8	-0.05100915
185	0xbd1b3414	-0.037891462
186	0xbc686689	-0.014184603
187	0xbbb2d269	-0.0054572118
188	0xbdecfe02	-0.11571886
189	0x3ce7ff43	0.02831996
190	0x3d8b85d8	0.06812638
191	0x3db46efc	0.08810231
192	0xbe5be450	-0.21473813
193	0xbe8def68	-0.27721715
194	0xbdb32100	-0.087465286
195	0xbe2b52fd	-0.16730876
196	0x3dd5fda7	0.10448771
197	0x3d7c1510	0.061543524
198	0x3e5b447e	0.21412846
199	0xbcc31036	-0.02381144
200	0x3e031557	0.12801109
201	0xbe07845d	-0.13234086
202	0xbb909b11	-0.0044130166
203	0xbde3943a	-0.11112256
204	0x3d2aca5b	0.041696887
205	0xbf0012a0	-0.5002842
206	0xbede000e	-0.43359417
207	0x3de47791	0.11155618
208	0xbd409875	-0.047020394
209	0x3e04dde9	0.12975277
210	0xbd3c0ae3	-0.04590882
211	0x3b9474e2	0.004530535
212	0x3dcf0f78	0.10110372
213	0xbe54a213	-0.20764951
214	0x3e00aaa6	0.12565097
215	0x3c9049db	0.017613342
216	0xbe266a47	-0.16251479
217	0x3c089c08	0.008337982
218	0x3e5d5016	0.21612582
219	0xbd328a52	-0.043588944
220	0xbe257cb1	-0.16160847
221	0x3c3a1607	0.011357791
222	0x3d408054	0.046997383
223	0xbe8ff645	-0.28117576
224	0xbe11dfb3	-0.1424549
225	0xbdcd872b	-0.10035547
226	0x3e01ce3e	0.12676331
227	0x3c88e82e	0.016712274
228	0x3d84c36e	0.06482588
229	0xbdfdd3f9	-0.12393946
230	0x3dbf8577	0.09351628
231	0xbd23b832	-0.039970584
232	0xbd4fb6c9	-0.050711427
233	0x3d1b67f9	0.037940953
234	0x3d8174b7	0.0632109
235	0xbcc84ee9	-0.02445169
236	0xbe29576f	-0.1653726
237	0xbe175056	-0.1477674
238	0xbc76b3cd	-0.015057516
239	0x3d354b4f	0.044261273
240	0x3eaf1c71	0.34201387
241	0xbe55987e	-0.20858952
242	0xbe3c230e	-0.18372747
243	0xbd681ce4	-0.056668177
244	0xbea7193f	-0.3263645
245	0x3d988407	0.07447057
246	0xbd1ef157	-0.03880438
247	0xbc479d09	-0.012183436
248	0xbe27c284	-0.16382796
249	0x3ca87640	0.020564198
250	0xbd128bb5	-0.035777766
251	0x3d6b7890	0.057488024
252	0x3e432a8c	0.19059199
253	0xbb92c406	-0.004478934
254	0x3d5fca3c	0.054636225
255	0x3df07af3	0.11742201

fc1.bias f4 [128]
0	0xbc68a789	-0.0142001
1	0xbe5b0737	-0.21389471
2	0xbdfffc91	-0.12499345
3	0xbeab9bb0	-0.33517218
4	0xbc92b279	-0.017907368
5	0xbdc5b78a	-0.09654148
6	0xbe84cbca	-0.2593673
7	0xbd89a922	-0.06721713
8	0xbdb9e433	-0.09076729
9	0xbdef1b59	-0.11675138
10	0x3d8b8654	0.068127304
11	0xbe9541a8	-0.29151654
12	0x3d0b5b81	0.03402281
13	0xbea02633	-0.31279144
14	0xbd3469dd	-0.04404627
15	0x3dcb9a73	0.09941568
16	0xbe6b35ba	-0.22969714
17	0x3e199f5f	0.15002201
18	0x3b465e28	0.0030268524
19	0xbd8e8228	-0.06958419
20	0xbe34ed27	-0.17668591
21	0xbd6ed9a2	-0.05831302
22	0xbd5b899d	-0.053598035
23	0xbe2a3463	-0.16621546
24	0xbedafbcd	-0.42770234
25	0xbc62c743	-0.013841453
26	0xbd04210b	-0.032258075
27	0x3d8617a0	0.06547475
28	0x3dcbdb91	0.09953988
29	0xbeb10e60	-0.3458128
30	0xbce47b5b	-0.027890852
31	0xbda95811	-0.082687505
32	0x3c99dc6f	0.018781869
33	0xbbe65821	-0.0070295488
34	0x3d061168	0.032731444
35	0xbd6cd657	-0.057821598
36	0x3caf44ce	0.021395113
37	0xbdf9a170	-0.12188995
38	0xbd1fe8e2	-0.039040454
39	0x3e3ce013	0.18444853
40	0x3d5f94a9	0.054585133
41	0x3e035472	0.12825182
42	0x3cf28369	0.029603677
43	0x3d197d76	0.037473164
44	0x3d9934a4	0.074807435
45	0xbea7334a	-0.32656318
46	0xbd649178	-0.055802792
47	0x3e6e429d	0.23267598
48	0x3e782c69	0.24235691
49	0x3da14700	0.0787487
50	0xbdf2f4c7	-0.11863094
51	0x3c86b67b	0.016444435
52	0x3c356c45	0.011073177
53	0x3d4720e3	0.048615348
54	0xbb9d4a64	-0.004800128
55	0x3cbe6130	0.023239702
56	0xbd42742a	-0.047474064
57	0xbd5ca594	-0.053868845
58	0xbcafa60b	-0.02144148
59	0x3db3d6b6	0.08781187
60	0xbd6b2d25	-0.0574161
61	0x3db62ec2	0.08895637
62	0x398a50c8	0.00026381598
63	0xbd206b9f	-0.039165135
64	0xbcc999c5	-0.024609456
65	0x3c1314c1	0.008977116
66	0xbe183379	-0.14863385
67	0x3deb1e6f	0.11480414
68	0xbc477193	-0.012173074
69	0x3d47cfad	0.04878204
70	0x3d9652a7	0.073399834
71	0xbd22088f	-0.039558943
72	0xbddaef61	-0.10690189
73	0x3e1fe2fe	0.15613934
74	0x3dff2e3f	0.124599926
75	0xbeb7e4c0	-0.3591671
76	0xbd0c77ec	-0.034294054
77	0xbd97654e	-0.07392369
78	0x3e030e4f	0.12798427
79	0x3e114f56	0.1419042
80	0xbd9413e9	-0.0723036
81	0x3df97200	0.12179947
82	0xbc6f044c	-0.014588427
83	0xbd87fb58	-0.06639737
84	0x3d9e98f1	0.07744015
85	0x3d62640e	0.0552712
86	0xbd0f664c	-0.035009667
87	0xbd31d23f	-0.043413397
88	0xbdff749e	-0.12473415
89	0xbd0b240a	-0.033969916
90	0x3e80b828	0.251405
91	0xbe174ddc	-0.14775795
92	0x3e405d9b	0.18785708
93	0xbec3d0da	-0.3824528
94	0xbdaeadeb	-0.08529266
95	0xbd26aaaa	-0.0406901
96	0xbe8049df	-0.2505636
97	0xbbd28e3d	-0.0064256475
98	0x3e07e1ce	0.13269731
99	0x3e4fad7e	0.20281026
100	0xbc82dea7	-0.01597531
101	0xbda76416	-0.08173387
102	0xbd303c09	-0.043026004
103	0xbd977d36	-0.07396929
104	0xbebf1bdd	-0.37325945
105	0xbd36ea6e	-0.044657163
106	0x3d3bd80a	0.045860328
107	0xbe1514aa	-0.14558664
108	0xbd95ee8c	-0.0732089
109	0xbd9567e5	-0.07295207
110	0xbe1b7012	-0.1517947
111	0xbe17b5fd	-0.14815517
112	0xbdd3a9a5	-0.103350915
113	0xbd4e5aea	-0.05037967
114	0xbe092856	-0.13394293
115	0xbc11d322	-0.008900436
116	0xbdf8a676	-0.12141125
117	0x3dd2c908	0.1029225
118	0x3db8c9be	0.09022854
119	0xbd3105be	-0.043218367
120	0xbe8c39cc	-0.27387846
121	0x3c8a127f	0.016854523
122	0x3cca9dd2	0.024733458
123	0x3e26c0d4	0.16284496
124	0xbc8dcf5c	-0.01731079
125	0xbcf64a87	-0.030064834
126	0x3d8d1f84	0.06890777
127	0x3d9cfd95	0.076655544

fc2.weight f4 [1, 128]
0	0x3d42bc20	0.04754269
1	0xbd22f1ca	-0.03978137
2	0x3bae4f32	0.0053194994
3	0xbde0a157	-0.10968273
4	0x3d24d66d	0.040243555
5	0xbcf1c3ad	-0.02951225
6	0xbde4cb25	-0.11171559
7	0x3d979970	0.07402313
8	0xbe098320	-0.13428926
9	0xbc942238	-0.018082723
10	0xbddd8540	-0.10816431
11	0xbdbd41f7	-0.092410974
12	0x3c1651e7	0.0091748005
13	0xbd86e882	-0.06587316
14	0x3ebb4214	0.3657385
15	0xbd3d3e90	-0.046202242
16	0xbe113067	-0.1417862
17	0x3d7a05db	0.06104074
18	0x3d0eeb49	0.034892354
19	0x3b88c7eb	0.0041742227
20	0xbdacf99c	-0.08446047
21	0xbce25782	-0.027629618
22	0xbdc220fc	-0.094789475
23	0xbcab00dc	-0.020874433
24	0xbe66af67	-0.22527848
25	0x3d2e2ca8	0.042523056
26	0x3c90e380	0.017686605
27	0x3d4151cb	0.047197144
28	0x3d5a7990	0.053338587
29	0xbe33842f	-0.17530893
30	0x3d06ae5b	0.032881122
31	0x3bc98f95	0.0061511495
32	0xbe0c212b	-0.13684528
33	0xbe0cc839	-0.13748254
34	0x3d66367e	0.05620431
35	0x3c074211	0.008255498
36	0xbb93d062	-0.004510925
37	0x3cb088e6	0.021549653
38	0xbdea1fca	-0.114318445
39	0x3d874e8e	0.0660678
40	0x3d1c594e	0.038171105
41	0x3d678732	0.056525417
42	0x3d1e67e7	0.038673308
43	0xbdc84163	-0.097780965
44	0xbe1c0ee7	-0.1524006
45	0xbe10f507	-0.1415597
46	0x3d2ff1c7	0.042955186
47	0xbc10fa9a	-0.008848811
48	0xbc318ed1	-0.010837273
49	0xbe203a17	-0.1564716
50	0x3e2a8be9	0.16654934
51	0xbe0ca02d	-0.13732977
52	0x3c83d216	0.016091388
53	0xbd18390b	-0.037163775
54	0x3d59f771	0.053214494
55	0x3ecd0edb	0.40050396
56	0xbb4bd347	-0.0031101273
57	0x3d15ec62	0.036602385
58	0x39cfbcbd	0.00039622738
59	0x3d585161	0.052811984
60	0x3ec5dd32	0.3864532
61	0x3d578692	0.05261857
62	0x3cc4eb8e	0.024038102
63	0x3d2947ee	0.041328363
64	0xbdfc9d0c	-0.12334642
65	0x3d3d2b0e	0.04618364
66	0xbd550760	-0.052008986
67	0x3d48b6d0	0.04900247
68	0x3d3f3c36	0.04668828
69	0x3d350a92	0.044199534
70	0x3d306aa4	0.04307045
71	0x3d3fc09c	0.046814546
72	0xbd95cddc	-0.07314655
73	0xbd345222	-0.04402364
74	0x3e2d2c98	0.16911542
75	0xbdb79ca4	-0.08965424
76	0x3a88c42b	0.0010434439
77	0x3d356ba2	0.0442921
78	0xbe30504e	-0.17218134
79	0xbc8df029	-0.017326431
80	0xbbc6c481	-0.0060659056
81	0x3d5d6a9d	0.054056752
82	0x3d2a8d01	0.041638378
83	0x3d03e5e0	0.032201648
84	0x3d6ce5c2	0.0578363
85	0xbce294fd	-0.027658934
86	0x3d2976ee	0.041373186
87	0xbdfd7259	-0.12375326
88	0x3aa67665	0.0012700079
89	0x3ebdcd38	0.37070632
90	0xbc2a450e	-0.0103924405
91	0xb9daf575	-0.0004176308
92	0xbc2665b7	-0.010156087
93	0xbe811e0d	-0.2521824
94	0x3c4dd0a9	0.0125619555
95	0x3d331065	0.043716807
96	0xbd82599f	-0.0636475
97	0xbda30edb	-0.07961818
98	0xbc2f7b21	-0.010710509
99	0xbc1e43a2	-0.00965968
100	0x3d1a786b	0.037712496
101	0xbe10377e	-0.14083669
102	0x3d13bc90	0.0360685
103	0xbe3c6aba	-0.18400088
104	0xbe534f08	-0.20635617
105	0xbe39d0ce	-0.18146059
106	0x3d222cca	0.039593495
107	0xbd24bc86	-0.040218852
108	0x3d23d553	0.039998364
109	0xbcf099fb	-0.029370299
110	0xbd41ffb8	-0.047363013
111	0xbc0d81c6	-0.008636897
112	0x3bfcbc13	0.00771285
113	0xbbeaa7ad	-0.007161102
114	0xbd292b1a	-0.04130087
115	0x3d2b3826	0.041801594
116	0x3d12850b	0.03577141
117	0xbde896d6	-0.11356895
118	0xbe23c828	-0.15994322
119	0x3c2b1d60	0.010444015
120	0xbdecf0b4	-0.11569348
121	0xbdf1d5c8	-0.11808354
122	0x3dc9da6b	0.09856113
123	0xbdb19d7d	-0.08672617
124	0xbd63a1c5	-0.055574197
125	0x3d52383c	0.05132316
126	0x3d44a494	0.048008516
127	0xbe21b8a1	-0.15793087
