paper_pretrained_models/scoring_of_docking_models/all_models/fold2_treg_yfnat_b128_e20_lr0.001_15.pt (torch, 150943 bytes, 33 tensors)

conv1.fc.weight f4 [16, 48]
0	0x3e14b6ac	0.14522809
1	0x3f0027f5	0.5006097
2	0x3d49cd91	0.04926831
3	0xbdaa2fc6	-0.08309893
4	0x3ec5de82	0.38646322
5	0xbed64d37	-0.41855785
6	0xbe463c2a	-0.19358888
7	0x3e309bd6	0.17246947
8	0xbeedc216	-0.46437138
9	0xbf790247	-0.972691
10	0x3c9278ae	0.01787981
11	0x3f56748c	0.83771586
12	0x3e339f04	0.17541128
13	0xbdcfa102	-0.10138132
14	0x3e119a63	0.1421905
15	0x3e15184e	0.14560053
16	0xbbda8ffc	-0.0066699963
17	0xbe816bc9	-0.25277546
18	0x3f23f21d	0.6404131
19	0xbcc25fb5	-0.023727277
20	0xbe190ede	-0.14947078
21	0xbe19148f	-0.14949249
22	0x3ec6e357	0.38845322
23	0x3ca07e15	0.01959137
24	0x3c6976c1	0.014249505
25	0x3e0e77e7	0.13912927
26	0x3ccac810	0.0247536
27	0x3d99587c	0.0748758
28	0x3ea01eab	0.31273398
29	0x3eb8b627	0.3607647
30	0xbe9866e6	-0.29766005
31	0x3e711c5f	0.23545979
32	0x3e0f7f25	0.14013346
33	0x3e0e780b	0.1391298
34	0xbdb8306c	-0.08993611
35	0x3dbc6185	0.09198288
36	0x3eda1bb6	0.42599267
37	0xbe59bb78	-0.2126292
38	0xbe0bf9b6	-0.13669476
39	0x3eee9dae	0.46604675
40	0xbc297fbe	-0.0103453975
41	0xbe65ec97	-0.22453533
42	0xbd8d5e86	-0.069027945
43	0x3e277d17	0.16356312
44	0x3ee96c78	0.45590568
45	0x3e5971cd	0.21234818
46	0xbdec162f	-0.11527669
47	0x3d224549	0.039616857
48	0xbe67c864	-0.22635037
49	0xbfaf0da9	-1.3676044
50	0x3f107932	0.5643493
51	0xbf270972	-0.6524879
52	0xbea12b7d	-0.3147849
53	0x3ed14df4	0.40879786
54	0x3f8e1823	1.1101116
55	0xbf1eece7	-0.62080234
56	0x3f2b17a5	0.66832954
57	0x3f75b0c3	0.9597284
58	0x3f13ceb3	0.5773727
59	0x3f3b15cd	0.7308014
60	0xbf121100	-0.5705719
61	0x3db80f36	0.08987276
62	0x3ec94a60	0.39314556
63	0xbf9867e2	-1.1906703
64	0x3d64e550	0.055882752
65	0xbebd7e02	-0.370102
66	0x3eb5fea9	0.35545853
67	0x3f05cc90	0.5226526
68	0x3f22f73a	0.6365849
69	0xbca7bc3c	-0.0204755
70	0x3d7eb9b8	0.062188834
71	0x3ef41771	0.47674134
72	0x3cce5013	0.025184667
73	0xbe116139	-0.14197244
74	0xbe242b66	-0.1603218
75	0xbd71dec5	-0.05905034
76	0x3e894d4b	0.26816782
77	0x3dc44ace	0.0958458
78	0x3c326491	0.010888235
79	0x3e99a63e	0.30009645
80	0xbe05ac46	-0.13053998
81	0xbd8dc9a4	-0.069232255
82	0x3e7b6ebd	0.24553962
83	0xbec832c6	-0.39101237
84	0x3ea9176b	0.3302568
85	0x3c886c9b	0.01665335
86	0xbd8d44dc	-0.068978995
87	0x3dc1c00d	0.09460459
88	0x3d8a2f52	0.06747307
89	0x3e87c9c2	0.26521116
90	0xbdb3eee3	-0.087857984
91	0xbdac8d8b	-0.08425435
92	0x3ed4196c	0.41425645
93	0x3e430b1a	0.19047204
94	0xbe337081	-0.17523386
95	0x3dd660c1	0.10467673
96	0x3f9c72bc	1.2222514
97	0xbed9705e	-0.42468542
98	0x3e32af99	0.17449798
99	0xbed02e97	-0.40660545
100	0xbdfd3e59	-0.123654075
101	0xbebc7688	-0.36809182
102	0xbe89741a	-0.2684639
103	0xbcfa1ab9	-0.03053032
104	0xbfab815d	-1.3398854
105	0xbe7095cb	-0.23494641
106	0xbf0446a0	-0.51670265
107	0x3a14f640	0.0005682446
108	0x3f44cc5e	0.7687434
109	0x3fceb60b	1.6149305
110	0xbdfd5e9b	-0.1237156
111	0x3ed7dc49	0.42160252
112	0xbec3116a	-0.38099223
113	0xbe0bfc81	-0.13670541
114	0xbe892340	-0.26784706
115	0xbe5344de	-0.2063174
116	0x3e31ce83	0.17363934
117	0xbe51f5df	-0.20503949
118	0xbedd0c85	-0.43173614
119	0xbe99bebe	-0.30028337
120	0x3d6c6b96	0.05771979
121	0x3e8323e6	0.25613326
122	0xbde69f62	-0.112608686
123	0x3dbadcc1	0.09124137
124	0xbe59b25c	-0.21259445
125	0xbdcc73af	-0.099830024
126	0xbe773445	-0.24141033
127	0x3daed715	0.085371174
128	0x3e305400	0.17219543
129	0x3cb47ab4	0.022031166
130	0x3d6c0ab9	0.057627413
131	0xbe440450	-0.1914227
132	0x3d9f9f7b	0.0779409
133	0xbe348ab6	-0.17631039
134	0x3d0500a8	0.03247133
135	0xbd2bc139	-0.04193232
136	0x3d9d7be1	0.07689644
137	0xbdd01dbd	-0.10161922
138	0xbd85f421	-0.065407045
139	0xbe2528f3	-0.16128902
140	0x3d9e8e55	0.077419914
141	0x3d2bbb16	0.041926466
142	0xbe11b4d6	-0.1422914
143	0x3e2a7128	0.16644728
144	0xbf803e14	-1.0018945
145	0x3f0dc720	0.55381966
146	0x3eee86a4	0.46587098
147	0x3e45aa21	0.1930318
148	0xbfd3022e	-1.648504
149	0x3ea670f5	0.32508054
150	0x3fa8a754	1.3176064
151	0xbed3045e	-0.4121427
152	0xbf3b2992	-0.73110306
153	0x3e54b8d2	0.20773628
154	0xbf682eae	-0.9069623
155	0x3e705f91	0.23473956
156	0x3c376a98	0.0111948475
157	0xbe88c67b	-0.2671393
158	0x3f477928	0.77919245
159	0x3e1acd1c	0.15117306
160	0xbf7fb9e6	-0.99893034
161	0x3f64ef3c	0.8942754
162	0xbe9acefd	-0.30236045
163	0x3edad906	0.427437
164	0xbd2d2bcf	-0.042278107
165	0x3dc84cbe	0.097802624
166	0xbe4b8dca	-0.19878307
167	0x3f164381	0.5869675
168	0xbd90a5e1	-0.07062889
169	0xbdc88826	-0.09791593
170	0xbdb39514	-0.08768669
171	0x3ddb7c7d	0.10717104
172	0xbe32ca3b	-0.17459957
173	0xbd8fa904	-0.07014659
174	0xbe842187	-0.2580683
175	0xb7b826e0	-2.1952612e-05
176	0xbd3bfadf	-0.045893546
177	0x3dd17659	0.10227651
178	0xbdbd182e	-0.092331275
179	0x3cce7fbe	0.025207397
180	0xbca053e9	-0.019571261
181	0xbf16b5bf	-0.5887107
182	0x3ec0a0bc	0.3762263
183	0x3dbea866	0.09309463
184	0x3d990817	0.07472246
185	0xbd39b74f	-0.045340832
186	0x3dd5b7ff	0.10435485
187	0xbda177db	-0.07884189
188	0xbd0ff767	-0.03514805
189	0xbe731c81	-0.23741342
190	0xbbe275b7	-0.0069110054
191	0x3e012deb	0.12615173
192	0x3ef9a983	0.4876214
193	0xbf7486e6	-0.9551834
194	0xbec17d81	-0.37791064
195	0x3f603251	0.87576777
196	0xbe965c93	-0.29367504
197	0x3d35523a	0.04426787
198	0x3e7c69e7	0.24649774
199	0x3e8b6cc8	0.2723143
200	0xbe56cf00	-0.20977402
201	0x3e250ec1	0.1611891
202	0xbfc8d119	-1.5688812
203	0x3c6d3d2e	0.014479918
204	0xbf8ae63e	-1.0851514
205	0x3f85cbb1	1.0452787
206	0x3ff9b52c	1.9508414
207	0x3f1bfaef	0.6092977
208	0x3e82b7f4	0.2553097
209	0x3d3b47a1	0.045722608
210	0x3ed8eb34	0.42366946
211	0xbf5dc3f4	-0.86627126
212	0x3d0085bc	0.03137754
213	0xbea55e2a	-0.32298404
214	0x3ed92854	0.4241358
215	0xbf699590	-0.9124384
216	0xbd8fa1fc	-0.07013318
217	0x3e328266	0.17432556
218	0x3cf46a9b	0.02983599
219	0x3b084280	0.002079159
220	0xbcafb140	-0.021446824
221	0xbe3269f5	-0.17423232
222	0x3d73979b	0.059470754
223	0x3dba796b	0.0910519
224	0xbdbd3341	-0.092382915
225	0x3c61288b	0.013742576
226	0x3cdf3f7e	0.027251955
227	0x3d969b6f	0.07353865
228	0xbe514a4f	-0.20438503
229	0x3eadaeed	0.3392252
230	0x3e1b33ae	0.15156433
231	0xbe503c8f	-0.20335601
232	0x3e1f74ce	0.15571901
233	0x3eac49e4	0.33650124
234	0xbe8219dd	-0.25410357
235	0x3e1292f8	0.14313877
236	0x3e53ea38	0.20694816
237	0xbe0a7277	-0.13520227
238	0x3ca2f3c3	0.019891625
239	0x3d9daac6	0.07698588
240	0xbd9c2b68	-0.076254666
241	0xbeb37601	-0.35050967
242	0xbfaa9536	-1.3326786
243	0xbebb5ed6	-0.36595792
244	0x3f0bd9ff	0.5462951
245	0xbf4c08bf	-0.79700845
246	0xbf6a8ef9	-0.9162441
247	0x3f402bc4	0.7506678
248	0x3f7c20c3	0.9848749
249	0x3bf20d47	0.0073868367
250	0xbef2ff04	-0.47460186
251	0x3e98edee	0.29869026
252	0x3cc833b5	0.024438718
253	0xbf4aa3cf	-0.791562
254	0xbe3d95cb	-0.18514173
255	0x3ed91142	0.4239598

conv1.fc_attention.weight f4 [1, 33]
0	0x3de24a43	0.110493205
1	0xbdba2bf6	-0.09090416
2	0x3d9cb811	0.076522954
3	0x3d006586	0.03134682
4	0x3eaa8b53	0.3330942
5	0x3e702bc4	0.23454195
6	0x3dc39e31	0.09551657
7	0xbee1d09e	-0.44104475
8	0x3d982fc9	0.07430989
9	0xbe7e8c58	-0.24858224
10	0xbc0bc89b	-0.008531715
11	0xbd3eca1e	-0.046579473
12	0x3e8063b6	0.25076073
13	0xbd3da551	-0.046300236
14	0xbde7407b	-0.112915955
15	0xbe4989bb	-0.19681446
16	0xbd13ea3e	-0.036112063
17	0xbe2ee675	-0.170801
18	0x3d3fae23	0.04679693
19	0xbda78c3a	-0.08181043
20	0x3d5bcd8e	0.05366283
21	0x3dde49bb	0.10853907
22	0xbe0efd56	-0.13963827
23	0xbe1ad538	-0.15120399
24	0x3e5f01f0	0.21778083
25	0x3c7be1ea	0.015373686
26	0x3e16cae0	0.14725828
27	0x3d7c7870	0.061638296
28	0xbe57ed44	-0.21086603
29	0xbdb8232b	-0.08991083
30	0xbe202d34	-0.15642244
31	0xbe94563c	-0.28972042
32	0xbf021d0a	-0.5082556

conv2.fc.weight f4 [32, 16]
0	0xbebe4add	-0.3716649
1	0x3e2d5ed1	0.16930701
2	0xbe363a1d	-0.17795606
3	0xbdb04954	-0.08607736
4	0x3eb38f6a	0.35070354
5	0xbe851043	-0.2598897
6	0xbeecdae8	-0.46260762
7	0xbdbb47ee	-0.09144579
8	0xbe4ab799	-0.197966
9	0x3d437398	0.04771766
10	0xbe476c89	-0.19474997
11	0xbd68ebfe	-0.056865685
12	0x3e04c92e	0.12967369
13	0xbdcbd65b	-0.099529944
14	0x3e343d7f	0.17601584
15	0xbde6b144	-0.112642795
16	0x3ede771a	0.43450242
17	0xbeca6f02	-0.39537817
18	0xbe6da17c	-0.23206133
19	0x3d301d66	0.042996787
20	0xbf18e0b6	-0.5971788
21	0x3b57a02e	0.003290187
22	0x3eac6188	0.3366816
23	0x3e67ef65	0.22649916
24	0xbe03314e	-0.12811777
25	0x3ebf2da5	0.37339512
26	0x3e05f52b	0.13081805
27	0xbe4da8a7	-0.20083867
28	0xbf0bf697	-0.5467314
29	0xbf196e4c	-0.59933925
30	0xbec57f32	-0.38573605
31	0xbe242aae	-0.16031906
32	0xbe3defb5	-0.18548472
33	0x3dae5677	0.085125856
34	0x3df928d9	0.12165994
35	0xbebd84e3	-0.37015447
36	0xbde56458	-0.1120078
37	0x3d4e4323	0.050356995
38	0xbdbf2720	-0.093336344
39	0x3ecc9188	0.39954782
40	0xbd8ead3c	-0.069666356
41	0xbe240863	-0.16018824
42	0xbd64d18d	-0.055863906
43	0xbdc87716	-0.09788339
44	0x3e7a4812	0.24441555
45	0xbe948539	-0.2900789
46	0xbcee8efa	-0.02912091
47	0xbe8a0ff1	-0.26965287
48	0x3d5bf456	0.053699814
49	0xbeb5da1f	-0.35517976
50	0xbea56db3	-0.32310256
51	0xbe8feb05	-0.28108993
52	0xbd7c73a4	-0.06163372
53	0x3e33f67d	0.17574497
54	0xbf2bff2d	-0.6718624
55	0xbe276f70	-0.16351104
56	0x3dd68cf4	0.104761034
57	0x3db2c223	0.08728435
58	0x3e3cfdcc	0.18456191
59	0x3e057a7c	0.13035005
60	0x3d421aa9	0.047388706
61	0x3e69b713	0.22823744
62	0xbe8572ae	-0.26064056
63	0xbe8a4c46	-0.27011317
64	0xbd5f5629	-0.054525528
65	0xbf19833f	-0.5996589
66	0xbe912a23	-0.2835246
67	0x3da9590a	0.08268936
68	0xbeb40c79	-0.35165766
69	0x3e28c1c5	0.16480167
70	0x3da223d9	0.07916994
71	0x3e108816	0.14114413
72	0xbe825b7d	-0.25460425
73	0x3e14cfbf	0.14532374
74	0x3db5a5ea	0.08869536
75	0xbecf5d16	-0.40500706
76	0xbe0c418c	-0.13696879
77	0x3cf33ce5	0.029692123
78	0xbe6be5fe	-0.23036954
79	0x3e00d453	0.12580995
80	0x3d9029e4	0.0703924
81	0xbd5f85a6	-0.054570816
82	0xbe9a3924	-0.3012172
83	0xbe851617	-0.25993416
84	0x3d953a7b	0.07286545
85	0x3bec9896	0.007220338
86	0xbd955805	-0.07292179
87	0x3ded18bf	0.115769856
88	0x3cb81e35	0.022475341
89	0x3dc05134	0.09390488
90	0x3edf07d6	0.43560666
91	0x3d75a2c5	0.059969682
92	0xbd7e817b	-0.0621352
93	0xbe8913b5	-0.26772848
94	0x3e936c3a	0.28793508
95	0x3e565463	0.20930628
96	0xbeaf9a8c	-0.34297597
97	0xbd915f99	-0.07098312
98	0xbdbe0855	-0.09278933
99	0x3ebef7dc	0.37298477
100	0x3e5a675d	0.21328492
101	0x3e477739	0.19479074
102	0xbd9eab09	-0.07747466
103	0xbf18f3f6	-0.59747255
104	0xbd71c398	-0.059024423
105	0xbda2aa96	-0.07942693
106	0xbe88b1de	-0.26698202
107	0xbc164446	-0.009171551
108	0x3df6f383	0.12058165
109	0xbe3425c8	-0.17592537
110	0x3d17a58a	0.037023105
111	0xbd835717	-0.064130954
112	0xbd0c477a	-0.034247853
113	0x3eb38aaf	0.35066745
114	0x3e1114d8	0.14168108
115	0x3bd8500c	0.006601339
116	0xbe410bb8	-0.18852127
117	0xbe6e3a3b	-0.232644
118	0xbe314da8	-0.1731478
119	0xbead0912	-0.33795983
120	0xbdb1d2a3	-0.08682754
121	0x3e415568	0.18880236
122	0x3eeaf3b6	0.45889062
123	0xbeae528e	-0.3404736
124	0x3eb001b9	0.34376314
125	0x3d860663	0.06544187
126	0x3e004588	0.12526524
127	0xbe7f1492	-0.2491019
128	0xbee9db36	-0.45675057
129	0x3cc35fa8	0.023849323
130	0xbdad767f	-0.08469867
131	0x3e01fe06	0.12694559
132	0x3d1e0ba8	0.038585335
133	0x3e2e9da6	0.17052326
134	0xbe796dcd	-0.24358292
135	0xbf152657	-0.58261627
136	0xbe3a358f	-0.18184493
137	0x3e596666	0.21230468
138	0xbe7be4ef	-0.2459905
139	0x3dfb3057	0.122650795
140	0xbf233496	-0.63752115
141	0x3d896df1	0.06710423
142	0xbf58f24d	-0.8474472
143	0xbf0cfce6	-0.5507339
144	0xbe501d40	-0.20323658
145	0xbe91f21e	-0.28505033
146	0xbc9ccd2a	-0.019140799
147	0x3e6005f2	0.21877268
148	0xbe7285f4	-0.23683912
149	0x3d5d70ad	0.054062534
150	0xbea4819e	-0.3213014
151	0x3e0cb846	0.1374217
152	0xbe4ca278	-0.19983852
153	0xbea71b3f	-0.32637975
154	0x3f046f40	0.51732254
155	0xbe689f67	-0.22717057
156	0xbdb3082a	-0.087417915
157	0x3e82d1b4	0.25550616
158	0x3e238541	0.15968801
159	0xbe4982fc	-0.19678873
160	0x3e879ce6	0.26486892
161	0xbf1e6c29	-0.6188379
162	0xbeb23afc	-0.34810627
163	0xbe8370f3	-0.2567211
164	0xbeaf0b8e	-0.34188503
165	0xbe50d06b	-0.20392005
166	0x3c9193dc	0.0177707
167	0xbce34023	-0.027740544
168	0xbe6eda0c	-0.23325366
169	0x3eaa735c	0.33291137
170	0x3e93e7ca	0.2888778
171	0xbd4ad6d1	-0.04952127
172	0x3d582b32	0.05277557
173	0x3f06cd28	0.52656794
174	0xbe0be1a7	-0.13660298
175	0x3e351aa5	0.17685945
176	0x3ea0993f	0.31366917
177	0xbf1519d7	-0.58242553
178	0xbe6bbaef	-0.23020528
179	0xbd0cc620	-0.034368634
180	0xbe76f9b2	-0.24118689
181	0xbe2dcaae	-0.16971847
182	0x3ebb8882	0.36627585
183	0x3dade3f4	0.08490744
184	0xbdd24e6d	-0.10268865
185	0x3d761d65	0.060086627
186	0x3d9cd63d	0.0765805
187	0xbe8a6e71	-0.27037385
188	0xbe9f1828	-0.31073117
189	0xbe1eba7a	-0.15500823
190	0xbe8e83a2	-0.27834803
191	0xbe56ca56	-0.20975623
192	0x3e52d940	0.20590687
193	0xbb2903e0	-0.0025789663
194	0xbddad337	-0.10684817
195	0xbe29e654	-0.1659177
196	0xbe662778	-0.22475994
197	0x3eb12de9	0.3460534
198	0x3e9de4a8	0.30838513
199	0xbda7de66	-0.08196716
200	0xbe4f84f0	-0.20265555
201	0xbeaa4692	-0.33256966
202	0x3e6f5114	0.23370773
203	0xbe827789	-0.25481823
204	0xbd817e48	-0.06322914
205	0xbe298012	-0.16552761
206	0xbe858690	-0.26079226
207	0xbdd9b103	-0.106294654
208	0x3e01d1bd	0.12677665
209	0x3eef0161	0.4668074
210	0xbe6b9a2c	-0.2300803
211	0x3d6734ba	0.05644677
212	0xbeec3dee	-0.46141
213	0xbe5eebff	-0.21769713
214	0x3de7d336	0.11319582
215	0xbe8f7f1d	-0.28026667
216	0x3e1bce1a	0.1521534
217	0x3da1506c	0.078766674
218	0xbd550d2c	-0.052014515
219	0xbd6fc0d7	-0.058533516
220	0xbec6a277	-0.38795826
221	0x3e124312	0.14283398
222	0xbf269790	-0.65075016
223	0x3a871e76	0.0010308761
224	0xbd9f65bf	-0.077830784
225	0x3e108e1f	0.14116715
226	0x3daefd2a	0.08544381
227	0xbf02a1cd	-0.5102814
228	0xbf0c95c9	-0.54916054
229	0x3d005d36	0.031338893
230	0xbf34c48a	-0.70612395
231	0xbe423d18	-0.18968618
232	0xbe1217ca	-0.14266887
233	0xbe0e667a	-0.13906279
234	0xbcb3237e	-0.02186751
235	0xbbcfa656	-0.0063369675
236	0xbeebb056	-0.4603297
237	0x3ef56345	0.479273
238	0x3e3a1dc8	0.18175423
239	0x3d43773b	0.04772113
240	0xbdf08591	-0.11744226
241	0xbda14fab	-0.078765236
242	0x3c8e0a28	0.017338827
243	0xbe11d599	-0.14241637
244	0xbe99da99	-0.3004959
245	0x3d997b92	0.07494272
246	0xbeafafa1	-0.34313682
247	0x3d873f44	0.06603864
248	0x3ea59ff5	0.323486
249	0xbe565540	-0.20930958
250	0xbdb2a58b	-0.08722981
251	0x3c948713	0.018130815
252	0x3e5d4e52	0.21611908
253	0xbf06c70b	-0.52647465
254	0xbea116c6	-0.31462687
255	0xbd8b6442	-0.06806232

conv2.fc_attention.weight f4 [1, 65]
0	0xbe2030d9	-0.15643634
1	0x3e3d01bb	0.18457691
2	0xbd93cf9c	-0.07217333
3	0x3ed80610	0.42192125
4	0xbdbe8047	-0.09301811
5	0xbe78847b	-0.24269287
6	0xbe78e804	-0.24307257
7	0x3dea490c	0.11439714
8	0x3e5f8b77	0.21830545
9	0xbec2a3d6	-0.38015622
10	0x3e39b0ac	0.18133801
11	0xbe558a58	-0.20853555
12	0xbea597fb	-0.32342514
13	0x3dd39d9e	0.103327975
14	0x3ed028cd	0.4065613
15	0x3eaccaa6	0.33748358
16	0x3e8d9944	0.27655995
17	0x3e1b35ea	0.15157285
18	0x3e934945	0.28766838
19	0x3e7f82fb	0.24952309
20	0xbef64ae6	-0.48104018
21	0x3e42aa52	0.19010285
22	0x3b040fb3	0.002015096
23	0xbecc9861	-0.39960006
24	0xbe2f73a9	-0.17133965
25	0x3d21f8c1	0.03954387
26	0x3ea2f778	0.3182943
27	0xbe38400e	-0.17993185
28	0xbcba3976	-0.022732478
29	0xbeb48614	-0.35258543
30	0xbe03b0e8	-0.12860453
31	0xbcd67cbc	-0.026182525
32	0x3e9c0269	0.3047059
33	0xbe8b14f8	-0.27164435
34	0x3d54cde4	0.051954165
35	0xbddc9e96	-0.10772435
36	0xbdddc65e	-0.10828851
37	0xbe4e8735	-0.20168765
38	0x3d9532c6	0.07285075
39	0x3d7b8dfb	0.0614147
40	0x3e471c42	0.19444373
41	0xbe215ab6	-0.1575726
42	0xbe1ac516	-0.15114245
43	0xbe867592	-0.26261574
44	0xbea72fe8	-0.32653737
45	0x3e8cdba0	0.2751131
46	0x3d880f18	0.06643504
47	0x3e021f69	0.12707295
48	0x3cadf27f	0.021233795
49	0xbe9aacd8	-0.30209994
50	0x3b8de0f8	0.004329797
51	0x3f04e0c9	0.51905495
52	0x3e0b682c	0.13613957
53	0x3e3db18e	0.18524763
54	0xbdf9cc80	-0.121972084
55	0xbe97f3bc	-0.29678142
56	0xbdc49f5b	-0.09600707
57	0xbde0d0b8	-0.1097731
58	0x3cf87fd2	0.030334387
59	0xbe9199f7	-0.28437778
60	0xbcb6657e	-0.022265192
61	0x3dd35884	0.103196174
62	0xbe7680f2	-0.24072626
63	0xbe803c54	-0.25046027
64	0x3f191739	0.5980106

conv1_ext.fc.weight f4 [16, 48]
0	0x3dec866e	0.11549078
1	0x3d4ebf14	0.050475195
2	0x3f3bce04	0.7336123
3	0xbebf0f2d	-0.37316266
4	0xbf5a4ed7	-0.8527655
5	0x3f3da277	0.74076027
6	0xbf3e59b5	-0.7435563
7	0xbf1e8fb6	-0.61938035
8	0x3e6189c2	0.22025207
9	0xbe02b04c	-0.12762564
10	0x3d1f0e99	0.03883228
11	0x3f9f45c3	1.2443165
12	0xbef160ad	-0.4714407
13	0xbf0181d0	-0.50588703
14	0xbe3ba0b5	-0.18323024
15	0xbeccbd41	-0.3998814
16	0xbf687d11	-0.90815836
17	0x3f6540f9	0.89552265
18	0xbfd8c217	-1.6934232
19	0xbde469cc	-0.11152992
20	0xbce16cdd	-0.02751773
21	0xbdf59584	-0.119914085
22	0xbf253662	-0.64536107
23	0xbbc56110	-0.0060235336
24	0x3d8e01cb	0.06933936
25	0x3e176313	0.14783888
26	0x3e155a51	0.14585234
27	0x3e19d7aa	0.15023676
28	0x3e390868	0.18069613
29	0x3de114d1	0.109902985
30	0xbd4e178a	-0.050315417
31	0x3e7656c9	0.24056543
32	0x3edc6feb	0.43054137
33	0x3e5abae0	0.2136035
34	0x3e109716	0.14120135
35	0x3c9d6911	0.019215139
36	0x3e284293	0.16431646
37	0xbda11c38	-0.078667104
38	0x3ba648e8	0.005074609
39	0xbe7e4fa9	-0.24835075
40	0x3e882ab9	0.26595095
41	0x3e8536a5	0.26018253
42	0xbe424060	-0.1896987
43	0x3de3f65a	0.11130972
44	0xbdbc5602	-0.09196092
45	0x3ccdbaf0	0.025113553
46	0xbe83b2e3	-0.25722417
47	0xbe4811ea	-0.19538084
48	0x3d7f3b27	0.06231227
49	0xbf493064	-0.78589463
50	0xbe851804	-0.25994885
51	0xbeb8001b	-0.3593758
52	0x3ef9ed15	0.48813692
53	0xbe8febd3	-0.28109607
54	0x3e707fb8	0.23486221
55	0x3e7cb332	0.24677733
56	0x3e0492ac	0.12946576
57	0x3d4094f9	0.04701707
58	0x3ec2db95	0.38058153
59	0x3ed4932a	0.41518527
60	0x3db0a980	0.086260796
61	0xbe5c3f92	-0.21508625
62	0x3e49726a	0.19672552
63	0xbf13eaf4	-0.57780385
64	0xbf493479	-0.7859569
65	0xbee62847	-0.44952604
66	0xbe0e3304	-0.13886648
67	0xbd70b13f	-0.058762785
68	0x3d2188da	0.039437152
69	0xbcbee798	-0.023303792
70	0xbf297ae5	-0.6620315
71	0xbe51f9d6	-0.20505461
72	0x3da082b7	0.07837432
73	0x3e291840	0.16513157
74	0x3e41939c	0.18903965
75	0xbcd6da4e	-0.026227143
76	0x3d1c7242	0.038194902
77	0x3d791856	0.060814224
78	0xbd56c838	-0.052437037
79	0xbcc9e0bc	-0.024643295
80	0x3b74acb7	0.0037334391
81	0x3dd00841	0.10157824
82	0xbe8b06db	-0.27153668
83	0x3edb3bc2	0.4281903
84	0x3b60f74b	0.0034327086
85	0x3e86e702	0.2634812
86	0x3d4118fd	0.04714297
87	0xbe2edd04	-0.17076498
88	0x3dc0a2ef	0.09406077
89	0x3d9609e1	0.07326103
90	0x3dad9a37	0.0847668
91	0xbd9475f1	-0.07249058
92	0xbde422ff	-0.111394875
93	0x3d237195	0.039903242
94	0x3d53600d	0.051605273
95	0x3dee8cfd	0.11647985
96	0xbf2168a0	-0.6305027
97	0x3f5585b1	0.8340712
98	0xbefd13b7	-0.49429104
99	0x3f08c843	0.53430575
100	0x3e87ddab	0.26536307
101	0xbe4a346c	-0.1974656
102	0xbfc21a29	-1.5164233
103	0x3f72c526	0.94832075
104	0xbeb1eafa	-0.34749585
105	0x3eb6f61c	0.35734642
106	0xbef5ca17	-0.48005745
107	0xbf1d62af	-0.61478704
108	0x3f02ff10	0.51170444
109	0xbf0356e4	-0.5130446
110	0x3f525d44	0.8217356
111	0xbfa7b499	-1.3101989
112	0x3eb6e1ac	0.3571905
113	0x3edb0d72	0.42783695
114	0x3d931557	0.071818046
115	0x3f21cf52	0.6320697
116	0xbe386d23	-0.18010382
117	0xbcdd6f63	-0.027030652
118	0x3edb755f	0.42862985
119	0x3edad666	0.42741698
120	0x3ccd6707	0.025073541
121	0xbe335287	-0.1751195
122	0x3e08d31a	0.13361779
123	0xbd32555a	-0.04353843
124	0x3d7514a3	0.059834134
125	0x3e96ce4e	0.29454273
126	0xbe66c8f6	-0.22537598
127	0xbb3cc230	-0.0028802268
128	0xbceaf2ec	-0.028680287
129	0x3e494490	0.19655061
130	0xbd88469b	-0.06654092
131	0xbe642461	-0.22279502
132	0x3ed4f2e4	0.4159156
133	0x3dbb6c71	0.09151543
134	0xbe1b6ec2	-0.1517897
135	0x3e196852	0.14981201
136	0xbd05469e	-0.03253805
137	0x3ebe04b7	0.37112972
138	0x3e706364	0.23475415
139	0x3c4f708f	0.012661113
140	0x3c302cd4	0.010752875
141	0x3e10b672	0.14132097
142	0xbe189cc3	-0.1490355
143	0xbd1284a4	-0.035771027
144	0xbc68ccfd	-0.014209029
145	0x3f575f74	0.84130025
146	0x3e53cb9e	0.20683143
147	0x3dbce8cd	0.09224091
148	0x3f345b4f	0.70451826
149	0x3ce26db7	0.027640207
150	0x3e3bf54d	0.18355294
151	0xbe5ba399	-0.21449126
152	0xbe13696b	-0.14395683
153	0xbf2c2029	-0.6723657
154	0x3f21829e	0.6308993
155	0x3e0cd8f9	0.13754643
156	0x3da7903d	0.08181808
157	0xbf88bbc1	-1.0682298
158	0xbf876f5d	-1.058086
159	0x3ece8e48	0.40342927
160	0xbb40d739	-0.0029425158
161	0x3d028f54	0.03187497
162	0xbf176acb	-0.5914733
163	0xbe17be18	-0.14818609
164	0xbdc055f7	-0.093913965
165	0x3eed023a	0.4629076
166	0xbe1e62e9	-0.15467419
167	0xbd1be38d	-0.038058806
168	0xbd17f99f	-0.03710329
169	0xbe77d388	-0.24201787
170	0x3e31572e	0.17318413
171	0xbca8e93e	-0.020619031
172	0xbeaafc64	-0.33395684
173	0x3e511641	0.20418645
174	0x3d037fc6	0.032104276
175	0x3dfe6c82	0.1242304
176	0xbe088dae	-0.13335297
177	0x3e09979f	0.13436745
178	0x3d7a97db	0.061179977
179	0xbd66d0f8	-0.056351632
180	0x3bb5431d	0.005531682
181	0xbe2fa7f7	-0.17153917
182	0xbcfbbfb7	-0.030731065
183	0xbe5162fa	-0.20447913
184	0x3dc2bb0e	0.09508334
185	0xbe1d828c	-0.15381831
186	0x3e6b6f85	0.2299176
187	0xbb959695	-0.00456507
188	0xbe5916c6	-0.21200094
189	0x3e596df6	0.21233353
190	0xbd1d6a10	-0.038431227
191	0x3bad52dd	0.005289419
192	0x3dd8ca24	0.1058543
193	0x3f193292	0.5984279
194	0x3f12c021	0.57324415
195	0xbf9ec4bd	-1.240379
196	0xbead0a07	-0.33796713
197	0x3f7c20a2	0.98487294
198	0x3d48601e	0.04891979
199	0xbe8e0093	-0.27734813
200	0x3f1c1126	0.60963666
201	0xbee7c55f	-0.4526777
202	0xbe822aa8	-0.2542317
203	0x3ea0a1f4	0.3137356
204	0xbf078bbe	-0.52947605
205	0x3e8589e1	0.26081756
206	0x3eafe029	0.34350708
207	0x3f664236	0.8994478
208	0xbf5bde39	-0.8588596
209	0x3eab9358	0.33510852
210	0x3f0f1017	0.55883926
211	0xbf658d26	-0.896685
212	0x3dd8e93a	0.105913594
213	0x3ebddd97	0.37083122
214	0xbcff201e	-0.031143244
215	0xbf39c37e	-0.7256392
216	0xbd94f3f3	-0.07273092
217	0xbe40c756	-0.1882604
218	0xbd990e3f	-0.0747342
219	0xbc462fc6	-0.012096351
220	0xbe66030c	-0.224621
221	0xbe146db5	-0.14494975
222	0xbcd7f403	-0.026361471
223	0x3a5dcf7b	0.0008461398
224	0x3e30a4c9	0.1725036
225	0xbceda1cf	-0.02900782
226	0xbe2450f5	-0.16046508
227	0xbd73ff74	-0.05956979
228	0x3ebe40de	0.37158865
229	0x3e8386f0	0.25688887
230	0x3cb34102	0.021881584
231	0xbd245ca1	-0.0401274
232	0x39ffa2b6	0.0004875862
233	0x3e071279	0.1319064
234	0xbd440098	-0.04785213
235	0x3d97a921	0.07405306
236	0x3e15c4c4	0.14625841
237	0xbda3e282	-0.08002187
238	0xbdd47161	-0.10373188
239	0x3e914514	0.28373015
240	0xbf8446af	-1.0334071
241	0xbec585a0	-0.3857851
242	0x3e8740c5	0.26416603
243	0xbe4a1980	-0.1973629
244	0x3f23b447	0.63946956
245	0x3d620ca1	0.055187825
246	0xbd81f420	-0.06345391
247	0xbf8fd88c	-1.123796
248	0xbf1f046c	-0.6211612
249	0x3e2eb093	0.17059545
250	0xbeab9f3d	-0.33519927
251	0xbe150b8b	-0.14555185
252	0xbd780993	-0.060556006
253	0xbef37028	-0.47546506
254	0xbe5e8a2b	-0.21732394
255	0x3ec73b74	0.38912547

conv1_ext.fc_attention.weight f4 [1, 33]
0	0xbecc408c	-0.39892995
1	0xbdea7daa	-0.1144975
2	0xbebfe8a7	-0.37482187
3	0x3ec3ee12	0.3826757
4	0x3de0de55	0.109799065
5	0xbdb789ed	-0.08961854
6	0x3ef05c74	0.46945536
7	0x3e6fb232	0.2340782
8	0x3d862d79	0.06551642
9	0xbe062066	-0.13098297
10	0xbecb6d94	-0.3973204
11	0xbcaecb7a	-0.02133726
12	0xbde1640a	-0.11005409
13	0xbdabbccd	-0.0838562
14	0xbe076d6d	-0.13225336
15	0xbd6d939d	-0.058002103
16	0x3d19a0c3	0.03750683
17	0x3da0304c	0.07821712
18	0xbe1abde8	-0.15111506
19	0x3dc85c5f	0.097832434
20	0x3d071c28	0.032985836
21	0xbd90af5c	-0.07064697
22	0xbda23d38	-0.07921833
23	0x3df06935	0.11738817
24	0xbd0ef491	-0.034901205
25	0x3de2f65c	0.110821456
26	0x3d49a463	0.049229037
27	0xbd58ec1b	-0.052959543
28	0x3dfb21ad	0.122622825
29	0xbd955edf	-0.07293486
30	0x3e23f291	0.160105
31	0x3c997dcd	0.018736744
32	0x3e8355fb	0.25651535

conv2_ext.fc.weight f4 [32, 16]
0	0x3dd9e007	0.10638433
1	0x3d57bd0c	0.052670524
2	0xbdb801c5	-0.089847125
3	0x3e32234e	0.1739628
4	0xbe88c5b8	-0.26713347
5	0x3bac799f	0.005263522
6	0xbd470829	-0.048591767
7	0x3dfab1e1	0.12240959
8	0xbf0ca621	-0.5494099
9	0xbd84263c	-0.06452605
10	0xbe945683	-0.28972253
11	0xbec03793	-0.375424
12	0xbe8c664b	-0.27421793
13	0xbe2a9c6e	-0.16661236
14	0xbf16bbdc	-0.588804
15	0x3e14b0dd	0.14520593
16	0xbd984d5d	-0.07436631
17	0x3cf3d6a9	0.029765444
18	0x3e2c8e7d	0.1685123
19	0x3ea562db	0.32301983
20	0xbe4daef7	-0.20086275
21	0xbc619bff	-0.0137701025
22	0xbe76e005	-0.24108894
23	0x3dcd30fd	0.100191094
24	0x3c7b8966	0.015352583
25	0x3e00df91	0.12585284
26	0xbe8a43fb	-0.2700499
27	0x3b5eb890	0.003398452
28	0xbe72208b	-0.23645227
29	0xbead9e61	-0.33909896
30	0xbe2abbf2	-0.16673258
31	0xbf297267	-0.6619019
32	0xbd82b5c8	-0.06382328
33	0xbeda2854	-0.42608893
34	0x3e62e78c	0.2215864
35	0x3d0e1b80	0.034694195
36	0xbcbf6c6a	-0.023367126
37	0x3d2c46eb	0.04205982
38	0x3e91a7f3	0.28448448
39	0xbc716b57	-0.0147350645
40	0x3e053a7c	0.13010591
41	0x3dad558c	0.084635824
42	0xbc9bb5bb	-0.019007554
43	0x3e8fe3aa	0.2810338
44	0xbe206f01	-0.15667345
45	0xbe865a07	-0.2624056
46	0xbe961bb1	-0.29318002
47	0x3d179eb1	0.037016574
48	0x3edb3613	0.42814693
49	0xbe61c095	-0.2204612
50	0x3e7e5296	0.24836192
51	0xbdfe69e6	-0.12422542
52	0x3e548f15	0.20757706
53	0x3e187790	0.1488936
54	0x3dc49c93	0.09600177
55	0x3dc8cdcf	0.0980488
56	0xbe83ca05	-0.25740066
57	0xbeab9c99	-0.33517912
58	0xbe869d4d	-0.26291886
59	0xbe8797e9	-0.26483086
60	0x3ee7aac0	0.4524746
61	0x3e722527	0.23646985
62	0xbedde55d	-0.43339053
63	0xbe10053c	-0.14064497
64	0xbe49a8ad	-0.19693251
65	0xbe4bba4f	-0.1989529
66	0xbea15a95	-0.3151442
67	0xbe856973	-0.26057014
68	0xbe8b4380	-0.27199936
69	0x3ead487a	0.33844358
70	0x3e5924f2	0.212055
71	0x3df6ae4a	0.12044962
72	0xbf3f2cc0	-0.7467766
73	0x3d9b601a	0.07586689
74	0x3bb9ebfc	0.0056738835
75	0x3d58d497	0.052937116
76	0x3e815a5a	0.25264245
77	0x3e0402bd	0.1289167
78	0xbeb0b734	-0.34514773
79	0xbe3594d7	-0.17732559
80	0xbe728976	-0.2368525
81	0x3e2b937e	0.16755483
82	0x3eb7e066	0.3591339
83	0xbe892470	-0.26785612
84	0x3ea405fa	0.3203581
85	0xbec2de9e	-0.38060468
86	0x3e0c5595	0.13704522
87	0x3e2f369d	0.17110677
88	0x3d9f56ef	0.07780253
89	0xbe0b4fcc	-0.13604659
90	0xbe7b0353	-0.24512987
91	0xbdc2c2c9	-0.095098086
92	0xbd2dc234	-0.042421535
93	0x3e1ba15c	0.15198272
94	0xbd0a97c6	-0.03383615
95	0xbed6dd3d	-0.41965666
96	0x3e8905c9	0.26762226
97	0x3ccaa4cc	0.024736784
98	0xbeef6b96	-0.4676177
99	0x3d0586d4	0.032599285
100	0xbf1d05ab	-0.61336774
101	0x3e49ad86	0.196951
102	0x3ea2648e	0.31717342
103	0xbdbd6890	-0.09248459
104	0x3dbb3196	0.09140317
105	0xbd314ead	-0.04328792
106	0xbe7981cc	-0.2436592
107	0xbe837d83	-0.25681695
108	0x3e056855	0.13028081
109	0xbed1b3a9	-0.40957382
110	0xbd914cfb	-0.07094761
111	0xbda363f3	-0.07978048
112	0xba2455fa	-0.0006268915
113	0x3d0ec056	0.034851395
114	0x3e21c51c	0.15797848
115	0xbdba2df5	-0.09090797
116	0x3cae8a5d	0.021306211
117	0xbedf2b8d	-0.43587914
118	0x3daee9b9	0.08540673
119	0xbd9a8bd6	-0.07546203
120	0xbe1d3bcc	-0.15354842
121	0x3e21b2ca	0.15790859
122	0x3ee94941	0.455637
123	0x3ec9ced8	0.39415622
124	0xbec40bbd	-0.38290206
125	0xbf0e453d	-0.555744
126	0xbdc9763d	-0.09837005
127	0xbd7cc246	-0.06170871
128	0x3e4c0832	0.19925001
129	0xbea983b1	-0.33108285
130	0xbee2311a	-0.44178087
131	0xbe12c326	-0.14332256
132	0x3ebc1016	0.36731023
133	0x3d9675f0	0.073467135
134	0xbee14665	-0.4399902
135	0xbcad2583	-0.021136051
136	0xbe07624d	-0.13221093
137	0x3df3720c	0.11886987
138	0x3e2f7e40	0.17138004
139	0x3e17c113	0.14819746
140	0x3e8b9d81	0.27268603
141	0x3c85aae7	0.016316844
142	0xbd47b2ad	-0.048754383
143	0xbd34f271	-0.044176523
144	0x3e92e00c	0.2868656
145	0x3e094f39	0.13409127
146	0xbf128b39	-0.57243687
147	0xbe2f8c1d	-0.17143293
148	0x3ea5ff8d	0.32421532
149	0xbc5727df	-0.013132065
150	0xbeb17a25	-0.346635
151	0xbcc29363	-0.02375192
152	0x3dfd5d52	0.12371315
153	0x3d988d2c	0.074488014
154	0x3dfba9f4	0.12288275
155	0xbd455d0c	-0.04818444
156	0xbe85eff2	-0.26159626
157	0xbd3f51df	-0.046708938
158	0xbf1a972a	-0.6038691
159	0xbe1ad253	-0.15119295
160	0xbe350bf2	-0.17680338
161	0x3e24ee2e	0.16106483
162	0xbe91d194	-0.28480208
163	0xbdb23918	-0.08702296
164	0xbee0967d	-0.43864813
165	0x3ddfb5ea	0.10923369
166	0x3d9708b1	0.07374705
167	0xbe53f770	-0.20699859
168	0xbe054074	-0.13012868
169	0x3eb72d5b	0.3577679
170	0xbe21eae7	-0.15812264
171	0xbdc28668	-0.09498292
172	0xbed2b1fa	-0.4115141
173	0x3ef110ec	0.47083223
174	0xbdc34d4b	-0.09536227
175	0xbd9a1261	-0.07523037
176	0xbdd5b88e	-0.10435592
177	0xbdd700ce	-0.104982
178	0x3e85c976	0.26130265
179	0x3dab81e4	0.08374384
180	0xbed09202	-0.40736395
181	0x3d2813d1	0.041034523
182	0xbef0008d	-0.4687542
183	0xbea13e43	-0.31492814
184	0xbe7f4492	-0.24928501
185	0x3e1a2912	0.1505473
186	0x3db424ee	0.08796106
187	0x3c60e93e	0.013727484
188	0xbe55e655	-0.20888646
189	0x3e0d4216	0.13794741
190	0xbeb583fd	-0.35452262
191	0x3e14c5af	0.14528535
192	0xbec35cbc	-0.38156688
193	0xbe1ebe81	-0.15502359
194	0xbd37e2fd	-0.044894207
195	0x3cb6b21f	0.022301732
196	0x3e8ac3e3	0.27102575
197	0x3e83a064	0.25708306
198	0xbdfa1188	-0.12210375
199	0xbd08b0ce	-0.03337174
200	0x3d757d89	0.059934173
201	0xbdc986bf	-0.09840154
202	0xbe3ce8fc	-0.18448251
203	0x3cdbd39d	0.026834304
204	0x3e5fc894	0.21853858
205	0x3d717140	0.058945894
206	0xbf3d0ca9	-0.7384744
207	0xbbdc183d	-0.0067167566
208	0xbe88ca9f	-0.26717088
209	0x3e34cc99	0.17656173
210	0xbd98964c	-0.07450542
211	0x3c839076	0.016060095
212	0xbea05e14	-0.31321776
213	0xbd87a36b	-0.066229664
214	0xbdb4841b	-0.088142596
215	0x3dd42d84	0.10360244
216	0xbd2ab600	-0.041677475
217	0xbedfd436	-0.43716592
218	0x3d34ae96	0.04411181
219	0xbe8cf0b8	-0.27527404
220	0xbe7db088	-0.24774373
221	0xbea561d2	-0.32301193
222	0xbdc2361c	-0.09482977
223	0x3e819eeb	0.25316557
224	0xbe8c50e5	-0.27405468
225	0x3cce41f3	0.025177931
226	0xbe7fb589	-0.24971594
227	0x3c39576c	0.011312347
228	0xbdc840bf	-0.09777974
229	0x3e87bb88	0.26510262
230	0x3bee3a79	0.007270154
231	0xbefe43c6	-0.49661082
232	0xbe0806cf	-0.13283847
233	0x3dc6ac64	0.0970085
234	0xbf4dfecd	-0.8046692
235	0xbc7f1fe8	-0.015571572
236	0x3e3359b4	0.17514688
237	0xbe63b759	-0.2223791
238	0x3e0dfb42	0.13865378
239	0x3de9dadb	0.114186965
240	0xbeeca12e	-0.4621672
241	0x3d074ca0	0.03303206
242	0x3e605197	0.21906124
243	0xbb01456a	-0.0019725212
244	0x3eaf980d	0.34295693
245	0xbf0b291c	-0.543596
246	0x3db2c691	0.0872928
247	0xbeb3ffee	-0.35156196
248	0x3e362069	0.17785801
249	0xbd79298c	-0.060830638
250	0xbec2b787	-0.38030645
251	0x3d7b426d	0.061342645
252	0xbc001936	-0.007818511
253	0xbef3233e	-0.47487825
254	0xbdda814a	-0.10669191
255	0xbdbc014b	-0.09179934

conv2_ext.fc_attention.weight f4 [1, 65]
0	0x3da87594	0.08225551
1	0x3e1a0e7e	0.15044591
2	0xbc9a20fe	-0.01881456
3	0x3ea01d6b	0.31272444
4	0x3dfa3402	0.12216951
5	0x3d83c6e5	0.064344205
6	0x3c3beb40	0.011469662
7	0x3d290bad	0.0412709
8	0xbda93ca2	-0.08263518
9	0x3d8c003e	0.06835984
10	0xbebf5a1b	-0.37373433
11	0xbe8d8435	-0.27639928
12	0x3d05b9fa	0.032648064
13	0x3eb42343	0.35183153
14	0x3ce94554	0.028475441
15	0x3e883046	0.2659933
16	0x3e40acb8	0.18815887
17	0x3c171cec	0.009223204
18	0xbd7ecd15	-0.0622073
19	0xbef8fda1	-0.48631003
20	0xbb934621	-0.004494444
21	0x3f11bc93	0.56928366
22	0xbebf2f4d	-0.37340775
23	0xbe2464c4	-0.16054064
24	0xbeae880f	-0.3408818
25	0x3dc68b5d	0.0969455
26	0x3e275fb7	0.16345106
27	0x3ec29dd0	0.38011026
28	0x3e0d660a	0.13808456
29	0xbcb4b3db	-0.022058418
30	0xbe25793d	-0.1615953
31	0x3e538dcf	0.20659564
32	0xbde84627	-0.113415055
33	0xbe818112	-0.25293785
34	0xbdea4cfe	-0.11440466
35	0xbedb1d78	-0.4279592
36	0x3e1eb2e1	0.15497924
37	0xbecbc5c4	-0.3979932
38	0x3e286769	0.16445698
39	0xbeca6d8c	-0.39536703
40	0x3cc695a6	0.02424128
41	0x3e1dacce	0.15397951
42	0x3f641a52	0.8910266
43	0x3e831fd7	0.2561023
44	0x3e5fb07e	0.2184467
45	0xbda72936	-0.08162157
46	0x3ec51596	0.3849303
47	0xbf14e8c8	-0.58167696
48	0xbea9175f	-0.33025643
49	0xbd89afa5	-0.06722955
50	0xbd6229d3	-0.055215668
51	0xbe8bca29	-0.27302673
52	0x3ed8fe97	0.42381737
53	0xbe24a381	-0.16077997
54	0x3f01552b	0.5052058
55	0x3f19d005	0.6008304
56	0xbe0a86b7	-0.13527952
57	0xbe164738	-0.14675605
58	0xbf15c407	-0.5850224
59	0x3cdddf1a	0.027083922
60	0x3ea6851e	0.32523435
61	0xbe4132f0	-0.18867087
62	0xbe9a30e3	-0.30115423
63	0xbe195a5b	-0.14975874
64	0xbefbfc6e	-0.49216026

fc1.weight f4 [128, 64]
0	0xbd5af152	-0.053452797
1	0xbe42b147	-0.19012938
2	0xbe8738f8	-0.2641065
3	0xbe3685ff	-0.17824553
4	0xbcaa5c16	-0.020795863
5	0xbbdcbfdf	-0.00673674
6	0x3c2ac2e4	0.010422442
7	0xbdd22170	-0.10260284
8	0x3e9f2349	0.31081608
9	0xbd2af491	-0.041737143
10	0xbdb9fede	-0.09081815
11	0xbdfede9a	-0.12444802
12	0xbe1a2b21	-0.15055515
13	0xbc1419b8	-0.009039335
14	0xbf1a7bf4	-0.6034539
15	0xbe7a1c87	-0.24424945
16	0xbe0142a8	-0.12623084
17	0xbe01a42e	-0.12660286
18	0xbe781106	-0.24225244
19	0xbdfdcb1b	-0.12392255
20	0xbdf05f7e	-0.11736964
21	0xbe8b9678	-0.27263236
22	0xbc5e1a22	-0.013556035
23	0x3dfa4980	0.1222105
24	0xbec00f74	-0.3751179
25	0xbe51a39c	-0.20472568
26	0xbe05dfd3	-0.13073663
27	0x3cab2e21	0.02089602
28	0x3de1e6e4	0.11030367
29	0x3e281f65	0.16418226
30	0xbe525350	-0.20539594
31	0x3d91be64	0.07116392
32	0xbe377213	-0.1791461
33	0xbc01d065	-0.00792322
34	0xbdfa7b43	-0.122305416
35	0x3e2e7cc7	0.17039786
36	0xbe625ec4	-0.22106463
37	0xbc465f29	-0.012107649
38	0x3e069997	0.13144527
39	0x3d79bb95	0.060969908
40	0xbe8b97cd	-0.27264252
41	0xbdcac2cd	-0.099004366
42	0xbe11005c	-0.14160293
43	0x3ea3909a	0.3194626
44	0x3d252c26	0.040325306
45	0xbeb553a6	-0.3541538
46	0xbd813440	-0.06308794
47	0x3e54f3b1	0.20796086
48	0xbe160e05	-0.14653786
49	0xbe10df09	-0.14147581
50	0xbc3d4d9f	-0.011554151
51	0xbe90194b	-0.28144297
52	0xbd1abe27	-0.037779
53	0x3c8ab373	0.016931271
54	0x3e276415	0.16346772
55	0x3e4feddb	0.20305578
56	0xbd81377d	-0.06309412
57	0xbe3234a0	-0.17402887
58	0xbd8e00b3	-0.06933727
59	0x3e83b780	0.25725937
60	0x3e5b7f86	0.21435365
61	0xbdf32706	-0.118726775
62	0xbe84b988	-0.259228
63	0x3e0b5a42	0.1360865
64	0x3cec7130	0.028862566
65	0xbe0b553b	-0.13606732
66	0x3d67bf8d	0.05657916
67	0xbe8f2b08	-0.27962518
68	0x3db3d68b	0.08781155
69	0x3cc87c47	0.024473323
70	0xbe5c5f63	-0.21520762
71	0xbe85727a	-0.260639
72	0xbd10dda3	-0.03536762
73	0xbeee516d	-0.46546498
74	0x3e984618	0.29740977
75	0xbeb515de	-0.35368246
76	0xbd712a8b	-0.058878463
77	0xbd6506cd	-0.05591469
78	0x3d566d44	0.052350298
79	0xbcfbbc1c	-0.030729346
80	0x3ced2164	0.028946586
81	0xbe5a623a	-0.21326533
82	0x3e963ac9	0.29341725
83	0xbe2c7aff	-0.16843794
84	0x3d324a6b	0.043528
85	0xbe83d544	-0.25748646
86	0x3e81181f	0.25213715
87	0xbe86094f	-0.26178977
88	0xbd3cda6f	-0.046106752
89	0xbdf17835	-0.11790506
90	0x3deb77c2	0.11497451
91	0xbede90e2	-0.43469912
92	0xbe40fa97	-0.18845592
93	0x3dcc621b	0.0997965
94	0x3dc1171e	0.094282374
95	0x3e19faf2	0.15037134
96	0xbeff76d8	-0.49895358
97	0x3e724578	0.23659313
98	0xbdbb804b	-0.09155329
99	0xbf3d3af5	-0.73918086
100	0xbec2fec5	-0.38085
101	0x3e9ec7ba	0.31011754
102	0x3d60db3f	0.05489659
103	0xbd037a54	-0.032099083
104	0xbee5df32	-0.44896847
105	0x3d6e2ff1	0.05815119
106	0xbdd201d0	-0.10254252
107	0xbda04e22	-0.07827403
108	0x3cbd2b10	0.023091823
109	0xbde39e1d	-0.11114142
110	0xbeedce2d	-0.46446362
111	0x3d5f560b	0.054525416
112	0xbeb1ac48	-0.34701753
113	0x3cc9060a	0.024539012
114	0x3ed3a744	0.4133855
115	0xbdca377a	-0.098738626
116	0xbd321d9d	-0.043485273
117	0xbd4a9751	-0.049460713
118	0x3d6c87b7	0.057746615
119	0x3d726107	0.059174564
120	0x3e361f87	0.17785464
121	0x3e10c938	0.14139259
122	0xbe765471	-0.2405565
123	0x3e28388e	0.16427824
124	0x3c8ce41f	0.01719862
125	0xbe8393b6	-0.25698632
126	0xbd3d1bc0	-0.046169043
127	0x3d186624	0.037206784
128	0xbd04f747	-0.032462385
129	0x3e6ba0cc	0.23010558
130	0xbd48beec	-0.049010202
131	0xbe3ee6cf	-0.18642734
132	0xbe38a9a1	-0.18033458
133	0xbd3f58f1	-0.04671568
134	0x3dcc6d93	0.09981837
135	0xbe036509	-0.1283151
136	0xbeb8b731	-0.36077264
137	0xbec1cf80	-0.37853622
138	0xbd980044	-0.07421926
139	0xbf281b64	-0.65666795
140	0x3cf77ab8	0.030209884
141	0xbe0ab25b	-0.135446
142	0xbeaae073	-0.33374366
143	0x3e0edd88	0.13951695
144	0xbe30fd34	-0.1728409
145	0x3d0c088a	0.03418783
146	0xbc757ca3	-0.014983329
147	0x3da700a6	0.081544206
148	0x3de0757a	0.10959907
149	0x3d9582b0	0.07300317
150	0x3de5bc80	0.11217594
151	0xbd19734c	-0.03746347
152	0xbe573d69	-0.2101952
153	0xbda3fd7e	-0.08007334
154	0xbc7b778b	-0.0153483255
155	0xbd202004	-0.039093032
156	0xbe6ff2cc	-0.23432463
157	0x3d027c45	0.031856794
158	0xbecc10d5	-0.39856592
159	0x3e71ded9	0.23620166
160	0xbe85c9b8	-0.26130462
161	0xbcb342dd	-0.021882469
162	0xbe181ffa	-0.14855948
163	0xbd8c3889	-0.06846721
164	0xbb8fe88f	-0.004391737
165	0xbd527eb9	-0.051390383
166	0x3e2740f3	0.1633337
167	0xbe3867a5	-0.18008287
168	0x3e2509af	0.16116975
169	0xbd3f06f5	-0.046637494
170	0x3e0b711c	0.13617367
171	0xbedc67ee	-0.43048042
172	0xbd99f1a1	-0.0751679
173	0xbea44356	-0.32082623
174	0xbced6a2a	-0.028981287
175	0x3daf8ddc	0.085719794
176	0x3d0fc9fd	0.03510474
177	0xbedafd70	-0.42771482
178	0xbe12630e	-0.14295599
179	0x3de7f2b3	0.11325588
180	0xbdeaa386	-0.11456971
181	0xbe4c1868	-0.19931185
182	0x3d0fa744	0.035071626
183	0x3e7ddc3c	0.24791044
184	0xbeacb1b5	-0.3372933
185	0xbe0a8946	-0.13528928
186	0xbe3fdbb0	-0.18736148
187	0xbe2c195f	-0.16806553
188	0xbc3bfa94	-0.011473317
189	0xbe21a1fb	-0.15784447
190	0xbd079670	-0.033102453
191	0xbe1655df	-0.14681195
192	0xbea82c52	-0.32846314
193	0x3e7ca8fe	0.2467384
194	0x3dd41bb6	0.10356848
195	0xbe2028d1	-0.1564057
196	0xbd536b16	-0.051615797
197	0xbe916fe8	-0.2840569
198	0xbd3b4204	-0.045717254
199	0xbe0748aa	-0.13211313
200	0xbdca04d4	-0.09864202
201	0x3ebce9c7	0.36897108
202	0xbc90ad57	-0.01766078
203	0x3e6e28d3	0.2325776
204	0xbeb69fa0	-0.3566866
205	0xbf2a9359	-0.66631085
206	0x3c6aebfc	0.01433849
207	0x3da8fb42	0.082510486
208	0xbedbede8	-0.42954946
209	0x3e5edf3b	0.21764843
210	0x3e7db1ce	0.24774858
211	0xbd197184	-0.037461773
212	0xbe52e4d0	-0.20595098
213	0xbf535b3b	-0.8256108
214	0x3dd8d782	0.1058798
215	0x3e5fbd5c	0.21849579
216	0xbea9795e	-0.33100408
217	0xbe89b4e7	-0.2689583
218	0x3ddb3c13	0.107048176
219	0xbbd9730c	-0.006636029
220	0x3d348bc0	0.04407859
221	0x3e23a5af	0.15981172
222	0x3e2a0752	0.16604355
223	0x3d533f1e	0.051573865
224	0xbd78aaa5	-0.060709614
225	0x3e322d87	0.1740018
226	0xbe54211f	-0.2071576
227	0xbe160bc3	-0.14652924
228	0xbe53c667	-0.20681153
229	0x3c004391	0.007828609
230	0x3e407264	0.18793637
231	0xbe9181a0	-0.2841921
232	0xbca96b80	-0.020681143
233	0xbbe15113	-0.00687612
234	0x3d8033a1	0.062598474
235	0x3e572f32	0.21014097
236	0xbe59931a	-0.21247521
237	0x3e12789a	0.14303818
238	0xbe0a0c21	-0.1348119
239	0xbe2ea9fc	-0.17057031
240	0xbcec2995	-0.028828422
241	0xbbac5d47	-0.005260143
242	0x3c28aa16	0.010294458
243	0x3e07f29d	0.13276143
244	0x3e035a5e	0.12827441
245	0xbe501705	-0.20321281
246	0x3c5fb4dd	0.013653961
247	0x3daa4de7	0.0831564
248	0x3c513374	0.012768615
249	0xbdbe2856	-0.09285037
250	0x3de28d83	0.110621475
251	0xbd8fb6ef	-0.07017314
252	0x3de7d389	0.11319644
253	0x3c51a8f8	0.012796633
254	0x3e318dba	0.1733922
255	0xbe1b9ab8	-0.1519574

fc1.bias f4 [128]
0	0x3db3fc22	0.08788325
1	0x3dcf356d	0.10117612
2	0xbd6c210c	-0.057648703
3	0x3d24e68f	0.04025894
4	0xbdfe0f0c	-0.12405214
5	0xbe2e59dd	-0.17026468
6	0x3e174065	0.14770658
7	0x3d9cc42a	0.07654603
8	0xbc98e67c	-0.018664591
9	0xbe25cc37	-0.16191183
10	0x3e32759c	0.17427677
11	0xbe8355cc	-0.25651395
12	0x3e67efd0	0.22650075
13	0x3e38cdef	0.18047307
14	0xbd030db2	-0.031995483
15	0x3e456f11	0.1928065
16	0xbd10ee26	-0.035383366
17	0xbaae7f81	-0.0013313146
18	0xbe6e4f67	-0.23272477
19	0xbcd4b3a8	-0.025964573
20	0xbba20184	-0.0049440283
21	0x3d1aef50	0.037825882
22	0xbd86a6b4	-0.06574765
23	0xbe233ea1	-0.1594186
24	0xbe43bd54	-0.19115192
25	0xbdbb8adf	-0.09157347
26	0x3daa3832	0.083115
27	0x3cc80eb2	0.02442107
28	0xbd70c956	-0.05878576
29	0x3dbb4e4b	0.091457926
30	0x3c8b7c87	0.017027153
31	0x3d3ce9c5	0.046121377
32	0xbaae5838	-0.0013301438
33	0xbdfc8f66	-0.123320386
34	0xbd6ac7da	-0.0573195
35	0xbcf7a6f3	-0.030230975
36	0x3ce8f0a3	0.028435057
37	0xbd9973b0	-0.07492769
38	0xbc1f7bef	-0.009734138
39	0xbd35479f	-0.044257756
40	0xbeacd09d	-0.3375291
41	0xbe102615	-0.14077027
42	0x3d60e3af	0.054904636
43	0xbea69337	-0.3253419
44	0xbe0c6de4	-0.13713795
45	0xbcd76b7b	-0.026296368
46	0x3d593d08	0.05303672
47	0xbe04c654	-0.12966281
48	0xbd05183e	-0.032493822
49	0xbe1622c5	-0.14661701
50	0xbbee7d91	-0.0072781523
51	0xbd80c411	-0.06287397
52	0xbcea2fb6	-0.028587203
53	0xbdfe69df	-0.12422537
54	0xbdc8dbd8	-0.09807557
55	0xbe908529	-0.28226593
56	0x3e73ed1c	0.23820919
57	0x3d3deb14	0.046366766
58	0xbd83fcbf	-0.06444692
59	0xbe07b374	-0.1325205
60	0x3c559cfb	0.013037915
61	0x3df6a604	0.12043384
62	0xbd2e9613	-0.04262359
63	0xbc9dc7e6	-0.019260358
64	0x3ce118c6	0.027477633
65	0x3db92cae	0.09041725
66	0x3d4c40ed	0.049866606
67	0x3dfc0630	0.12305868
68	0xbd15bbfb	-0.036556225
69	0xbebe9c8e	-0.37228817
70	0xbd97090c	-0.073747724
71	0x3dbb618e	0.091494665
72	0xbd51ffdd	-0.0512694
73	0xbda17869	-0.078842945
74	0x3e3d55eb	0.18489806
75	0xbcbbe53f	-0.022936461
76	0xbd705f86	-0.05868485
77	0x3dfe1a06	0.12407307
78	0x3c0521d3	0.00812574
79	0x3d8bc362	0.06824376
80	0xbd51ba2a	-0.05120293
81	0x3dc02b76	0.093832895
82	0xbcb0440c	-0.021516822
83	0xbe804303	-0.25051126
84	0xbdadcf57	-0.084868126
85	0xbbf336a5	-0.0074222856
86	0x3d869345	0.06571058
87	0x3e115f2e	0.14196464
88	0x3dbc9021	0.09207178
89	0xbd94b1ed	-0.07260499
90	0xbe080c79	-0.13286008
91	0xbd5e884f	-0.054329213
92	0xbd901016	-0.07034318
93	0x3d4d43aa	0.050113358
94	0x3a1f0634	0.0006066293
95	0xbdbdcd90	-0.092677236
96	0xbe4b311b	-0.19842951
97	0xbd023bb8	-0.031795233
98	0x3e8363f1	0.25662187
99	0xbda9cd29	-0.08291084
100	0x3dec9b47	0.11553054
101	0x3d9ecb86	0.07753663
102	0xbe0139e7	-0.12619744
103	0xbe2fde16	-0.17174563
104	0xbd9b58e0	-0.07585311
105	0xbd859c6b	-0.06523975
106	0x3cca197b	0.024670353
107	0x3d964931	0.07338179
108	0x3d351427	0.044208672
109	0x3da9444b	0.08264979
110	0x3d221119	0.039567087
111	0xbd3b42d4	-0.04571803
112	0x3d24d5a5	0.04024281
113	0x3e505d88	0.2034818
114	0xbe0df5ef	-0.13863347
115	0xbe12f7f7	-0.14352404
116	0x3c063da4	0.008193407
117	0xbc98d4d0	-0.018656164
118	0xbd877f65	-0.066160955
119	0xbc8e5a94	-0.017377175
120	0xbdeee6bf	-0.11665105
121	0xbd587e1f	-0.052854653
122	0x3e0a056c	0.13478631
123	0xbdf81acf	-0.12114488
124	0xbcbf5b35	-0.02335892
125	0xbbee0c3f	-0.0072646434
126	0x3de0309b	0.10946771
127	0xbec75213	-0.38929805

fc2.weight f4 [1, 128]
0	0xbdc563de	-0.09638189
1	0x3daf337e	0.08554743
2	0xbe003300	-0.12519455
3	0x3d0e8d36	0.034802638
4	0xbd7a8c22	-0.061168797
5	0xbe457275	-0.19281943
6	0xbc55b519	-0.013043665
7	0xbe12c42f	-0.1433265
8	0x3d55c386	0.05218842
9	0x3cb5d598	0.022196576
10	0xbe026373	-0.1273325
11	0xbdcfa945	-0.101397075
12	0x3ec6dd26	0.38840598
13	0xbbcc8cb5	-0.0062423595
14	0xbdc28ba9	-0.09499294
15	0xbc60f294	-0.01372971
16	0xbc7dfa1c	-0.015501525
17	0xbe0f84f6	-0.14015564
18	0xbd9d45ca	-0.07679327
19	0x3d14602c	0.03622453
20	0x3d019371	0.03163475
21	0x3d06997a	0.03286121
22	0x3d72374a	0.05913476
23	0x3b86bce1	0.0041118716
24	0xbd96b288	-0.07358271
25	0x3c03866b	0.008027653
26	0x3d968a67	0.07350617
27	0x3d3c1b30	0.045924366
28	0x3d2d0af5	0.042246778
29	0x3e30c7a5	0.17263658
30	0xbe0cd382	-0.13752559
31	0x3d2515d4	0.04030402
32	0xbe53fa92	-0.20701054
33	0xbd31baa1	-0.043390874
34	0xbdf21879	-0.11821074
35	0x3e571a51	0.21006133
36	0xbe11284f	-0.14175533
37	0xbde09fa8	-0.10967952
38	0x3d09b58e	0.03362041
39	0x3b5c11ef	0.0033580025
40	0xbe13a93c	-0.14420027
41	0xbdf17220	-0.11789346
42	0x3d2384ce	0.039921574
43	0xbe351b63	-0.17686228
44	0xbc2f57b9	-0.010702067
45	0x3d3b39f5	0.04570957
46	0x3d2a1aa1	0.0415293
47	0xbbf433c3	-0.0074524595
48	0xbcea41ed	-0.028595889
49	0xbc9ed55b	-0.019388845
50	0x3d502427	0.050815728
51	0x3d348e6d	0.04408114
52	0x3d3a1591	0.045430724
53	0x3cb737f3	0.022365546
54	0x3d79b97c	0.060967907
55	0xbd97ae19	-0.07406253
56	0xbc274469	-0.010209181
57	0x3d0b1f00	0.03396511
58	0xbb60a58d	-0.0034278363
59	0x3e1f7fa2	0.15576032
60	0x3d186a51	0.037210766
61	0x3d8839f1	0.066516764
62	0x3d2ef729	0.04271618
63	0x3ba63c9d	0.0050731436
64	0x3d477b99	0.048701856
65	0x3e82f9b6	0.2558114
66	0xbc20a73b	-0.009805496
67	0xbd8e5c12	-0.06951155
68	0xbd978b7c	-0.073996514
69	0xbea534ca	-0.32266837
70	0xbcb1c4a8	-0.021700218
71	0xbe027efe	-0.12743756
72	0xbc98f632	-0.018672083
73	0x3d29ddfc	0.041471466
74	0xbbf77b47	-0.0075525376
75	0xbb0c0b04	-0.002136887
76	0x3bbdbd5c	0.0057903957
77	0x3d73f4ab	0.059559505
78	0x3d54f110	0.051987708
79	0x3d24cc2f	0.040233787
80	0xbca7e03c	-0.020492665
81	0xbc96bed3	-0.018401539
82	0x3d221819	0.039573763
83	0xbe36df7c	-0.1785869
84	0xbd36dc3c	-0.044643626
85	0xbc5319c9	-0.012884566
86	0x3d611dc7	0.05496004
87	0x3d661c5e	0.056179397
88	0x3dc5de02	0.09661485
89	0xbc90039b	-0.017579844
90	0xbcbea669	-0.02327271
91	0xbd88b04e	-0.066742525
92	0xbd83cc36	-0.064354345
93	0xbe1f25e9	-0.15541805
94	0xbe02398a	-0.12717262
95	0xbdf7af5a	-0.120939925
96	0xbe100488	-0.14064229
97	0x3d529e8f	0.051420745
98	0xbdeb0d91	-0.11477197
99	0xbbe524f5	-0.006992931
100	0x3cf2f267	0.029656602
101	0x3d3f0ebc	0.04664491
102	0xbc9197ab	-0.017772516
103	0x3baffaed	0.005370489
104	0x3c7a562c	0.015279334
105	0x3d1f0d70	0.038831174
106	0x3d2d4f4f	0.042311963
107	0x3d510446	0.051029466
108	0x3d21c068	0.039490134
109	0xbe1a008a	-0.15039268
110	0x3d172d2a	0.036908306
111	0xbd94d6b7	-0.07267516
112	0x3b80bfbf	0.003929108
113	0xbdff26f5	-0.12458602
114	0xbd249a89	-0.04018644
115	0xbda40269	-0.08008272
116	0x3d06ad93	0.032880377
117	0x3d258106	0.04040625
118	0x3cf5b2b2	0.029992435
119	0xbd82dc76	-0.06389706
120	0x3c3e1167	0.011600829
121	0x3dad1562	0.08451344
122	0xbe3aca65	-0.1824127
123	0xbd83f5dd	-0.06443379
124	0x3ecfc631	0.40580896
125	0x3d30bb4c	0.04314737
126	0xbdaa8623	-0.08326366
127	0xbe65579b	-0.223967
