paper_pretrained_models/scoring_of_docking_models/all_models/fold8_treg_yfnat_b128_e20_lr0.001_2.pt (torch, 150943 bytes, 33 tensors)

conv1.fc.weight f4 [16, 48]
-0.20146611 0.012844663 -0.77693754 -0.29885274 -0.5046326 0.16626069 0.114094704 -0.028653089
0.32033816 0.12255995 -0.06949288 0.46049488 0.069420666 0.22329901 -0.36720806 0.029461166
-0.13848533 -0.11232063 -0.3621187 -0.25205186 0.24310406 -0.2257746 -0.40344417 -0.38956037
0.05452375 0.15545921 -0.29836863 -0.12817608 -0.053847462 -0.13945508 -0.21382453 -0.08215984
0.037176054 -0.16235407 0.07904811 -0.012894895 -0.20383693 0.23656213 0.1427803 -0.19653502
-0.032126196 0.2494802 -0.09062352 0.051183958 0.058377232 0.1366818 0.3641564 -0.025948469
0.122191295 0.15468802 -0.13877924 -0.24795781 0.24580272 -0.06422402 -0.3302452 -0.15588854
0.4182227 -0.24212144 -0.09365341 0.25964975 -0.41562918 0.62192047 0.42372802 -0.3373204
0.064534254 -0.102620855 -0.010295854 0.10580492 0.15044756 -0.37281507 0.008615233 0.14341907
0.0756378 -0.010249155 -0.16603272 -0.10498427 0.20862739 0.09962838 0.07781057 -0.13235623
0.11275864 -0.0298324 5.017374e-05 0.13517411 -0.109711684 0.012631143 0.08316419 -0.18978758
0.17947164 0.01901738 0.26608148 0.18850312 0.19669747 -0.15366395 -0.05982803 -0.04799933
0.5348516 -0.002470316 0.26299822 0.59921414 0.24061885 0.31201306 0.31896824 0.09398299
0.25238737 -0.06324367 0.08952718 0.055490896 -0.17626537 0.41505238 0.4384256 -0.121612415
0.19480124 0.045791745 0.49389398 0.07537147 0.21491846 0.23158166 0.13363299 0.06448499
-0.061915554 -0.00616767 0.22188972 0.0058914875 0.080437 0.037880495 -0.123151764 0.033513565
-0.09004385 -0.015414251 0.15908374 -0.23911366 -0.017369213 -0.018613974 0.084484756 0.05152817
-0.059677165 -0.06521848 -0.09081271 -0.0032840895 0.103781626 -0.07214981 0.23068528 0.07878803
-0.10708428 0.13403586 0.1375214 -0.10910187 -0.4104838 -0.16652353 -0.007531344 0.11054273
0.081796065 0.36610565 0.069113486 -0.029154938 0.028355569 0.0050964467 -0.2991333 0.14127971
0.14084825 -0.41708007 -0.03689416 0.036400277 0.25234187 -0.11094895 -0.1632737 -0.050409112
-0.076596834 -0.029602379 -0.052086126 0.15066867 0.16224505 -0.06383869 0.03253249 0.1702604
0.04779622 -0.030593082 0.119933784 -0.011679272 -0.06625485 -0.08503636 -0.09918647 -0.10239046
-0.09046658 0.14418222 -0.14495306 0.1389183 0.045784142 0.1526784 -0.17205995 -0.098284505
-0.042943608 0.10026742 -0.14267632 0.036218647 -0.6241545 -0.0013290979 -0.087105796 0.0083458
-0.16277373 0.26755288 -0.30091825 0.4146429 0.10206492 -0.10759801 0.13429832 0.10656897
0.036910128 -0.360293 0.05775648 -0.025531221 0.20111488 -0.2709719 -0.16708073 -0.06921918
-0.13966973 0.15222703 -0.025429223 -0.045093093 -0.19182867 -0.07304103 0.017628979 0.124671765
-0.112306476 -0.08252779 -0.053999417 -0.08919445 0.028066503 0.046917237 0.10692304 -0.12712121
-0.050969124 0.11553486 -0.022171019 -0.13817008 -0.16388865 -0.009319571 -0.08256838 -0.058841195
-0.043217603 0.12766464 0.084106036 0.05368221 -0.39160475 -0.0638465 -0.10354726 0.092237
0.34763098 0.31493285 -0.13231243 0.3984191 -0.24040751 0.13043429 -0.2165904 0.021870662
00000000: 224d 4ebe 6c72 523c 61e5 46bf 3a03 99be
00000010: 9a2f 01bf 3e40 2a3e 7caa e93d e2b9 eabc
00000020: 5d03 a43e b600 fb3d 4852 8ebd fcc5 eb3e
00000030: 6c2c 8e3d 7fa8 643e b202 bcbe 8b58 f13c
00000040: 19cf 0dbe 5c08 e6bd 9f67 b9be f10c 81be
00000050: 45f0 783e 7531 67be 3c90 cebe 7574 c7be
00000060: 4c54 5f3d b330 1f3e c6c3 98be 9740 03be
00000070: 288f 5cbd 50cd 0ebe d1f4 5abe 6b43 a8bd
00000080: eb45 183d 2540 26be fae3 a13d 1c45 53bc
00000090: a1ba 50be 583d 723e 0035 123e 7a40 49be
000000a0: c296 03bd bd77 7f3e d398 b9bd 45a6 513d
000000b0: f71c 6f3d 50f6 0b3e b572 ba3e e291 d4bc
000000c0: 6e3f fa3d 8966 1e3e 251c 0ebe a7e8 7dbe
000000d0: b5b3 7b3e e287 83bd e615 a9be 3fa1 1fbe
000000e0: 4921 d63e afee 77be 5ccd bfbd d0f0 843e
000000f0: 59cd d4be 2e36 1f3f e1f2 d83e 42b5 acbe
00000100: 892a 843d e22a d2bd f1af 28bc 40b0 d83d
00000110: ed0e 1a3e 9ee1 bebe e826 0d3c 73dc 123e
00000120: fee7 9a3d 12ec 27bc 7b04 2abe fe01 d7bd
00000130: 6ba2 553e f709 cc3d 265b 9f3d 6488 07be
00000140: 00ee e63d 1463 f4bc a571 5238 156b 0a3e
00000150: 85b0 e0bd dbf2 4e3c fd51 aa3d ad57 42be
00000160: 6ac7 373e 56ca 9b3c d53b 883e f606 413e
00000170: 106b 493e 155a 1dbe 3d0e 75bd f29a 44bd
00000180: 09ec 083f 06e5 21bb b4a7 863e 1966 193f
00000190: ca64 763e 2dc0 9f3e ce4f a33e 277a c03d
000001a0: eb38 813e e685 81bd 075a b73d 6c4a 633d
000001b0: e97e 34be bf81 d43e 5279 e03e ee0f f9bd
000001c0: fa79 473e 2090 3b3d acdf fc3e 5b5c 9a3d
000001d0: 9613 5c3e be23 6d3e 16d7 083e b510 843d
000001e0: 2a9b 7dbd 2a1a cabb 0f37 633e 610d c13b
000001f0: 27bc a43d 9428 1b3d fe36 fcbd 8545 093d
00000200: e968 b8bd 0e8c 7cbc d9e6 223e 36da 74be
00000210: e149 8ebc 557c 98bc 5806 ad3d 340f 533d
00000220: 0b70 74bd 4491 85bd 04fc b9bd e139 57bb
00000230: 768b d43d 48c3 93bd c338 6c3e 9e5b a13d
00000240: 014f dbbd b240 093e 69d2 0c3e cd70 dfbd
00000250: ef2a d2be 2585 2abe 7ec9 f6bb 3a64 e23d
00000260: b284 a73d 3372 bb3e 5f8b 8d3d 56d6 eebc
00000270: f049 e83c 1800 a73b 0028 99be a1ab 103e
00000280: 863a 103e 858b d5be 551e 17bd 7518 153d
00000290: f432 813e 3439 e3bd 3931 27be c979 4ebd
000002a0: cdde 9cbd b080 f2bc 4358 55bd e348 1a3e
000002b0: 9123 263e dcbd 82bd ca40 053d be58 2e3e
000002c0: f8c5 433d 589e fabc d89f f53d 6b5a 3fbc
000002d0: 9fb0 87bd 8b27 aebd 4722 cbbd 17b2 d1bd
000002e0: 8b46 b9bd 81a4 133e 936e 14be 9940 0e3e
000002f0: 2788 3b3d ba57 1c3e 7c30 30be 6349 c9bd
00000300: a3e5 2fbd 0159 cd3d be19 12be 015a 143d
00000310: 97c8 1fbf 2035 aeba 8664 b2bd d3bc 083c
00000320: 28ae 26be b1fc 883e f511 9abe 134c d43e
00000330: 6a07 d13d 585c dcbd 8085 093e d540 da3d
00000340: 132f 173d 5378 b8be 0f92 6c3d da26 d1bc
00000350: 0ff1 4d3e d4bc 8abe 3617 2bbe c9c2 8dbd
00000360: 9505 0fbe 67e1 1b3e f250 d0bc 89b3 38bd
00000370: bc6e 44be 8996 95bd a66a 903c e953 ff3d
00000380: f000 e6bd 5404 a9bd 7e2e 5dbd 94ab b6bd
00000390: b9eb e53c 4a2c 403d 77fa da3d 102c 02be
000003a0: 00c5 50bd 8a9d ec3d ff9f b5bc 757c 0dbe
000003b0: 6dd2 27be 1db1 18bc 9c19 a9bd 7703 71bd
000003c0: f104 31bd 85ba 023e c93f ac3d e1e1 5b3d
000003d0: 6b80 c8be f4c1 82bd 9610 d4bd c1e6 bc3d
000003e0: b0fc b13e e13e a13e e97c 07be 97fd cb3e
000003f0: 632d 76be 9190 053e e0c9 5dbe 1a2a b33c

conv1.fc_attention.weight f4 [1, 33]
-0.060398202 0.19062321 0.034017097 -0.2571663 -0.16688538 -0.051024694 -0.09069954 -0.20390934
0.04133961 0.06395579 -0.058436103 -0.28089747 -0.12819459 -0.22431865 0.060943667 0.20582242
0.069238134 0.024306085 -0.083230205 0.05358941 0.055325996 0.093168035 0.1121196 -0.15474613
0.17918968 0.22375236 -0.00176513 -0.20837109 0.068713084 -0.18131997 -0.114042155 0.102036275
0.3872436
00000000: 1b64 77bd bb32 433e 8355 0b3d 4dab 83be
00000010: 00e4 2abe 45ff 50bd aec0 b9bd 9ccd 50be
00000020: b953 293d 41fb 823d b25a 6fbd cbd1 8fbe
00000030: 7145 03be cab3 65be 11a0 793d 1dc3 523e
00000040: b9cc 8d3d 8e1d c73c 9974 aabd 9280 5b3d
00000050: 839d 623d e2ce be3d f69e e53d c575 1ebe
00000060: 807d 373e 571f 653e ef5b e7ba 3b5f 55be
00000070: 72b9 8c3d f1ab 39be ef8e e9bd 65f8 d03d
00000080: cb44 c63e

conv2.fc.weight f4 [32, 16]
-0.2234035 -0.32267132 -0.0213214 0.2434398 0.14729121 -0.43959975 0.20659871 0.017634705
-0.46718332 -0.3205517 0.021950005 -0.28200984 -0.19660603 0.12600838 -0.071597345 -0.04405147
0.030821176 -0.015812013 -0.1356848 -0.11133638 -0.002354414 0.33666682 0.26449707 0.32298455
0.20187613 -0.2756365 -0.29426655 -0.08867202 -0.0640735 0.019517418 0.24638294 -0.055899706
0.3179324 -0.100819215 0.15413812 0.14019543 -0.26912597 -0.005976301 0.3111392 0.45059815
0.12106838 -0.19749556 -0.17153323 0.12417735 -0.025540391 -0.039184578 0.04038847 -0.13355526
-0.030124782 -0.27340204 -0.3824171 -0.29569218 -0.328593 -0.009201563 0.055735856 0.070017405
-0.0053020036 0.14859052 -0.05105876 0.33163208 0.0742758 0.016675208 0.0125074135 -0.28044125
-0.007937643 0.11002445 -0.025679754 0.28794178 -0.3369269 0.15984485 0.29376772 -0.2727941
0.27087915 -0.1478964 0.007553956 0.06469761 0.034899805 -0.06945566 -0.055561606 -0.1405519
0.14054435 0.18762961 -0.21835594 -0.07629431 0.044864547 -0.068681784 0.045327943 -0.10195198
-0.04289143 -0.09285162 0.20499411 -0.088911474 0.09197507 -0.17325082 0.0024375324 -0.088643156
-0.14876825 -0.09808346 -0.076228455 0.1539865 0.027678227 -0.09602839 -0.19302113 0.03336859
-0.44829416 -0.15628366 0.10971518 -0.06602456 -0.17823364 0.29215622 0.2497791 -0.2262806
0.05038949 -0.09035098 -0.0708589 0.14356136 -0.09312107 0.07210119 -0.21197996 0.08478577
-0.20738232 -0.17741986 -0.025225135 -0.13790949 -0.083639905 0.16165212 0.27483273 0.1657091
0.21510221 -0.04258008 -0.19592987 0.05295094 0.1936648 -0.17445496 -0.025567865 -0.13370536
0.39026245 0.051529378 0.059604872 -0.107388474 -0.08075183 0.20005131 0.11587323 -0.16906266
0.053324834 -0.14437711 0.21960099 0.34219134 0.3153629 -0.059615374 -0.21955557 -0.3253461
0.22483505 0.17700873 -0.16480893 -0.041690383 -0.28409928 0.016411416 0.019279856 -0.034206554
-0.08061451 0.0848025 -0.19460844 -0.14796154 0.315382 0.01900477 0.04465746 0.11942834
-0.34601006 -0.0934034 -0.28254017 -0.19117714 -0.1320883 -0.050161257 0.025427634 -0.06486004
0.041012306 0.16204426 0.33350343 0.17189735 -0.11368934 0.15641133 0.19212 0.07561452
0.17593966 0.12335683 0.06814702 0.15823153 -0.013833004 -0.2817085 -0.32260618 -0.032617453
0.014869468 -0.22425537 0.13660946 -0.059880827 0.17138782 -0.21001853 0.02234098 0.18237871
-0.2865328 0.19939074 -0.22088085 -0.22856984 0.07291779 -0.20744908 -0.03906426 -0.002055397
0.0037947341 -0.022101933 -0.06579231 -0.11430003 -0.07020175 -0.20711923 -0.100041196 0.2548164
-0.12284883 0.1931745 0.03486371 0.04876994 0.020098904 -0.06421493 -0.20558183 -0.017180445
0.19287968 -0.23938812 -0.03858814 0.10569851 -0.021425165 -0.3381463 0.14767121 -0.0948846
-0.039773878 -0.27511755 0.15285245 0.037890084 0.15902933 0.002626896 0.030514857 -0.15656835
-0.014260975 0.038657684 -0.0764703 0.07863965 0.0165349 -0.12113385 -0.19700225 0.18937452
-0.21012847 -0.00807766 -0.0025531193 -0.040606976 0.08209857 0.12363398 -0.14297344 0.21167612
00000000: e3c3 64be 2d35 a5be 37aa aebc 4848 793e
00000010: 82d3 163e 3813 e1be 9d8e 533e a876 903c
00000020: a732 efbe 5a1f a4be 7fd0 b33c 9863 90be
00000030: 1753 49be 5708 013e a1a1 92bd 506f 34bd
00000040: b17c fc3c 3288 81bc f5f0 0abe 5404 e4bd
00000050: 834c 1abb 985f ac3e 296c 873e 3b5e a53e
00000060: 9eb8 4e3e 3a20 8dbe 1baa 96be ad99 b5bd
00000070: f838 83bd fee2 9f3c cf4b 7c3e 17f7 64bd
00000080: 09c8 a23e 4e7a cebd 62d6 1d3e 648f 0f3e
00000090: e1ca 89be d9d4 c3bb a34d 9f3e cdb4 e63e
000000a0: b3f2 f73d 473c 4abe 68a6 2fbe b250 fe3d
000000b0: 153a d1bc 0280 20bd 616e 253d b6c2 08be
000000c0: 3fc8 f6bc 5afb 8bbe 2dcc c3be f764 97be
000000d0: 573d a8be 27c2 16bc 484b 643d 4965 8f3d
000000e0: 6ebc adbb 1d28 183e fe22 51bd aecb a93e
000000f0: e91d 983d 729a 883c e5eb 4c3c ff95 8fbe
00000100: e30c 02bc 8054 e13d 595e d2bc 1b6d 933e
00000110: af81 acbe 5eae 233e b968 963e abab 8bbe
00000120: acb0 8a3e 2772 17be 2d87 f73b 2e80 843d
00000130: 19f3 0e3d c53e 8ebd 9194 63bd d6ec 0fbe
00000140: dcea 0f3e fa21 403e b398 5fbe 3140 9cbd
00000150: e3c3 373d 09a9 8cbd cba9 393d 33cc d0bd
00000160: edae 2fbd fd28 bebd fae9 513e 3817 b6bd
00000170: 6d5d bc3d aa68 31be 02bf 1f3b 8b8a b5bd
00000180: b456 18be fbdf c8bd aa1d 9cbd a3ae 1d3e
00000190: 73bd e23c 88aa c4bd 55a7 45be 81ad 083d
000001a0: d086 e5be d308 20be 5ab2 e03d e237 87bd
000001b0: e182 36be 8095 953e 18c6 7f3e 1ab6 67be
000001c0: 3665 4e3d ef09 b9bd 791e 91bd c001 133e
000001d0: 42b6 bebd caa9 933d 4611 59be 29a4 ad3d
000001e0: 085c 54be 8dad 35be f1a4 cebc 2538 0dbe
000001f0: 664b abbd 2288 253e e0b6 8c3e a5af 293e
00000200: c143 5c3e 7368 2ebd d7a1 48be 16e3 583d
00000210: 1150 463e 52a4 32be b373 d1bc 0fea 08be
00000220: 7bd0 c73e 7810 533d 3d24 743d 7dee dbbd
00000230: 3761 a5bd 40da 4c3e f24e ed3d c31e 2dbe
00000240: 246b 5a3d 98d7 13be 15df 603e b433 af3e
00000250: 3f77 a13e 402f 74bd 2dd3 60be c493 a6be
00000260: 293b 663e c741 353e acc3 28be 89c3 2abd
00000270: 7675 91be 3c71 863c caf0 9d3c 2c1c 0cbd
00000280: 3819 a5bd efac ad3d 6f47 47be 3b83 17be
00000290: c079 a13e e4af 9b3c beea 363d d896 f43d
000002a0: 3b28 b1be 484a bfbd 1ba9 90be f1c3 43be
000002b0: 2842 07be e475 4dbd 9d4d d03c 57d5 84bd
000002c0: 85fc 273d eeee 253e f6c0 aa3e dc05 303e
000002d0: f5d5 e8bd 4b2a 203e 1bbb 443e c9db 9a3d
000002e0: 8729 343e 81a2 fc3d aa90 8b3d 7207 223e
000002f0: d3a3 62bc 193c 90be a32c a5be e199 05bd
00000300: 129f 733c 33a3 65be 5ae3 0b3e 9945 75bd
00000310: 4a80 2f3e 190f 57be 6e04 b73c 7cc1 3a3e
00000320: 6db4 92be 162d 4c3e 972e 62be 360e 6abe
00000330: ec55 953d 886d 54be d801 20bd d7b3 06bb
00000340: 13b1 783b 1d0f b5bc 1ebe 86bd 2216 eabd
00000350: efc5 8fbd 1017 54be 66e2 ccbd 4c77 823e
00000360: 2b98 fbbd 89cf 453e 40cd 0e3d fdc2 473d
00000370: 75a6 a43c 1e83 83bd 0b84 52be 01be 8cbc
00000380: 4082 453e 2922 75be 990e 1ebd 7678 d83d
00000390: d483 afbc 8321 adbe 1f37 173e db52 c2bd
000003a0: efe9 22bd 35dc 8cbe 5a85 1c3e a232 1b3d
000003b0: 96d8 223e 0028 2c3b 4bfa f93c 7453 20be
000003c0: dda6 69bc 8557 1e3d 769c 9cbd d30d a13d
000003d0: 3374 873c 0615 f8bd f5ba 49be 65eb 413e
000003e0: eb2b 57be 2958 04bc 3c52 27bb 8053 26bd
000003f0: 4c23 a83d d033 fd3d a167 12be a0c1 583e

conv2.fc_attention.weight f4 [1, 65]
0.102825575 0.19143486 -0.26112783 -0.19308618 0.022747707 0.111629695 0.013155317 -0.0026881152
-0.29950973 -0.009247762 -0.0060366294 0.120981015 -0.08140937 -0.21302077 -0.110166945 0.2874598
0.25591305 0.30259967 0.28964648 0.09831963 0.28743464 0.0047263806 -0.34347513 -0.08537646
-0.33048555 -0.11800738 -0.1601186 -0.30950955 -0.09768182 -0.00867675 -0.10212116 0.06963611
-0.25239083 -0.35135463 -0.036293 0.11451764 0.14713965 -0.11409359 -0.26625106 -0.18048799
0.09504055 0.104221255 -0.27753145 0.23741734 -0.025515778 -0.13561039 -0.067250885 -0.04265474
-0.10370669 -0.071743645 0.16596547 -0.060914453 -0.1005416 -0.07487884 0.13879785 0.11188174
0.059531044 -0.034753885 -0.18874608 0.29464322 -0.13741077 0.19668175 0.23954353 -0.22449252
0.114974104
00000000: 3796 d23d 8007 443e 8cb2 85be 62b8 45be
00000010: 6659 ba3c 1c9e e43d 6689 573c 172b 30bb
00000020: 5759 99be ed83 17bc ebce c5bb e5c4 f73d
00000030: f5b9 a6bd 1e22 5abe 359f e1bd ee2d 933e
00000040: 0907 833e 58ee 9a3e 8b4c 943e cd5b c93d
00000050: a22a 933e c1df 9a3b f9db afbe dad9 aebd
00000060: 6735 a9be daad f1bd 21f6 23be 0978 9ebe
00000070: 680d c8bd ed28 0ebc e624 d1bd 609d 8e3d
00000080: 5f39 81be c1e4 b3be f8a7 14bd 3988 ea3d
00000090: c7ab 163e e6a9 e9bd 0f52 88be d8d1 38be
000000a0: 9fa4 c23d f471 d53d 9a18 8ebe 881d 733e
000000b0: 7706 d1bc 73dd 0abe d5ba 89bd bdb6 2ebd
000000c0: 2c64 d4bd 55ee 92bd daf2 293e 6f81 79bd
000000d0: c1e8 cdbd 145a 99bd 0621 0e3e 4122 e53d
000000e0: d3d6 733d 175a 0ebd a746 41be 7adb 963e
000000f0: 69b5 0cbe f166 493e e64a 753e 5ee1 65be
00000100: 8b77 eb3d

conv1_ext.fc.weight f4 [16, 48]
-0.03603526 0.38477963 0.19335106 -0.30041456 -0.08783281 0.1856489 -0.08295513 0.120914154
0.20785302 0.3685777 -0.1455648 -0.00520766 0.25536016 0.056022786 0.06241024 -0.0118149165
-0.0062493375 -0.3733245 -0.09807031 -0.2737052 0.23086776 0.20102803 -0.20882733 -0.22773723
-0.014708783 0.26841566 0.029621651 -0.038081095 -0.117614165 0.15772425 0.1827943 0.016855247
0.0307143 -0.16663493 -0.023691444 0.061050605 0.022831593 0.07350307 0.17586052 0.022652006
-0.013803473 0.0049298475 0.24735732 0.25061613 0.0377419 0.26727512 -0.09628182 -0.09848719
0.048672214 -0.18254048 -0.017385207 0.10484412 -0.00047120627 -0.34980786 -0.53410244 0.010630539
0.25659612 0.27351344 -0.16061834 -0.3467052 0.17871998 -0.23990443 -0.045008536 -0.3133514
0.09558343 -0.21921293 -0.12055447 0.20707268 0.07690333 -0.32078755 -0.10380964 0.3182464
0.085967675 -0.10228332 -0.25138298 0.062143125 -0.08181498 -0.024232611 -0.07102919 -0.13266382
-0.10479416 0.03466529 0.23679905 0.25552544 0.22845897 0.014290493 -0.016306126 0.14931911
0.04278837 -0.0070226267 -0.022329591 -0.087739006 -0.3481185 0.06905962 0.13491757 0.11938183
-0.6080026 0.029922957 -0.1216971 -0.7440995 0.14695714 0.075087845 -0.0049228854 -0.16133097
-0.4623131 0.08131905 -0.0068759825 -0.19160703 0.0069509675 0.27204406 -0.33098558 0.16545641
-0.1646507 0.014472074 -0.45121711 0.022594418 0.06935966 -0.0014735013 -0.25464076 -0.075356446
0.06686693 0.19378497 0.09609248 0.12709033 -0.021614134 -0.17293942 0.20530465 -0.11548757
-0.018868467 -0.20256795 0.053747773 0.021998756 0.07612831 -0.049786627 0.09491261 -0.12967004
-0.015072113 -0.06342876 -0.017625801 0.17545058 -0.01190163 -0.008878766 0.048458833 -0.16806217
-0.14363414 0.17348771 -0.13495737 0.09996344 -0.173968 -0.29172963 -0.0020335745 0.029902989
-0.049347952 0.06731772 -0.059845697 -0.0795375 0.34352696 0.21439324 0.0887954 0.22634268
0.11676983 -0.26160955 -0.3107799 -0.46829283 -0.078594774 -0.018345216 -0.19134045 -0.4963838
0.091523275 0.23980126 0.03793006 -0.040967576 0.05513159 -0.111832924 0.07334525 -0.008654888
-0.13252784 0.075279355 0.0022091034 0.033943303 0.20670854 -0.08240289 -0.16414146 0.15252742
-0.0031986542 -0.07561525 0.033180468 0.083856925 0.034624863 -0.04884769 0.02460749 0.047322087
-0.044526923 -0.52901214 0.16952747 0.0021234711 -0.48757067 0.35190356 -0.13417502 -0.06931198
0.45349494 -0.023079943 0.21449645 0.094327144 -0.20306069 -0.53278655 -0.13321206 -0.51444775
0.00050561916 0.123582564 0.55560476 0.3684291 -0.1964229 -0.3701322 0.3608061 0.52645683
-0.0016793191 -0.2570623 -0.19808383 -0.080054715 0.051406667 0.121975474 -0.089531876 0.0038404479
0.30333862 0.081167266 0.1380338 0.039337844 -0.11662011 -0.08459378 0.238653 -0.03158568
0.10920444 0.21932542 -0.15387894 -0.13700628 0.084619574 0.3403427 0.022110652 0.09397085
0.37230504 0.16415568 0.5107452 -0.10571405 -0.28591993 0.18110491 0.1719643 -0.045606833
-0.07673533 0.20348579 -0.09409644 0.012169042 -0.03770937 0.07876228 -0.40462592 0.5830694
00000000: b599 13bd d601 c53e d2fd 453e f0cf 99be
00000010: b0e1 b3bd bf1a 3e3e 61e4 a9bd d7a1 f73d
00000020: 6cd7 543e 37b6 bc3e f00e 15be 05a5 aabb
00000030: 91be 823e 2678 653d e1a1 7f3d 5a93 41bc
00000040: 3ec7 ccbb 6424 bfbe 16d9 c8bd 1723 8cbe
00000050: 9968 6c3e 4bda 4d3e d5d6 55be f333 69be
00000060: 1bfd 70bc c76d 893e 1ba9 f23c ecfa 1bbd
00000070: b2df f0bd 7782 213e 6e2e 3b3e 0414 8a3c
00000080: 8e9c fb3c 59a2 2abe 8f14 c2bc 3310 7a3d
00000090: 5209 bb3c c788 963d c814 343e b390 b93c
000000a0: f627 62bc 8f8a a13b 3d4b 7d3e c250 803e
000000b0: 4097 1a3d 49d8 883e 672f c5bd a7b3 c9bd
000000c0: 845c 473d e4eb 3abe 6c6b 8ebc 84b8 d63d
000000d0: 3c0c f7b9 041a b3be f0ba 08bf b62b 2e3c
000000e0: 9160 833e f409 8c3e 2279 24be 5883 b1be
000000f0: 5f02 373e 82a9 75be df5a 38bd 986f a0be
00000100: 3fc1 c33d 5b79 60be 43e5 f6bd dc0a 543e
00000110: 7e7f 9d3d 443e a4be 269a d4bd 31f1 a23e
00000120: d20f b03d eb79 d1bd 45b5 80be ca89 7e3d
00000130: 9d8e a7bd 7883 c6bc c177 91bd 06d9 07be
00000140: 529e d6bd 31fd 0d3d 737b 723e 3bd4 823e
00000150: 26f1 693e ac22 6a3c 6d94 85bc 1ce7 183e
00000160: dc42 2f3d 101e e6bb 8cec b6bc 82b0 b3bd
00000170: 973c b2be 216f 8d3d d527 0a3e 767e f43d
00000180: 0fa6 1bbf fd20 f53c 543c f9bd 4e7d 3ebf
00000190: ef7b 163e a8c7 993d 2850 a1bb f233 25be
000001a0: 4db4 ecbe 9a8a a63d ec4f e1bb a234 44be
000001b0: f1c4 e33b 5c49 8b3e f176 a9be 686d 293e
000001c0: 319a 28be 471c 6d3c ee05 e7be ee17 b93c
000001d0: 700c 8e3d 8022 c1ba 4660 82be 7b54 9abd
000001e0: 87f1 883d 916f 463e 22cc c43d f823 023e
000001f0: 2010 b1bc 0817 31be 623b 523e bf84 ecbd
00000200: 0b92 9abc f96d 4fbe a026 5c3d bc36 b43c
00000210: 29e9 9b3d 10ed 4bbd 8b61 c23d 39c8 04be
00000220: 06f1 76bc f0e6 81bd fc63 90bc 51a9 333e
00000230: 0eff 42bc 3e78 11bc c57c 463d 7d18 2cbe
00000240: d414 13be c3a6 313e 4432 0abe a2b9 cc3d
00000250: ab24 32be 965d 95be b845 05bb 1df7 f43c
00000260: 1421 4abd dfdd 893d c320 75bd 8fe4 a2bd
00000270: c4e2 af3e e789 5b3e 5dda b53d 60c6 673e
00000280: 0525 ef3d b0f1 85be 8b1e 9fbe 14c4 efbe
00000290: 4cf6 a0bd b548 96bc c0ee 43be 0426 febe
000002a0: 8e70 bb3d 768e 753e 8d5c 1b3d 9ecd 27bd
000002b0: aad1 613d a908 e5bd 0936 963d 3bcd 0dbc
000002c0: 61b5 07be 102c 9a3d 9bc6 103b 2208 0b3d
000002d0: 67ab 533e d9c2 a8bd b314 28be 2630 1c3e
000002e0: 83a0 51bb 2bdc 9abd 3ee8 073d 2ebd ab3d
000002f0: cdd2 0d3d 8414 48bd a695 c93c ced4 413d
00000300: dd61 36bd 576d 07bf 9c98 2d3e ef29 0b3b
00000310: dda2 f9be b42c b43e 2d65 09be 70f3 8dbd
00000320: 7d30 e83e 2612 bdbc f5a4 5b3e 972e c13d
00000330: 24ef 4fbe b364 08bf be68 08be d9b2 03bf
00000340: 878b 043a db18 fd3d 1d3c 0e3f bda2 bc3e
00000350: 1623 49be f881 bdbe 94bb b83e e0c5 063f
00000360: 991c dcba ab9d 83be 7dd6 4abe baf3 a3bd
00000370: cc8f 523d 47ce f93d 7d5c b7bd 06b0 7b3b
00000380: 334f 9b3e 063b a63d bc58 0d3e b820 213d
00000390: 86d6 eebd 813f adbd 7461 743e fc5f 01bd
000003a0: 94a6 df3d d896 603e 7192 1dbe 604b 0cbe
000003b0: 074d ad3d 6641 ae3e 6621 b53c ca73 c03d
000003c0: c49e be3e 6d18 283e 33c0 023f 9c80 d8bd
000003d0: 1964 92be 9173 393e 6917 303e 3bce 3abd
000003e0: 6a27 9dbd 945e 503e a2b5 c0bd a960 473c
000003f0: 2475 1abd 1e4e a13d 212b cfbe 0944 153f

conv1_ext.fc_attention.weight f4 [1, 33]
-0.18636361 -0.17713179 0.009078076 0.06278376 -0.14280245 0.00012814878 -0.014188651 0.34903997
-0.02664945 -0.1426166 0.12267844 0.17743652 -0.03777922 -0.019340068 0.06936804 0.16724963
0.17104913 -0.026099429 0.1540545 0.13218395 -0.10596107 0.060147464 -0.12161739 0.033598904
0.146142 -0.08789368 0.06054338 0.07401926 -0.17390202 0.10926722 0.15703364 0.10845495
0.08480796
00000000: 1ad6 3ebe 0962 35be 36bc 143c c694 803d
00000010: ce3a 12be ad5f 0639 8477 68bc 5eb5 b23e
00000020: f34f dabc 160a 12be d53e fb3d ebb1 353e
00000030: 62be 1abd 106f 9ebc d510 8e3d 7d43 2b3e
00000040: 8127 2f3e 78ce d5bc 76c0 1d3e 3b5b 073e
00000050: 1e02 d9bd 305d 763d 8a12 f9bd 019f 093d
00000060: 40a6 153e 9a01 b4bd 56fc 773d 6997 973d
00000070: 5f13 32be 7ec7 df3d 6dcd 203e a11d de3d
00000080: ccaf ad3d

conv2_ext.fc.weight f4 [32, 16]
-0.3789922 0.04471831 -0.09321406 0.20217827 0.1934729 -0.20202932 -0.03643294 -0.19931391
-0.2437806 0.22935213 -0.29760382 0.025126843 -0.20757519 -0.029341796 0.19905366 0.23440555
-0.32970837 -0.023716222 0.16815679 -0.00058526325 -0.17798047 0.081384145 -0.007623922 -0.11272231
0.05755394 -0.017824858 0.23253915 -0.24219312 -0.04509656 -0.10314743 -0.30754206 -0.057494048
0.066919036 0.031245684 -0.15085267 0.2287588 0.2796612 -0.031608406 -0.09815696 -0.22328629
-0.08952442 0.23622154 -0.13532792 -0.2366337 0.11094396 0.20543674 -0.34472972 -0.17163931
0.3270208 -0.27700725 -0.08252694 -0.14091702 0.7300978 0.38701177 0.19700354 0.22275783
0.1754502 -0.13401343 0.12156967 0.06078248 0.23921567 0.0988011 -0.008235275 -0.09152705
0.3665698 -0.3059038 -0.041887548 -0.20733558 0.17376056 0.22202392 -0.12582235 0.104021244
0.09055072 0.14361824 0.100346506 -0.24644 -0.0023084476 -0.31111714 0.10660798 0.17539017
-0.6275316 0.074891984 0.21515998 -0.10421352 -0.48289984 0.061586116 -0.10203942 -0.39249015
0.13474062 0.09795943 -0.33264914 0.12294603 -0.087495215 -0.11283241 0.07012032 -0.1362324
-0.55919147 -0.18856142 0.13755232 -0.010964957 0.074194275 -0.29740477 -0.28946826 -0.02849983
-0.04215701 0.046514556 -0.16055232 0.065856725 -0.13257086 -0.12589113 0.07934447 0.26059228
-0.3600801 -0.03852399 0.1053876 0.036141973 0.065084666 0.020534122 -0.21807057 -0.1869543
0.081864595 -0.14395984 -0.015177869 -0.10463075 -0.031466957 0.004404848 0.27885816 -0.04493338
-0.55752456 -0.24955812 0.125897 0.252295 -0.19378202 -0.23268665 -0.28150567 -0.118768446
-0.083241776 0.060816098 0.14858119 0.09767899 -0.16381817 -0.2307401 -0.20352101 0.12657861
-0.15906255 0.21705684 -0.06674565 -0.07966927 -0.07921209 -0.09403448 0.050588157 -0.030638346
-0.1248355 -0.39172393 -0.040046044 0.22404578 0.21728641 -0.09303683 -0.107234284 -0.1460897
-0.63564116 0.058386225 0.11464629 0.07156439 -0.47374892 -0.273398 -0.325632 -0.008327847
-0.12049989 0.21550943 -0.15405963 -0.1876626 0.060108997 0.003753519 -0.13956673 0.19167006
-0.28134447 -0.10798091 0.10042602 0.13808447 -0.016250439 -0.2653653 0.020148866 0.052113097
0.1087879 0.27189794 -0.17956604 -0.28268442 0.018912207 0.004684707 -0.22497465 -0.046362452
-0.40666524 -0.1603954 0.03825891 0.052238114 -0.05586798 -0.18899792 0.001994949 0.05500312
-0.004240596 0.117396936 -0.13603505 -0.12235536 -0.0642164 0.026668506 0.29209593 0.023532119
0.30091745 -0.2947865 -0.15673429 0.10362965 0.27995595 0.27634138 0.29665655 -0.08875807
-0.23220392 -0.17590553 0.19127834 0.04984455 0.17291014 0.3368053 0.02041602 0.03965171
-0.20573725 0.14885794 -0.16433588 0.091759905 -0.40839633 -0.08136706 -0.13939555 -0.088132724
-0.012427248 0.009689483 0.11962375 -0.058269113 0.045858677 0.11652093 0.15688683 0.07249123
0.037358105 0.08163054 -0.14423575 0.15736048 -0.266029 0.11252312 -0.11709169 0.17651153
0.13356723 0.13439484 -0.17267087 -0.25697577 0.07587603 0.35068774 0.11879115 -0.038505252
00000000: 440b c2be 8c2a 373d 03e7 bebd d207 4f3e
00000010: c31d 463e c6e0 4ebe b53a 15bd f218 4cbe
00000020: 9fa1 79be 49db 6a3e 875f 98be cfd6 cd3c
00000030: 978e 54be 355e f0bc b9d4 4b3e 0208 703e
00000040: 89cf a8be 8648 c2bc 4b31 2c3e 5a6c 19ba
00000050: 8340 36be bbac a63d 18d2 f9bb f4da e6bd
00000060: aebd 6b3d 7005 92bc be1e 6e3e 7901 78be
00000070: 2cb7 38bd f63e d3bd 2776 9dbe e17e 6bbd
00000080: d90c 893d f3f6 ff3c 1f79 1abe bf3f 6a3e
00000090: c12f 8f3e d177 01bd 8406 c9bd 29a5 64be
000000a0: 9458 b7bd 0fe4 713e 6793 0abe 1b50 72be
000000b0: 9636 e33d 025e 523e 6a80 b0be 37c2 2fbe
000000c0: 456f a73e e5d3 8dbe e203 a9bd 8d4c 10be
000000d0: b0e7 3a3f 6826 c63e 4cbb 493e a11a 643e
000000e0: 38a9 333e d13a 09be 85f9 f83d 0df7 783d
000000f0: f4f4 743e 3b58 ca3d 3fed 06bc 8972 bbbd
00000100: 09af bb3e 6c9f 9cbe 4792 2bbd c74f 54be
00000110: 4aee 313e 3d5a 633e 93d7 00be 1709 d53d
00000120: a872 b93d a910 133e 7882 cd3d c45a 7cbe
00000130: 5349 17bb bf4a 9fbe 4955 da3d 7b99 333e
00000140: e9a5 20bf f860 993d e652 5c3e e66d d5bd
00000150: a63e f7be b941 7c3d 0bfa d0bd 78f4 c8be
00000160: 72f9 093e f49e c83d fd50 aabe 21cb fb3d
00000170: b130 b3bd ae14 e7bd 3e9b 8f3d 8280 0bbe
00000180: 2c27 0fbf 3f16 41be 84da 0c3e 5da6 33bc
00000190: 2bf3 973d 7045 98be 2f35 94be 7a78 e9bc
000001a0: d4ac 2cbd 0c86 3e3d d467 24be e4df 863d
000001b0: a8c0 07be 9be9 00be 5a7f a23d 5a6c 853e
000001c0: 6b5c b8be 55cb 1dbd 74d5 d73d 9b09 143d
000001d0: 1c4b 853d 2d37 a83c e44d 5fbe f370 3fbe
000001e0: a0a8 a73d 356a 13be 99ac 78bc a648 d6bd
000001f0: 7fe3 00bd 8b56 903b 7fc6 8e3e 100c 38bd
00000200: eeb9 0ebf 2a8c 7fbe 25eb 003e cf2c 813e
00000210: cb6e 46be 6945 6ebe 8321 90be df3c f3bd
00000220: aa7a aabd 4d1a 793d ab25 183e ec0b c83d
00000230: f3bf 27be 2247 6cbe d067 50be d39d 013e
00000240: 4be1 22be 2644 5e3e f1b1 88bd a429 a3bd
00000250: f339 a2bd 2695 c0bd 8735 4f3d 45fd fabc
00000260: c1a9 ffbd 0a90 c8be 5207 24bd 426c 653e
00000270: 5480 5e3e 188a bebd a69d dbbd 8a98 15be
00000280: 61b9 22bf 6526 6f3d adcb ea3d 5a90 923d
00000290: 388f f2be d3fa 8bbe 3db9 a6be 8671 08bc
000002a0: a5c8 f6bd 81ae 5c3e cfc1 1dbe a02a 40be
000002b0: da34 763d 99fd 753b 95ea 0ebe 2845 443e
000002c0: 620c 90be 1825 ddbd 28ac cd3d 0466 0d3e
000002d0: a41f 85bc f6dd 87be 3c0f a53c 8b74 553d
000002e0: 31cc de3d 3536 8b3e 29e0 37be 03bc 90be
000002f0: c6ed 9a3c 2c82 993b c15f 66be 8ee6 3dbd
00000300: 6d36 d0be b13e 24be 60b5 1c3d a2f7 553d
00000310: d3d5 64bd ac88 41be b1bd 023b f44a 613d
00000320: b3f4 8abb ce6d f03d c64c 0bbe 7295 fabd
00000330: e383 83bd e977 da3c 998d 953e 6ec6 c03c
00000340: da11 9a3e 42ee 96be f47e 20be c83b d43d
00000350: 6356 8f3e 9e7c 8d3e 5ee3 973e cac6 b5bd
00000360: ddc6 6dbe 9420 34be 78de 433e cd29 4c3d
00000370: 5b0f 313e bf71 ac3e 7f3f a73c d569 223d
00000380: c9ac 52be 376e 183e aa47 28be 9eec bb3d
00000390: 5319 d1be c6a3 a6bd b5bd 0ebe ee7e b4bd
000003a0: a89b 4bbc a3c0 1e3c 4cfd f43d 98ab 6ebd
000003b0: 4fd6 3b3d 86a2 ee3d f1a6 203e 4876 943d
000003c0: d004 193d ea2d a73d 89b2 13be 1b23 213e
000003d0: f434 88be 8672 e63d c5cd efbd 70bf 343e
000003e0: d9c5 083e cd9e 093e a2d0 30be 5492 83be
000003f0: e464 9b3d 588d b33e c648 f33d afb7 1dbd

conv2_ext.fc_attention.weight f4 [1, 65]
0.14507388 0.123484164 0.03500333 -0.20737216 -0.14554235 -0.099779814 0.16808759 -0.11287663
0.031912632 0.14631088 0.26404122 0.16139746 -0.15070845 0.08607324 0.063688114 -0.15112123
0.11542364 -0.22697593 -0.21887308 0.18797648 0.3108709 -0.20964678 -0.10379007 0.12637396
0.10842863 0.13302162 0.12874575 0.15747857 0.13204502 0.23514275 0.027181165 0.17517222
-0.05086135 -0.076464355 0.1251861 -0.26854888 -0.18104391 0.29531944 0.29650858 -0.022404311
0.12677945 0.11381619 0.13599172 -0.047983866 -0.048017237 -0.10462028 0.26649755 -0.035303194
0.072376244 -0.24720678 -0.30683216 -0.3731935 0.27771556 0.08583565 0.04763023 -0.4013794
-0.04721918 -0.303511 0.0744092 -0.24427384 0.092977814 -0.03215335 -0.17350812 -0.11798265
0.11182639
00000000: 3f8e 143e 44e5 fc3d a75f 0f3d 5e59 54be
00000010: 0e09 15be 5c59 ccbd 271f 2c3e dd2b e7bd
00000020: d2b6 023d 85d2 153e 6930 873e 6045 253e
00000030: 5153 1abe 2b47 b03d ea6e 823d 86bf 1abe
00000040: 3b63 ec3d 616c 68be 4420 60be e87c 403e
00000050: 782a 9f3e a5ad 56be e38f d4bd 2d68 013e
00000060: d40f de3d d236 083e edd5 033e 1042 213e
00000070: cf36 073e 43c9 703e 09ab de3c 5960 333e
00000080: fe53 50bd 5899 9cbd c930 003e 3d7f 89be
00000090: 9363 39be 1c34 973e f9cf 973e 3f89 b7bc
000000a0: 79d2 013e 7618 e93d 6a41 0b3e bb8a 44bd
000000b0: b9ad 44bd 2843 d6bd 5e72 883e 159a 10bd
000000c0: ff39 943d c623 7dbe 1b19 9dbe 3813 bfbe
000000d0: bc30 8e3e 9aca af3d eb17 433d 9a81 cdbe
000000e0: e668 41bd cb65 9bbe da63 983d ec22 7abe
000000f0: 276b be3d 3bb3 03bd 1dac 31be e3a0 f1bd
00000100: 3c05 e53d

fc1.weight f4 [128, 64]
-0.102894664 -0.02910473 -0.10502693 0.077716835 0.077758804 -0.07470502 -0.030485487 -0.0013809402
0.09086557 0.055942483 0.0819146 -0.15014671 0.07125134 -0.03922708 0.089729205 -0.10675198
0.07031859 -0.14644009 0.04664219 -0.1403757 -0.0485328 -0.04341343 -0.11378119 0.071534656
0.08922073 -0.028578127 -0.09494998 0.051080763 0.024120994 -0.1425621 0.04525364 -0.1428263
-0.13152774 0.029557869 -0.07817104 -0.06464888 -0.048405014 0.029841041 -0.11990938 0.016908346
-0.041021477 -0.08767296 -0.0345924 -0.062081024 0.09958031 0.06320066 0.07345265 -0.06526863
0.07550089 0.052323088 -0.10915952 0.050562337 0.012855958 -0.06943669 0.0894063 -0.093934424
-0.12251756 0.09031662 -0.061943773 0.09526527 -0.018367684 -0.04031324 -0.013777126 0.041987244
-0.098145746 0.010250461 0.04615349 0.080140874 -0.31000647 -0.17178613 0.052775018 0.020179978
0.08160598 0.066691615 -0.113463126 -0.11584924 0.117729485 -0.104892924 0.15188847 0.031923283
-0.1640822 0.06212633 -0.18986334 0.08977527 0.00024317703 -0.29097646 -0.059033174 0.07085586
-0.090835385 0.13166873 0.14168224 0.08792138 -0.035196044 -0.13960814 -0.030766692 -0.12449915
-0.09703577 0.1813277 0.010060333 -0.24941751 -0.06262794 -0.105123274 -0.0095331445 -0.08050141
0.019096516 -0.24004912 -0.019516405 0.03509001 -0.020125737 0.06771935 0.061562385 0.09425192
-0.09392223 -0.11551884 -0.1296346 -0.06518046 -0.13579656 0.019710828 0.030033482 0.06847375
-0.060036372 0.040835828 0.089411825 0.1384134 -0.029386153 -0.14188065 -0.018713111 -0.16224091
0.040964976 -0.1208461 -0.11275421 0.07842368 -0.35705048 -0.014235947 -0.11544628 -0.09296386
-0.04222302 -0.00088845013 -0.11415071 -0.06681461 -0.06501384 -0.02838108 -0.19102165 -0.08284526
-0.39150172 -0.04243103 0.29128292 0.13049148 0.06823326 0.0123260515 -0.046119735 0.14847824
-0.37255222 0.13375346 -0.3151751 -0.100240074 -0.042670332 0.16122232 0.011524806 0.07142176
-0.011884002 0.13402523 0.085572526 -0.13184422 -0.1814789 -0.025989223 0.045802817 0.08088342
0.01380585 -0.15499833 0.026794985 0.07750814 0.06757437 -0.28246623 0.03934056 0.06438675
-0.011349702 0.016377786 0.0028825842 0.29246122 -0.055915907 0.15219471 0.023208063 0.036344245
0.056085054 -0.02510116 0.019914804 -0.25021473 0.16204977 -0.22085653 0.0064726896 -0.12526585
-0.04930362 -0.00023466417 -0.031591557 0.02240619 -0.115812525 -0.043882143 0.0514497 0.01977843
-0.098408625 -0.14155844 0.07800183 -0.021141287 -0.13313264 -0.07963764 0.06265165 -0.096155256
-0.06023177 -0.129188 0.037795663 -0.036105357 -0.058020074 -0.025384113 -0.007535696 -0.01971221
-0.07021977 0.06693789 -0.064342245 -0.13840494 0.006060898 -0.10945078 0.02290682 -0.0503117
-0.12751287 -0.033110023 -0.020081088 0.06608495 0.076738715 -0.12190708 0.0073632617 -0.062062394
0.07937607 -0.0671213 -0.09887749 0.05325811 0.06888035 -0.048783895 -0.009907796 0.05131351
-0.108822644 -0.092747435 0.011642888 -0.017966116 -0.084521785 -0.08068003 -0.13508596 0.013008103
-0.14326924 -0.05212368 -0.06369292 0.024400217 -0.033841033 -0.04680328 -0.10838972 -0.13610353
00000000: 70ba d2bd 0b6d eebc 5c18 d7bd 012a 9f3d
00000010: 0240 9f3d f2fe 98bd b3bc f9bc aa00 b5ba
00000020: ba17 ba3d f223 653d d8c2 a73d 0fc0 19be
00000030: 39ec 913d 93ac 20bd f2c3 b73d c8a0 dabd
00000040: 3103 903d 64f4 15be e20b 3f3d a6be 0fbe
00000050: 54ca 46bd 48d2 31bd 1d06 e9bd c380 923d
00000060: 5cb9 b63d ad1c eabc 2375 c2bd 103a 513d
00000070: 6499 c53c cdfb 11be e15b 393d 0f41 12be
00000080: 35af 06be 5823 f23c 2318 a0bd a266 84bd
00000090: 5644 46bd 3375 f43c 0d93 f5bd 5f83 8a3c
000000a0: 2306 28bd e18d b3bd c3b0 0dbd ac48 7ebd
000000b0: c3f0 cb3d 596f 813d 586e 963d 8fab 85bd
000000c0: 36a0 9a3d bc50 563d 078f dfbd 741a 4f3d
000000d0: cca1 523c d334 8ebd a61a b73d b160 c0bd
000000e0: 7dea fabd ecf7 b83d c1b8 7dbd 701a c33d
000000f0: d377 96bc 7f1f 25bd 74b9 61bc d1fa 2b3d
00000100: a300 c9bd 8df1 273c 710b 3d3d e620 a43d
00000110: 2bb9 9ebe b4e8 2fbe 9e2a 583d 7b50 a53c
00000120: 0921 a73d 9d95 883d 5b5f e8bd 5e42 edbd
00000130: 281c f13d 1ad2 d6bd a788 1b3e fdc1 023d
00000140: 2a05 28be 2e78 7e3d 896b 42be 19dc b73d
00000150: 56fd 7e39 defa 94be c5cc 71bd e11c 913d
00000160: e707 babd 2bd4 063e 2615 113e 2010 b43d
00000170: ba29 10bd 70f5 0ebe 6e0a fcbc 69f9 febd
00000180: b1ba c6bd f8ad 393e 18d4 243c 4e67 7fbe
00000190: 1443 80bd df4a d7bd e830 1cbc ecdd a4bd
000001a0: 4c70 9c3c 70cf 75be dee0 9fbc 8bba 0f3d
000001b0: bbde a4bc 71b0 8a3d d728 7c3d 2707 c13d
000001c0: 4c5a c0bd 2495 ecbd efbe 04be 557d 85bd
000001d0: 410e 0bbe 9a78 a13c c708 f63c f73b 8c3d
000001e0: b3e8 75bd 7843 273d 8c1d b73d 3ebc 0d3e
000001f0: 3bbb f0bc 2949 11be 3d4c 99bc 7b22 26be
00000200: e4ca 273d 297e f7bd aeeb e6bd 989c a03d
00000210: 52cf b6be e43d 69bc 196f ecbd d663 bebd
00000220: 0cf2 2cbd e1e6 68ba d9c7 e9bd 19d6 88bd
00000230: fa25 85bd 707f e8bc 2e9b 43be c7aa a9bd
00000240: ea72 c8be 29cc 2dbd 0923 953e 8f9f 053e
00000250: e1bd 8b3d 35f3 493c 0ce8 3cbd ae0a 183e
00000260: 2abf bebe abf6 083e a15e a1be ab4a cdbd
00000270: 16c7 2ebd 7717 253e 8ad2 3c3c 9245 923d
00000280: 1eb5 42bc e93d 093e a640 af3d 2c02 07be
00000290: 9bd5 39be 5ae7 d4bc bc9b 3b3d 35a6 a53d
000002a0: ef31 623c e2b7 1ebe 2881 db3c 96bc 9e3d
000002b0: 6e64 8a3d 6a9f 90be 9123 213d 33dd 833d
000002c0: 1af4 39bc b52a 863c bde9 3c3b 7abd 953e
000002d0: 1408 65bd eed8 1b3e d61e be3c b4dd 143d
000002e0: 71b9 653d f3a0 cdbc 5f24 a33c 251c 80be
000002f0: 60f0 253e 3728 62be db18 d43b b145 00be
00000300: 98f2 49bd 2f10 76b9 2666 01bd 308d b73c
00000310: 1e2f edbd c3bd 33bd ecbc 523d 6006 a23c
00000320: 768a c9bd b2f4 10be 6cbf 9f3d 7e30 adbc
00000330: ec53 08be 0f19 a3bd 824f 803d 0ced c4bd
00000340: 97b5 76bd dc49 04be a0cf 1a3d 36e3 13bd
00000350: 75a6 6dbd 58f2 cfbc 00ee f6bb 807b a1bc
00000360: 62cf 8fbd bc16 893d dec5 83bd 06ba 0dbe
00000370: 7f9a c63b bb27 e0bd 15a7 bb3c a413 4ebd
00000380: bc92 02be 609e 07bd 1881 a4bc 8c57 873d
00000390: 3029 9d3d 6baa f9bd 8447 f13b 2335 7ebd
000003a0: ec8f a23d e476 89bd 4880 cabd 2d25 5a3d
000003b0: 2411 8d3d 9fd1 47bd 4f54 22bc 1d2e 523d
000003c0: 68de debd 5ef2 bdbd d0c1 3e3c ad2d 93bc
000003d0: c219 adbd 923b a5bd f953 0abe f01f 553c
000003e0: 2cb5 12be a47f 55bd 6f71 82bd f7e2 c73c
000003f0: e59c 0abd ccb4 3fbd 6efb ddbd b95e 0bbe

fc1.bias f4 [128]
-0.14459828 0.06804848 -0.017737078 0.02381977 -0.10749094 -0.10354639 -0.04545996 0.010761972
-0.004401684 -0.108293556 -0.03553944 0.0672519 0.06653806 0.08577591 -0.10621287 0.07403216
0.04479427 -0.0011919196 -0.045626752 -0.042360634 0.14343208 -0.122943304 -0.102931656 -0.04000044
-0.06762959 -0.11075951 -0.094109334 0.05455057 -0.06486622 0.0075167585 -0.11289511 0.017834146
-0.057230774 0.07354421 -0.114401065 -0.06502945 -0.10284321 -0.079514846 -0.12411992 0.02227338
0.06370428 -0.025556896 -0.092763565 -0.20542358 -0.19346672 -0.029814774 -0.18707718 -0.017164046
-0.031596396 -0.06417044 -0.08424575 -0.053084154 -0.174886 -0.0574898 0.02779512 -0.100140415
0.11380153 -0.027605014 -0.20603862 -0.09097006 0.018716116 0.08268627 -0.053070616 -0.050972916
0.12440206 -0.12608783 -0.110653654 -0.08187533 -0.12157924 -0.14909168 -0.011341216 0.14415053
-0.13501863 0.093315765 -0.058508497 -0.018788503 -0.052555725 -0.0022744343 0.029347857 -0.030499825
-0.08351766 -0.065836474 -0.031249238 -0.0031932434 -0.007844106 -0.16594587 -0.10746718 -0.031523895
0.0007089738 0.0130692385 0.13997601 -0.08137945 -0.021556342 -0.09872048 -0.06267275 0.094935566
-0.022875866 0.016033597 0.03725256 0.09926208 0.042562384 -0.01345788 -0.030849893 0.017231049
-0.017962508 0.021270163 -0.08303447 -0.09258882 0.1501056 -0.12775724 0.056417324 0.048102856
0.049420234 -0.09146019 -0.036794394 -0.0974694 -0.0040267683 -0.0622792 -0.10765783 -0.094996214
0.0005789653 -0.029348211 0.004166226 -0.06437957 0.043136567 0.17181748 -0.11171139 -0.09135623
00000000: 9211 14be 005d 8b3d 594d 91bc ae21 c33c
00000010: 3624 dcbd 2110 d4bd 3934 3abd fb52 303c
00000020: 003c 90bb 03c9 ddbd ce91 11bd 5dbb 893d
00000030: 1b45 883d 48ab af3d 2286 d9bd 2c9e 973d
00000040: 327a 373d 2f3a 9cba 1ee3 3abd 5882 2dbd
00000050: dcdf 123e b3c9 fbbd d5cd d2bd 80d7 23bd
00000060: 6281 8abd e2d5 e2bd 65bc c0bd 6b70 5f3d
00000070: 95d8 84bd 244f f63b 8d35 e7bd ea18 923c
00000080: d16a 6abd 599e 963d 1b4b eabd 292e 85bd
00000090: 769f d2bd aed8 a2bd 9632 febd aa76 b63c
000000a0: 6477 823d b25c d1bc d3fa bdbd 8f5a 52be
000000b0: 241c 46be 1d3e f4bc 2991 3fbe 9d9b 8cbc
000000c0: 396b 01bd cb6b 83bd 0989 acbd c56e 59bd
000000d0: 5115 33be 6d7a 6bbd 97b2 e33c 6b16 cdbd
000000e0: c710 e93d e923 e2bc cafb 52be 834e babd
000000f0: 8a52 993c 6b57 a93d 9360 59bd fac8 50bd
00000100: 82c6 fe3d 2b1d 01be 629e e2bd 41ae a7bd
00000110: 89fe f8bd 7dab 18be 82d0 39bc 329c 133e
00000120: 5342 0abe 561c bf3d 9ba6 6fbd 59ea 99bc
00000130: ac44 57bd ad0e 15bb eb6a f03c c5da f9bc
00000140: 4f0b abbd 46d5 86bd 67fe ffbc bc45 51bb
00000150: 9184 00bc b7ed 29be c117 dcbd 331f 01bd
00000160: 6dda 393a 5c20 563c df55 0f3e 45aa a6bd
00000170: ed96 b0bc f72d cabd 925a 80bd 946d c23d
00000180: 2b66 bbbc e458 833c 2496 183d eb49 cb3d
00000190: e555 2e3d 717e 5cbc eab8 fcbc 2128 8d3c
000001a0: 1c26 93bc c43e ae3c fa0d aabd 359f bdbd
000001b0: 48b5 193e cbd2 02be da15 673d 8007 453d
000001c0: df6c 4a3d 7b4f bbbd b8b5 16bd 099e c7bd
000001d0: fbf2 83bb 7918 7fbd b57b dcbd 608d c2bd
000001e0: b4c5 173a a96b f0bc d684 883b 70d9 83bd
000001f0: f8af 303d ecf0 2f3e f1c8 e4bd fa18 bbbd

fc2.weight f4 [1, 128]
-0.0062568435 -0.055912014 0.05128399 0.025183905 -0.025838045 0.059121497 -0.0075680288 0.06246986
-0.055998735 0.04935005 0.003989401 0.061593547 -0.06849695 -0.0718549 -0.041529693 -0.08813228
-0.054870524 -0.047104616 -0.06651015 0.05513645 -0.08322999 0.08508314 0.08587929 0.050743986
0.059225637 0.026914248 -0.06486749 -0.011446322 0.027859766 -0.07936889 0.03430258 -0.024325855
0.04532691 0.018418737 -0.0046736444 -0.027569195 0.060503695 -0.05751539 0.034730334 -0.045185234
0.00823489 -0.059784897 -0.067880444 0.04658956 0.109955266 -0.009436084 0.05625779 0.034388617
0.0272492 -0.01086557 -0.037202273 0.12552005 0.037377518 -0.011358417 -0.06310401 0.019370686
0.25558132 -0.062018983 0.038746584 0.034765624 0.007723925 -0.006284481 -0.064874806 0.047686715
0.039728556 0.08024329 -0.047841005 0.013732771 -0.031852443 -0.0046036197 0.034176745 -0.018958285
0.036567338 0.034360915 0.045083012 -0.07629623 -0.0013298721 0.06814258 0.04780402 -0.05798687
0.028966734 -0.036978498 -0.11019574 -0.061873846 -0.020837242 0.044998918 0.050352365 -0.0034488197
-0.041206215 -0.025520718 -0.015247073 -0.056389008 -0.013132286 -0.008017116 0.0518602 -0.017885542
0.03330681 0.031186836 -0.049487047 -0.06392977 -0.0067955684 0.04557691 0.0063283695 -0.038145624
-0.07267026 -0.04833341 0.030907197 -0.027399281 -0.012824062 -0.07482105 -0.028213982 -0.0450367
-0.018795297 0.0009186205 -0.09556004 -0.018756894 0.013885315 0.025699696 -0.06716087 -0.04240007
-0.025613645 -0.058573756 0.013855463 0.0594078 0.032795522 -0.013528203 0.03005868 -0.06457145
00000000: 3506 cdbb ff03 65bd 290f 523d 7a4e ce3c
00000010: 4faa d3bc 6229 723d 3afd f7bb 65e0 7f3d
00000020: ee5e 65bd 4723 4a3d 85b9 823b 8449 7c3d
00000030: 2148 8cbd a928 93bd 0a1b 2abd b27e b4bd
00000040: eabf 60bd c5f0 40bd 7936 88bd c2d6 613d
00000050: 7c74 aabd 1240 ae3d 7be1 af3d edd8 4f3d
00000060: 9596 723d 457b dc3c 3fd9 84bd 5b89 3bbc
00000070: 2a3a e43c 288c a2bd dd80 0c3d 0447 c7bc
00000080: b6a8 393d e4e2 963c 5f25 99bb cbd8 e1bc
00000090: b9d2 773d 4295 6bbd 6541 0e3d 2714 39bd
000000a0: a2eb 063c 02e1 74bd e704 8bbd b2d4 3e3d
000000b0: 3a30 e13d ce99 1abc 926e 663d 14db 0c3d
000000c0: b739 df3c 8105 32bc 6961 18bd 5488 003e
000000d0: 2b19 193d a718 3abc ad3c 81bd 46af 9e3c
000000e0: 8edb 823e 9e07 7ebd bdb4 1e3d 6666 0e3d
000000f0: fb18 fd3b 0cee cdbb 15dd 84bd 2553 433d
00000100: 69ba 223d 9856 a43d eef4 43bd 6bff 603c
00000110: b577 02bd f6d9 96bb eafc 0b3d 684e 9bbc
00000120: a2c7 153d 08be 0c3d f7a8 383d 3341 9cbd
00000130: 1a4f aeba 568e 8b3d 26ce 433d a483 6dbd
00000140: a54b ed3c c476 17bd 4eae e1bd 6e6f 7dbd
00000150: ddb2 aabc c950 383d 483e 4e3d 9805 62bb
00000160: d9c7 28bd d310 d1bc dcce 79bc 29f8 66bd
00000170: cd28 57bc 395a 03bc 5c6b 543d b384 92bc
00000180: b96c 083d 897b ff3c eeb2 4abd 9ced 82bd
00000190: 5cad debb dbae 3a3d 365e cf3b 963e 1cbd
000001a0: 25d4 94bd 41f9 45bd 1731 fd3c 7574 e0bc
000001b0: 041c 52bc c73b 99bd 0221 e7bc 6778 38bd
000001c0: 98f8 99bc 94cf 703a fbb4 c3bd 0fa8 99bc
000001d0: 3b7f 633c 2b88 d23c a38b 89bd b2ab 2dbd
000001e0: b5d3 d1bc 09eb 6fbd 0602 633c 9855 733d
000001f0: 9954 063d 65a5 5dbc 9f3d f63c 093e 84bd

exp_avg f4 [16, 48]
-8.02426e-07 1.6778766e-05 4.351817e-06 -1.9087822e-05 7.780704e-06 -1.0722032e-05 0.00015360005 -1.4765506e-05
9.259693e-06 -4.870464e-05 -4.2921642e-06 9.299784e-06 1.438539e-06 3.8434457e-05 6.6749667e-06 5.183838e-05
2.1100155e-05 7.4638438e-06 2.8223763e-05 0.00010797221 6.3949024e-05 0.00013713355 5.678775e-05 0.00010797221
0.03177654 -0.00034387544 0.0015844628 0.00034535775 -0.00082330464 -0.0005876708 -0.00061443873 -0.0008734327
-0.0012871289 -0.00079766684 -0.000781645 -0.00071715814 -0.00016317947 -0.00073704554 -0.00047939128 -0.00070537534
-0.00029635863 4.406166e-05 -0.0011984397 -0.0006109869 -0.0006171916 5.6059154e-05 0.00089077314 -0.0006750939
2.4259682e-06 -5.7351485e-06 5.905089e-06 2.1466442e-06 -2.7127347e-05 6.812602e-06 1.8427872e-05 -6.0515e-07
-5.5058326e-06 -2.936211e-05 -4.7649596e-07 2.7617657e-06 4.1803846e-06 -3.5750345e-05 -1.013023e-05 6.969595e-06
-8.839763e-06 -9.447736e-07 2.8650353e-05 -6.666107e-05 -6.731328e-05 2.2505283e-06 1.8865812e-05 -6.666107e-05
-0.014754177 0.00012651425 -0.00016799853 3.1602664e-05 -5.0358844e-06 -4.1289743e-05 -3.9232464e-06 0.00020174573
-0.00011433629 0.00013124768 0.00020663429 -9.088482e-05 8.3701205e-05 -0.00013977742 -0.00019268725 0.00010852502
-0.00025590396 -0.00014249397 0.00020216838 6.988373e-05 2.6491487e-05 4.1657804e-05 0.0001607646 5.5121076e-05
-4.7076708e-07 -1.2292242e-05 -8.223175e-06 -1.5909549e-05 -5.2746673e-05 -8.3786435e-06 -5.0049894e-06 -6.264553e-06
-6.0831603e-06 -2.1330452e-05 -3.1989389e-06 -2.2179423e-05 -1.4683035e-05 -1.3460956e-05 -2.0805444e-05 -1.4473154e-05
3.4393108e-06 -2.077572e-05 3.9752365e-05 -3.9309566e-06 -0.000116214535 -0.0001092906 2.241593e-05 -3.9309566e-06
0.00030584756 0.00014238874 -0.0009109634 -0.00027037383 0.00027657257 0.0009385525 0.00060377165 0.0006845836
0.00071621576 0.0006177118 0.00065196626 0.00057705 0.0004090526 0.00032958164 0.00020813328 0.00066288706
0.00021071608 -0.00022887751 0.00046941263 0.00033590838 0.0005621447 0.00045068233 -1.9484516e-05 0.0002771757
-3.0735075e-06 -4.770064e-06 -6.475552e-07 1.2699551e-06 9.953e-06 -2.12083e-06 9.341464e-06 2.360536e-06
-4.6170572e-07 -1.5833699e-06 1.2745516e-06 4.05111e-06 -1.2274413e-06 1.169342e-06 -1.1505264e-06 6.045038e-06
4.507725e-06 -1.6021824e-05 -7.655033e-06 -3.3156612e-06 8.116988e-06 1.2312995e-05 -1.9169138e-05 -3.3156612e-06
-0.0004995386 7.559305e-06 -0.00020807677 -2.9978299e-05 3.681026e-05 -5.6041456e-05 -4.0536608e-05 -0.00016853314
-2.3027924e-05 2.7225069e-05 -2.3021148e-05 3.9719045e-05 2.4763416e-05 0.000115874216 7.9205434e-05 -7.505815e-05
0.0001053872 0.00021193286 -9.185575e-06 1.1784289e-06 3.204087e-05 0.00017986662 0.00017360742 8.391761e-05
-2.2147826e-06 -4.2694633e-06 -1.460607e-06 8.5953576e-07 3.0240872e-06 -2.8961819e-07 1.4577173e-05 2.6219554e-06
8.7692035e-07 3.0015972e-06 1.0148821e-05 4.4054073e-06 1.4527698e-06 1.8563336e-06 -7.834572e-06 1.4352077e-05
-2.9223195e-06 3.7427299e-06 -1.1537115e-05 -1.7098482e-06 2.8259354e-05 1.2848266e-05 -1.0716703e-05 -1.7098482e-06
-1.11071795e-05 -2.0035877e-05 0.00011709923 4.4640976e-05 -9.866936e-05 -0.00033557342 -0.0001669641 -0.00017208567
-0.00022168945 -0.00015476135 -0.00020358116 -0.00010446315 -0.000107209846 2.350233e-05 9.3645824e-05 -0.00028184277
8.783256e-06 0.0002599377 -0.00023122174 -0.00016645035 -0.000118717595 -4.4583965e-05 5.843991e-05 -3.357063e-05
-4.7214337e-07 -1.6703165e-06 -4.14311e-06 -2.6774505e-06 4.965889e-06 -4.9873624e-06 1.4969342e-05 -1.2821531e-06
-1.2041706e-05 3.314698e-07 9.3838635e-06 -1.5381594e-05 -5.6585704e-06 2.2093998e-05 -8.266714e-06 -6.608002e-06
00000000: 4b66 57b5 20c0 8c37 d305 9236 c91e a0b7
00000010: df89 0237 c7e2 33b7 b30f 2139 5eb9 77b7
00000020: 145a 1b37 3648 4cb8 6905 90b6 4506 1c37
00000030: d313 c135 af34 2138 87f9 df36 096d 5938
00000040: 3d00 b137 ee71 fa36 12c2 ec37 246f e238
00000050: 5f1c 8638 82cb 0f39 622f 6e38 246f e238
00000060: 1e28 023d 2e4a b4b9 c0ad cf3a 2211 b539
00000070: 0ad3 57ba eb0d 1aba 4912 21ba 14f7 64ba
00000080: e1b4 a8ba 841a 51ba 4fe7 4cba abff 3bba
00000090: 281b 2bb9 4a36 41ba cf56 fbb9 f0e8 38ba
000000a0: 9560 9bb9 d9ce 3838 f714 9dba a32a 20ba
000000b0: 07cb 21ba 0f21 6b38 c682 693a c9f8 30ba
000000c0: d1cd 2236 8d70 c0b6 5424 c636 110f 1036
000000d0: 898f e3b7 ce97 e436 8e95 9a37 9771 22b5
000000e0: bebe b8b6 a74e f6b7 1bd1 ffb4 c656 3936
000000f0: 3b45 8c36 a4f2 15b8 02f5 29b7 5ddc e936
00000100: 7e4e 14b7 599c 7db5 2a56 f037 64cc 8bb8
00000110: 8b2a 8db8 c807 1736 0642 9e37 64cc 8bb8
00000120: 81bb 71bc e9a8 0439 c328 30b9 1a8d 0438
00000130: ebf9 a8b6 862e 2db8 6ea4 83b6 b58b 5339
00000140: d4c7 efb8 889f 0939 f8ab 5839 6b99 beb8
00000150: be88 af38 3791 12b9 170c 4ab9 ed97 e338
00000160: d92a 86b9 6f6a 15b9 29fd 5339 8b8e 9238
00000170: 093a de37 bab9 2e38 eb92 2839 ce31 6738
00000180: bcbd fcb4 c73a 4eb7 45f6 09b7 7f75 85b7
00000190: 4f3c 5db8 0092 0cb7 88f0 a7b6 1a34 d2b6
000001a0: f31d ccb6 ccee b2b7 5aad 56b6 f30d bab7
000001b0: 2857 76b7 5ed6 61b7 5a87 aeb7 b9d1 72b7
000001c0: e9ce 6636 8547 aeb7 c7bb 2638 a9e6 83b6
000001d0: 34b8 f3b8 f232 e5b8 d809 bc37 a9e6 83b6
000001e0: 2a5a a039 304e 1539 b8cd 6eba f6c0 8db9
000001f0: f100 9139 3109 763a 6e46 1e3a a175 333a
00000200: 6dc0 3b3a f0ed 213a b7e8 2a3a 2c45 173a
00000210: 1c76 d639 b3cb ac39 5a3e 5a39 99c5 2d3a
00000220: abf3 5c39 d7fe 6fb9 7f1b f639 dc1c b039
00000230: e45c 133a 8f49 ec39 ae72 a3b7 e551 9139
00000240: 7542 4eb6 8a0e a0b6 a8d3 2db5 5373 aa35
00000250: cffb 2637 9553 0eb6 48b9 1c37 b369 1e36
00000260: 5ae0 f7b4 2d84 d4b5 4211 ab35 c5ee 8736
00000270: 90be a4b5 49f2 9c35 c96b 9ab5 7bd6 ca36
00000280: 1041 9736 9b66 86b7 1e6e 00b7 a082 5eb6
00000290: 332e 0837 e993 4e37 69cd a0b7 a082 5eb6
000002a0: 78f3 02ba efa5 fd36 2f2f 5ab9 e879 fbb7
000002b0: b764 1a38 0e0e 6bb8 da05 2ab8 45b8 30b9
000002c0: 172c c1b7 6461 e437 8a1d c1b7 0098 2638
000002d0: 08bb cf37 7f01 f338 181b a638 8a68 9db8
000002e0: 5203 dd38 4b3a 5e39 bf1b 1ab7 822a 9e35
000002f0: 9f63 0638 949a 3c39 630a 3639 ecfc af38
00000300: ada1 14b6 6942 8fb6 130a c4b5 d9ba 6635
00000310: 6cf1 4a36 d27c 9bb4 7b90 7437 daf4 2f36
00000320: 8265 6b35 0c6f 4936 db44 2a37 29d2 9336
00000330: cafc c235 2327 f935 3b71 03b7 b4c9 7037
00000340: 111d 44b6 9c2b 7b36 888f 41b7 f07d e5b5
00000350: 800e ed37 e28e 5737 e4cb 33b7 f07d e5b5
00000360: f958 3ab7 b812 a8b7 2c93 f538 e23c 3b38
00000370: b6ec ceb8 e7ef afb9 1613 2fb9 e571 34b9
00000380: 4f75 68b9 6f47 22b9 6778 55b9 3a13 dbb8
00000390: d9d5 e0b8 df26 c537 b863 c438 4cc4 93b9
000003a0: cc5b 1337 3f48 8839 1d74 72b9 2d89 2eb9
000003b0: 06f8 f8b8 abff 3ab8 601d 7538 31ce 0cb8
000003c0: e47a fdb4 a32f e0b5 0b05 8bb6 40ae 33b6
000003d0: a9a0 a636 1e59 a7b6 d624 7b37 7216 acb5
000003e0: bc06 4ab7 ddf4 b134 636f 1d37 b907 81b7
000003f0: c0de bdb6 8056 b937 44b1 0ab7 4eba ddb6
