paper_pretrained_models/scoring_of_docking_models/all_models/fold5_treg_yfnat_b128_e20_lr0.001_9.pt (torch, 150943 bytes, 33 tensors)

conv1.fc.weight f4 [16, 48]
000000 cb 49 8e 3f d4 4b 2c 3e 12 ac 1c 3f 01 4c df 3e
       1.111627 0.16825801 0.6120006 0.43612674
000010 c1 64 88 bc b4 2e ed 3c 1a 73 84 3e 3a 70 20 bf
       -0.016649606 0.028952934 0.25869066 -0.62671244
000020 85 18 0d 3d b6 37 d1 bd 2a a2 d2 be 71 92 76 be
       0.03444721 -0.10215704 -0.41139346 -0.240793
000030 4c 81 a9 bf cc a8 29 3e e4 63 5d be 71 54 3c 3f
       -1.3242583 0.16568297 -0.21620136 0.7356635
000040 17 5c 84 3e 87 79 93 be 1e 0e 05 3f 82 d2 2d be
       0.2585151 -0.28803656 0.51974666 -0.16974834
000050 76 07 a8 be 84 e0 04 3f 7b 7c 88 3d 5f f3 53 3c
       -0.32818192 0.51905084 0.06664368 0.012936442
000060 4d 39 c7 bd 06 93 bd be 06 1b 24 be 34 d1 e2 be
       -0.09727726 -0.37026232 -0.16025934 -0.44300234
000070 72 4f a5 3e da fd 71 bd d1 5a 77 bd 93 db 33 be
       0.32287174 -0.059079982 -0.060389344 -0.1756423
000080 1c 2f 9d 3e f5 90 a2 be a5 70 92 bb 65 36 cc 3e
       0.30700004 -0.31751218 -0.0044689947 0.3988525
000090 92 91 b3 3d 7b c6 d4 3c d1 be a5 bd 99 5c b8 3e
       0.08768 0.02597355 -0.08093036 0.36008146
0000a0 11 87 34 3e ef 63 14 3e b2 e7 c0 3d c4 2b 26 be
       0.17629649 0.14491247 0.094191924 -0.16227633
0000b0 f1 03 24 3d 76 0f 4d bd 01 5c 28 3e 0f 8a 85 bd
       0.04004282 -0.050063573 0.16441347 -0.06520473
0000c0 1b a3 6a 3e 5d 26 4d 3e e8 23 47 be 2b 8c c0 3d
       0.22913782 0.20034166 -0.19447291 0.09401735
0000d0 65 19 1f bf fa e3 55 bf 37 ce 1d be 90 7f 24 bf
       -0.62148124 -0.8355099 -0.15410696 -0.64257145
0000e0 5f 1e 88 bd a7 81 08 bf c2 da 2d 3f 5f d4 67 bf
       -0.06646418 -0.53322834 0.6791192 -0.9055843
0000f0 92 33 f2 bf cc 0c 12 bb c7 a5 3e 3f d5 88 1d bc
       -1.8921988 -0.002228546 0.74471706 -0.009615143
000100 e9 a3 49 bf de 72 da 3e 02 d7 6a 3f 93 34 5a be
       -0.7876573 0.42665762 0.91734326 -0.21309118
000110 bf 85 ec be 87 e9 fe bd 2e ed a1 3e 40 0a 40 be
       -0.4619579 -0.124468856 0.31626266 -0.1875391
000120 2e 5d 92 bb be 4a ae 3e 3e 82 02 bd 5b 0d 46 3d
       -0.0044666743 0.340414 -0.03186249 0.04835258
000130 c0 a3 c9 3d 2f 98 3b be 01 1c 6c bd d9 ef 91 3d
       0.09845686 -0.18319772 -0.057643894 0.071258254
000140 07 0c 78 3e 91 05 a0 3d aa 0c a0 3d 56 1c 86 be
       0.24223338 0.07813562 0.078149155 -0.26193494
000150 98 8a 3c 3e d4 cc e8 bd 54 a9 a5 3d 9d f9 60 3c
       0.18412244 -0.11367193 0.080889374 0.013731387
000160 c8 a7 ed bd a4 81 a7 3d 77 b4 6d bd c4 13 63 bb
       -0.11604267 0.08179024 -0.058033433 -0.0034649232
000170 1d 5f 34 be a7 06 41 be 23 0c da bc 30 70 f9 3d
       -0.17614408 -0.18850194 -0.026617115 0.12179601
000180 c7 b9 1e bf 4d f3 75 3e a5 c0 10 bf 02 55 86 bf
       -0.62002224 0.24018593 -0.5654395 -1.0494692
000190 df d0 01 3e 1b ae 99 be 74 16 ae be 2e 7b 29 3f
       0.12677334 -0.30015644 -0.34001505 0.6620358
0001a0 47 6c de bd 38 a3 78 3e b7 46 c3 3e 26 46 e6 3e
       -0.10860496 0.24281013 0.3813989 0.44975394
0001b0 e1 48 7a be 53 3a 63 bf 66 75 e2 3d 82 06 cf 3d
       -0.24441864 -0.8876087 0.11057548 0.10108663
0001c0 14 62 f4 be a1 da e0 3e 60 fc dd be 99 20 a0 3e
       -0.47731078 0.439168 -0.4335661 0.3127487
0001d0 19 70 51 3e e8 5d 84 bd 0d 56 2d be 64 86 02 3e
       0.20452918 -0.06463224 -0.16927357 0.12746578
0001e0 99 fb 95 bc f8 e6 a4 3d 37 5a 46 bd 5f 68 42 bd
       -0.018308448 0.08051866 -0.04842588 -0.047462817
0001f0 68 64 c0 3d 72 1c b0 bd 0e d3 e2 3d 63 6a b0 bd
       0.09394151 -0.085991755 0.11075412 -0.08614042
000200 6e 3f 2e be f3 18 1e bd 87 47 1f 3e 94 55 65 be
       -0.17016384 -0.038598012 0.1555463 -0.22395927
000210 b2 0b 65 be f3 89 9b bd 7b b3 a0 3d b2 87 42 be
       -0.22367743 -0.07594671 0.07846733 -0.18997076
000220 aa a4 3f 3e 9b 8b 5d 3e c0 a5 f4 3c 69 7d 5b 3e
       0.18715158 0.21635287 0.029864192 0.21434559
000230 a6 69 98 bd d4 f4 21 3e f4 84 06 3f 0b be 84 bd
       -0.07442026 0.15816051 0.5254662 -0.0648156
000240 51 5f d2 3f 08 7a fe bd 6a 9c 1f be 20 48 a8 3f
       1.6435338 -0.12425619 -0.15587011 1.3147011
000250 07 6a c9 be c7 da bd bf 58 0e 01 be 5a 6a 35 bf
       -0.39338705 -1.483239 -0.12603128 -0.70865405
000260 34 57 ca 3d 42 c6 c7 3e 15 62 2b bf e5 d9 8c be
       0.09879914 0.39018446 -0.66946536 -0.2750999
000270 ae 09 85 be 0d 58 ec bf 7c 49 e9 3f fe 19 01 be
       -0.25983948 -1.8464371 1.8225551 -0.12607571
000280 c6 66 d4 bd 3c 9f b5 3e ee c8 84 3e 7c 26 ac bd
       -0.10371165 0.3547305 0.25934547 -0.08405778
000290 53 76 a1 bb 42 10 66 3d 65 ed b2 3e 44 ed f0 bd
       -0.0049274354 0.05616785 0.34946743 -0.11764005
0002a0 fe 49 02 3c 77 38 98 be 70 b8 94 be 1a 90 5d be
       0.007952211 -0.2973058 -0.29046965 -0.21637002
0002b0 65 57 99 3d 19 0a 85 bd 91 e7 2c bd ff 75 c2 3d
       0.07487372 -0.064960666 -0.042213026 0.09495162
0002c0 63 9e 88 3e bc 65 12 3e ca db a1 3e c3 4b 04 be
       0.2668334 0.14296621 0.31612998 -0.12919526
0002d0 91 29 4a 3e b7 39 77 3e b1 84 8c bb 1c 18 06 bd
       0.19742419 0.2414311 -0.004288279 -0.032737836
0002e0 ee f6 ba bd 50 81 9c bd 21 34 5a bd db 84 47 be
       -0.09129129 -0.07641852 -0.05327237 -0.19484274
0002f0 77 31 5d be 70 07 56 bd 3f a9 86 3e 56 b2 6b bc
       -0.216009 -0.052253187 0.26301 -0.01438578
000300 10 83 db 3e 9f a3 55 bd cb d9 43 bd f3 21 29 be
       0.4287343 -0.052157994 -0.047815125 -0.16516857
000310 f0 20 36 bf bc 88 c1 3d 65 03 92 3f ed b7 9f bc
       -0.7114401 0.09449908 1.1407286 -0.019496882
000320 47 21 a3 3e 2e b2 25 be bb 96 4a 3f 8e e6 27 be
       0.31861326 -0.16181251 0.79136246 -0.16396543
000330 3d f9 a6 3f 77 e0 1e 3f 6e 4d 24 3e 6f 62 a8 be
       1.3044811 0.62061256 0.16045162 -0.328876
000340 69 08 69 bf c8 2c 3c 3f 30 c0 f3 be ea 89 14 bf
       -0.9102846 0.7350583 -0.47607565 -0.5802294
000350 90 a1 17 3f 66 1f 9f 3e 9e 2f 9b be f1 ef 0b bf
       0.592309 0.31078643 -0.30309767 -0.54662997
000360 e7 3e de 3c a3 06 3d 3e 04 ec 80 3c f0 9c b9 be
       0.027129604 0.18459563 0.015737541 -0.36252546
000370 dc 00 b0 bd de 6f ce bd c3 71 03 bd 9b cb 0a be
       -0.08593914 -0.10079931 -0.032090914 -0.13554232
000380 db cc 1d be 2b 7d e0 3d f5 97 bc 3e c7 b8 0c 3e
       -0.15410177 0.10961374 0.36834684 0.13742362
000390 3b ad 07 be 78 ef 45 3e 73 e7 a5 3e a2 51 51 bc
       -0.13249676 0.19329631 0.32403144 -0.01277581
0003a0 14 e4 22 3e 04 a4 23 3e 88 b9 1f 3d 81 84 b8 be
       0.15907317 0.15980536 0.038995296 -0.36038592
0003b0 9d 40 4c 3d 27 d0 7b be df c9 b5 3e 9a 1c 26 3e
       0.049866308 -0.24591123 0.35505578 0.16221848
0003c0 8e dd d8 3e 44 81 d3 3e 9e 65 32 bf b5 83 84 3d
       0.42356533 0.4130956 -0.69686306 0.064704336
0003d0 68 75 85 be 76 bc 37 3e 4d ae 0b 3f cf cd dd 3e
       -0.26066136 0.17942986 0.54562837 0.43321082
0003e0 13 cc 3f 3d 16 b7 61 be 41 4e ec bd 7b 2f 09 3f
       0.04682548 -0.22042498 -0.11538363 0.53588074
0003f0 9c a0 8e bf cb b2 ef bd d2 be cc 3e 61 e1 2f be
       -1.1142764 -0.11704024 0.39989334 -0.17175819

conv1.fc_attention.weight f4 [1, 33]
000000 3c fd 33 3e bf 3b 08 be aa 36 89 3e 5d bb 65 be
       0.1757707 -0.13304041 0.26799518 -0.22434755
000010 d6 8c 3d 3d 93 51 ef 3b 85 cc 7d 3d a6 87 d7 bd
       0.04627689 0.0073034256 0.061962623 -0.1052392
000020 09 72 6b be 8a 27 ed 3c 19 40 7a 3e c2 fb 92 3d
       -0.2299272 0.028949518 0.24438514 0.07176925
000030 7c 3d 2a be d3 1f 2c 3e 0d c8 fb 3d 69 68 6d bd
       -0.16625017 0.16809015 0.12294016 -0.0579609
000040 29 18 24 be 99 d7 d2 bd 6a ab 40 3e 41 a3 36 bd
       -0.16024841 -0.10295028 0.1881539 -0.044589285
000050 3e 1a 56 bd 88 41 ec bc 88 6f 96 bb cb c0 46 bd
       -0.05227112 -0.028839841 -0.0045909323 -0.048523705
000060 f0 5f 3e 3e 48 f0 d4 3d 55 56 42 be 38 19 79 be
       0.18591285 0.103973925 -0.18978246 -0.24326026
000070 85 9a 44 3c 32 65 38 3e 1d 64 d9 3d 91 c3 fd bc
       0.011999731 0.18007353 0.10614798 -0.030977042
000080 1e 5f 65 bf
       -0.8959826

conv2.fc.weight f4 [32, 16]
000000 5c 7b 3f 3e 87 60 46 be 09 0d 25 be ce 2a 86 be
       0.18699402 -0.1937276 -0.16118254 -0.26204532
000010 12 30 14 3d 84 91 2e 3e 9e 76 82 be 8f 8d 0d 3e
       0.036178656 0.17047697 -0.25481123 0.13823532
000020 ce 68 8b bc 02 18 98 be 97 c8 db 3d 45 f7 17 bf
       -0.017017748 -0.29705817 0.10731619 -0.5936168
000030 a6 54 ce 3c cf 93 ca ba 41 7e cc 3d 8f 7e 87 3e
       0.025186848 -0.0015455427 0.099850185 0.26463744
000040 eb 1f 1d bd 0d 59 7c 3e 38 b4 51 be ba c8 7f 3c
       -0.038360517 0.24643345 -0.20478904 0.015611822
000050 7d 61 01 bf 6a 83 79 3b 5a c1 55 3d a9 f8 73 bd
       -0.5053938 0.0038072714 0.052186348 -0.059563313
000060 44 25 7f 3e 06 49 b1 be 61 f8 a0 3d bb 15 67 3d
       0.2491656 -0.34626025 0.078598745 0.05641721
000070 7c 9e 2f 3e fd 50 37 3c 86 9c fb bd 14 85 b8 be
       0.171503 0.011188743 -0.12285714 -0.3603903
000080 c5 4f 63 3d ba 38 4b bf 21 d3 a1 bd 2d e1 25 bf
       0.055495996 -0.7938343 -0.07901598 -0.64796716
000090 95 5c 17 3e ad 8d e4 bd d4 2e 85 3d d6 f9 84 3e
       0.14781411 -0.11159835 0.065030724 0.2597186
0000a0 7e cd b3 3e c4 e5 a7 bd c3 91 d7 3e 80 a7 ea be
       0.35117716 -0.08198121 0.42103395 -0.45830917
0000b0 41 9c fb 3d 6a 8c 9f be 2e 94 08 be 73 70 b7 be
       0.122856624 -0.31161815 -0.13337776 -0.3582798
0000c0 5d 76 85 3e da d0 ba bb 58 35 bc 3e 27 ed 0b be
       0.26066867 -0.0057011666 0.36759448 -0.13664685
0000d0 df 29 86 be 0a 0b 3c bd 45 2a 56 be 0d 4a 12 bf
       -0.2620382 -0.045908965 -0.20914562 -0.5714424
0000e0 80 71 12 3c 74 0a 71 be 76 7d 5a be 92 ed 10 3f
       0.008938193 -0.23539144 -0.21336922 0.56612504
0000f0 9f f3 84 3d 8f 4b f5 3e 2c aa e3 3d cd aa a4 bd
       0.064917795 0.4790921 0.11116442 -0.0804039
000100 3f 20 dc 3e a8 2a bd be 4f 01 3e be 37 08 f2 be
       0.42993352 -0.36946607 -0.18555187 -0.47271892
000110 b3 17 6b be f0 9a bc be 38 f7 d0 bc a6 fa 9c 3d
       -0.2295826 -0.36836958 -0.025508508 0.07664995
000120 d8 f7 d8 3d 98 f1 1c 3b 22 47 44 3e 68 a8 9f be
       0.105941474 0.0023947712 0.1916776 -0.3118317
000130 73 07 9f 3d 59 22 39 bd c1 bc 80 3d 41 95 75 3e
       0.07765093 -0.045198772 0.06286002 0.23982717
000140 3f 75 57 bf a6 76 af 3d d2 d7 de bd 11 1e 5a 3d
       -0.8416328 0.08567552 -0.10881008 0.05325133
000150 66 35 8d be c7 21 49 be 1c 98 f3 bb e0 ca 92 be
       -0.27579802 -0.19641791 -0.0074339043 -0.28670406
000160 7c 33 d5 3c 4e 86 d3 3d 2a 8f 48 3e a4 fc bb bd
       0.026025526 0.10328351 0.19585863 -0.09179047
000170 25 0f 0a be 34 8b f5 bd 7b a3 49 3e 73 46 83 be
       -0.1348234 -0.119894415 0.19691269 -0.25639686
000180 51 c3 af 3e 88 34 9f 3d 20 21 54 be 51 51 cb be
       0.34328702 0.077736914 -0.20715761 -0.39710477
000190 b7 9d b1 bd 35 4c 7f bd d1 d9 92 3e f6 dc 06 be
       -0.0867266 -0.062328536 0.28681806 -0.13170227
0001a0 46 32 1b be 63 9c 71 3d e8 7c 24 3e 4a ca c0 be
       -0.15155897 0.058987033 0.16063273 -0.37654334
0001b0 78 d2 9b bd 99 09 50 be 6a aa f1 3d f2 97 54 be
       -0.07608503 -0.20316161 0.11800082 -0.20761088
0001c0 e2 23 ef 3d 9e 38 19 3e 8d 7c 75 3c 74 de 0d be
       0.11676766 0.14963004 0.0149833085 -0.1385439
0001d0 ea a8 45 be 9f 32 8e 3c 26 eb 83 3d b1 28 99 be
       -0.19302717 0.017358122 0.064413354 -0.29913858
0001e0 09 ee e1 3b 5d 90 e5 be 36 6e d6 3c 1f 52 5b 3e
       0.006894831 -0.44836703 0.0261756 0.21418045
0001f0 d5 55 fd bd 7a 83 16 3e d6 ec 35 3e ca ae 92 bd
       -0.12369887 0.14698592 0.17766127 -0.071622446
000200 3d 58 fb be 61 3c 2b 3d d0 5b a9 3e 10 d2 0c 3e
       -0.49090758 0.04180563 0.3307786 0.13752007
000210 6c 72 65 3e 65 f4 9a bd 7f d1 b4 3d 6a 7f b4 3d
       0.2240693 -0.07566146 0.08829021 0.08813365
000220 2e 0d b5 3d 93 04 2d 3d 53 95 6f be 22 f0 0e be
       0.088404045 0.04224069 -0.23396806 -0.13958791
000230 86 2e 82 be 79 59 b2 3d e9 fc 40 be 4d 6a 64 3c
       -0.2542612 0.08708472 -0.18846478 0.01394136
000240 e9 a6 b8 3e 9f 9c a8 3d 1f ca 99 3e 8b 07 33 3f
       0.36064842 0.08232998 0.3003702 0.69933385
000250 57 8f 19 be 7c fa 9c bd f0 6a 14 3c 22 ae 93 be
       -0.14996086 -0.076649636 0.009058699 -0.2884379
000260 b3 8c f0 bc e1 6a af 3d 14 64 73 bd bd 58 a0 3e
       -0.029363966 0.085653074 -0.059421614 0.31317702
000270 97 3c 7a 3e 73 ef 77 be f4 4a 8a be 7e da 88 3d
       0.24437176 -0.24212436 -0.2701031 0.06682299
000280 64 52 2c bf 7b c0 fc bd ed 19 51 be 21 d6 3f be
       -0.6731322 -0.123414 -0.20420046 -0.18734027
000290 19 61 19 be 34 25 69 3e 80 a0 a9 be 1d 1d 47 ba
       -0.14978446 0.22768098 -0.33130264 -0.0007595586
0002a0 15 94 32 be 28 a7 03 be 7b fe 65 3d 82 b5 9c be
       -0.17439301 -0.12856734 0.056150895 -0.3060723
0002b0 03 b8 c2 be 5f 59 68 be 95 6a a0 be 02 db f5 3c
       -0.38031015 -0.22690342 -0.31331316 0.030011658
0002c0 9d fe dc 3e 17 c5 d1 be b3 8f a7 bd 0d 50 10 3f
       0.43163005 -0.4097068 -0.08181705 0.5637215
0002d0 a0 8e 93 bd 5d 20 a9 bc 6a 3e 8d 3c bb 94 af bd
       -0.07204938 -0.020645315 0.017241675 -0.0857329
0002e0 07 4b 2a 3e 84 02 b9 be e3 da 06 3f f1 58 d4 be
       0.16630183 -0.36134732 0.52677745 -0.41474107
0002f0 36 6c b8 bc 43 20 a0 3e 92 a5 0a 3d 41 f1 92 3c
       -0.022512536 0.31274614 0.033849306 0.017937304
000300 b6 d2 84 be e4 bf c9 3d 72 5e 1a 3e b0 7f c6 3e
       -0.2594201 0.09851053 0.1507509 0.38769293
000310 71 ab 56 bb fe 97 44 3d d5 81 ba 3d d9 c2 69 be
       -0.0032755996 0.047996514 0.09106795 -0.22828235
000320 3c 8e 94 be 7d 26 37 3d f0 8d f9 3e 54 3f 18 3f
       -0.29014766 0.04471444 0.48741102 0.5947163
000330 cb 0d 37 3e 97 81 90 3d 58 c6 d3 bd 3a ad 4d 3e
       0.17876355 0.07055967 -0.103405654 0.20085612
000340 3b 01 89 3e 79 85 d8 bb 1b 04 ef be 91 59 c8 3c
       0.2675875 -0.006607708 -0.4668282 0.024456771
000350 13 00 a6 3d ee 8d c9 3d fc c5 2b bc a0 60 c0 3d
       0.08105483 0.09841524 -0.010484215 0.0939343
000360 70 a5 51 3c db 7a bc bc be e2 11 3e 23 33 d2 be
       0.012795791 -0.0230078 0.14246652 -0.4105464
000370 5e 8d 2f 3e 30 66 02 bf 7c e3 1f 3b 37 f8 b1 be
       0.17143771 -0.50937176 0.0024397066 -0.34759685
000380 30 8b 65 bf 97 d5 50 be e4 09 11 be 77 f5 95 be
       -0.8966551 -0.20393978 -0.14163929 -0.29288837
000390 4b 04 33 3e c4 4d 37 be 90 e3 1a 3c 9d a9 d6 be
       0.17482106 -0.17900759 0.009453669 -0.4192628
0003a0 af 6c 1f 3d 1a ca 80 3c 7b f1 bf bd 22 e4 31 bf
       0.038922008 0.01572137 -0.093722306 -0.6948873
0003b0 75 d1 7c bc 81 d1 1a 3e 1a 66 ff 3d 10 74 57 bd
       -0.015430798 0.15118982 0.12470646 -0.05260092
0003c0 7e 28 14 3f 63 17 17 3d 67 f6 1d be b4 c2 80 be
       0.57874286 0.036887538 -0.15426026 -0.25148547
0003d0 f8 1e 9b bd e3 6c 13 be dc de 8a 3d 0f 79 f1 3d
       -0.07574266 -0.14397006 0.06780788 0.11790668
0003e0 ef 84 67 bc e1 0c 84 be 8d be d1 3e 20 c9 f5 3e
       -0.014130815 -0.25791076 0.4096569 0.4800501
0003f0 6d 6e 48 be 8c dd 4b 3c b3 e2 12 3e 02 3e 1c 3e
       -0.19573374 0.012442958 0.14344291 0.15258029

conv2.fc_attention.weight f4 [1, 65]
000000 55 65 73 3e c2 4e 89 bd 4d a3 0f bf 9a 50 93 3e
       0.23769124 -0.06704475 -0.5610855 0.28772432
000010 49 18 10 3f 58 54 18 3e 23 a6 13 bf 69 29 82 be
       0.56287056 0.14875925 -0.5767538 -0.25422218
000020 24 0a 34 bb 32 f8 c3 3e 66 a2 f6 bc 5f fc 98 be
       -0.0027471865 0.38275295 -0.030106734 -0.29880044
000030 71 3d 59 3e c1 be 8f be 83 9f 92 be 15 9b 28 be
       0.21214844 -0.2807522 -0.28637323 -0.16465409
000040 b6 ac 52 bf 57 7a a1 3e 19 8d 3e 3d 4c 95 17 3e
       -0.82294786 0.3153865 0.04652128 0.14803046
000050 23 9f 2a 3f 14 50 db 3e fb b4 74 bd 1f 3a 0f bd
       0.66649073 0.42834532 -0.05974291 -0.034967538
000060 e3 3a 08 be 1b 25 41 bb f0 cb 12 3f 25 0a 26 be
       -0.13303714 -0.002947158 0.57342434 -0.16214807
000070 98 73 ed be 2b b5 a3 3e 70 1a a6 3d ab 87 28 3f
       -0.46377254 0.31974158 0.08110511 0.6583201
000080 2d 0e e3 bc d8 d2 59 3e bf 73 b3 bb fb e4 c3 3c
       -0.02771672 0.21271837 -0.0054764445 0.023912897
000090 6f c8 df 3e 42 01 92 be 18 a8 31 3e dd e9 5c 3e
       0.43707606 -0.28516585 0.17349279 0.21573587
0000a0 9f 57 b8 be cf 4f 84 3e ad c4 04 bf 46 bf 01 3e
       -0.3600435 0.2584214 -0.51862603 0.12670621
0000b0 72 74 cf 3d da bd b7 bd 1c 64 1a be 72 1d 92 3e
       0.10129632 -0.08971758 -0.15077251 0.2853809
0000c0 ef ab c0 3d 99 76 01 3e ae 9d d4 be f2 a2 6f 3e
       0.09407794 0.12642898 -0.4152655 0.23402002
0000d0 ea 85 c1 bd 6a dd 7e bd 82 53 f8 3d 4f 6a 16 be
       -0.0944937 -0.062222876 0.12125303 -0.14688991
0000e0 4b 3c f9 3d 87 dc 77 3e f8 61 af bc 36 5a a3 3d
       0.12169703 0.24205218 -0.02140902 0.07976191
0000f0 ad 85 51 be c3 0f 04 be f2 91 46 be 5b fd ac 3d
       -0.2046115 -0.12896638 -0.19391611 0.08446761
000100 e9 24 21 3e
       0.15736736

conv1_ext.fc.weight f4 [16, 48]
000000 53 96 e8 3e 67 88 4f be f3 99 be 3e 06 41 63 3e
       0.45427188 -0.20266877 0.3722683 0.22192773
000010 92 59 68 3e 8b ca b5 be 2c de c2 3d e5 40 52 bf
       0.22690418 -0.3550609 0.09515032 -0.8213027
000020 eb e8 eb 3e 5f 59 d7 3d 00 62 31 3e b5 a0 88 3e
       0.4607614 0.10515093 0.1732254 0.2668511
000030 23 3b 0c bf a4 89 9e 3e 01 a1 f9 be 0e eb 7c 3e
       -0.54777735 0.30964386 -0.4875565 0.24699041
000040 9e 6d 8c bd 45 f4 e6 be f5 56 f2 be c2 6d 94 be
       -0.06856845 -0.45108238 -0.47331968 -0.2898999
000050 3d 5b c0 bd bd 8e 09 3e 50 06 98 be dc 12 8a be
       -0.09392402 0.13433357 -0.29692316 -0.26967514
000060 07 61 96 bd 1d d7 51 bd 88 3c 09 be 00 1d f5 3b
       -0.07342725 -0.05123054 -0.13401997 0.0074802637
000070 2c d4 0b 3e 02 4b 9b 3c a8 57 18 3d 0b 58 32 be
       0.13655156 0.018956665 0.03719297 -0.17416398
000080 37 da bd bd 4d ff 4a 3d ea 8c 97 bd c9 3e 2b be
       -0.09270137 0.04955988 -0.07399924 -0.1672317
000090 3e 2a cd 3d 0c e0 32 3e 16 ea 6c 3e bf ec 1b bc
       0.10017823 0.1746828 0.23136172 -0.009516894
0000a0 f1 09 59 be 81 ac a3 bd 44 b4 f5 bd db d8 6f be
       -0.21195199 -0.07991887 -0.119972736 -0.23422568
0000b0 05 db 40 bd a7 99 0a be c8 8c 1e bd 3e 0f cf bd
       -0.047083873 -0.13535176 -0.03870848 -0.10110329
0000c0 4d a9 13 3f 48 f2 ae bb 95 fd ea be d2 03 d6 3d
       0.5768021 -0.005338941 -0.45896593 0.104499474
0000d0 7c 85 9c 3e 1a 30 14 be 2d 4f 9e 3e b8 61 fa 3f
       0.3057059 -0.14471474 0.3091978 1.9561071
0000e0 ca 9f 5d bf ea b7 89 3d d3 e0 45 3f 8f dd 06 3f
       -0.86571944 0.06724532 0.7729618 0.5268182
0000f0 3a 6e 25 3f fe 7a 4f 3e d5 d8 8f bf 31 64 92 3c
       0.6462132 0.20261762 -1.1238047 0.01787004
000100 08 c7 e2 bc 16 d2 0a bd 19 33 f6 bd 0f ca 40 bf
       -0.027682796 -0.03389176 -0.12021465 -0.75308317
000110 17 ba 99 3e b0 a7 20 3e 76 c1 76 38 48 47 1e bf
       0.30024788 0.15688968 5.8831145e-05 -0.61827517
000120 73 34 3b bd 89 bc a5 bd 3e a8 80 bd 9b 53 82 bd
       -0.045704316 -0.08092601 -0.0628209 -0.06363603
000130 64 f2 48 3e a6 bd 7d be 8b fb 26 3e 0b b7 23 3e
       0.19623715 -0.24779376 0.16306894 0.15987794
000140 8c fb 4e bd ef b9 52 3e 81 c4 1d 3e 03 cc b3 3e
       -0.050532863 0.2057874 0.15406992 0.35116586
000150 55 1c 9d be ea 60 88 3d a9 97 af 3e 6b cd 50 3c
       -0.30685678 0.0665911 0.34295395 0.012744288
000160 e4 f1 97 3e be c0 71 3d 4d 40 eb 3d 78 ee 6a bd
       0.29676735 0.059021704 0.11486874 -0.057356328
000170 54 a0 64 be 56 69 93 bd 5a fa 82 3e 0b 2c 88 3a
       -0.22326785 -0.071978256 0.25581628 0.0010389102
000180 2f 6a 9f 3e 22 03 63 be 43 60 a7 3c 1e e5 30 3c
       0.311357 -0.22169164 0.020431643 0.010796813
000190 d4 ec 25 3f 72 a4 34 bf df 16 09 bd 75 25 4b bf
       0.64814496 -0.70563424 -0.033469077 -0.7935403
0001a0 da 26 9b 3d 92 0e 97 be b3 7b 72 3e ac 6e cc 3e
       0.0757577 -0.29503304 0.2368 0.39928186
0001b0 48 f5 f3 3d af de e8 be 0e 7f bc bd cd 03 d2 3d
       0.11912018 -0.45482394 -0.09203921 0.10254631
0001c0 0f 34 52 be d1 3d db be fc ff ba be 3c 58 8b be
       -0.20527671 -0.428206 -0.36523426 -0.27215755
0001d0 36 70 a9 3d c1 bb fa bd 68 85 9e be 1a f6 a2 be
       0.08273356 -0.122428425 -0.30961156 -0.31828386
0001e0 a7 c9 0b 3d 3d 0d 34 3e 71 f5 6d bd b3 4c d9 3d
       0.034127858 0.17583175 -0.0580954 0.10610332
0001f0 a9 3d 4d be 3e 4b 09 3e 0a 4f f2 3d f7 99 21 bd
       -0.20043053 0.13407609 0.11831482 -0.039453473
000200 92 79 75 3e fa 04 39 3c d2 f2 8c 3c 80 b8 14 be
       0.23972157 0.01129269 0.01720563 -0.14523506
000210 92 40 4a bd 2a d4 96 3d 87 53 1a be b7 04 85 bd
       -0.049377985 0.07364686 -0.15070926 -0.0649504
000220 59 5a e6 3d 67 c2 28 3d 8e 5b fd 3d 13 a1 b6 bd
       0.11247701 0.04120102 0.12370978 -0.08917441
000230 b3 4a 95 bd c4 4b 04 be 76 77 75 3c b2 ce f7 bd
       -0.07289638 -0.12919527 0.014982095 -0.12099971
000240 ca ed e8 bd 53 57 8d be 51 67 41 3e 7e b5 c3 bf
       -0.1137348 -0.27605686 0.18887068 -1.5289762
000250 00 36 0a 3f b6 7b 79 bf 01 35 13 3e 6e 2e 06 bf
       0.5398865 -0.9745439 0.14375688 -0.52414596
000260 93 dc 1c be 21 fc 4f 3d 25 22 a8 3b eb 79 83 3e
       -0.15318517 0.05077756 0.0051310235 0.25678954
000270 18 9a 39 be 92 d3 7e 3d e9 80 c6 3e 8b 3e bf be
       -0.18125188 0.062213488 0.38770226 -0.37352404
000280 cf ac 11 bf ce c0 1d 3d 96 86 0c 3d cb 75 17 bd
       -0.5690431 0.03851395 0.03430804 -0.03697757
000290 ab 74 3f 3d 43 e8 b6 bd b2 35 ef bd d2 68 8a bd
       0.046742123 -0.08931019 -0.116801634 -0.06758274
0002a0 d5 99 c7 3c 5b 17 6d 3d 4b b0 91 bd 00 31 00 bc
       0.024365345 0.0578836 -0.07113703 -0.0078241825
0002b0 1c ad c6 bd 0e fd 06 3e 5c 27 42 3e d8 6c c2 3c
       -0.09700987 0.1318247 0.18960327 0.023733541
0002c0 0e c9 a4 bd cf 34 5c bd 30 34 40 be ff 50 96 3d
       -0.08046161 -0.0537613 -0.18769908 0.073396675
0002d0 b3 02 64 be a6 08 c6 3e b4 6e 4c 3d 5c d5 35 3e
       -0.22266655 0.38678473 0.049910262 0.17757171
0002e0 69 ed 50 3e 90 c0 00 3e 4c a0 15 3d 0f 89 0f be
       0.20403065 0.12573457 0.036529824 -0.14017127
0002f0 6c 30 27 be e3 40 77 bd 75 86 06 be e5 c5 be bd
       -0.16327065 -0.060364615 -0.13137229 -0.09315089
000300 64 09 eb bc 85 d3 61 be 3d b7 65 be ad a6 48 bf
       -0.028691001 -0.22053345 -0.22433181 -0.7837933
000310 7d aa 1b bf 4f 8f 55 3d 68 47 9e 3e 5d a5 0d 3f
       -0.6080702 0.052138623 0.30913854 0.5533045
000320 66 a2 0d 3f 5e 16 0f 3e 75 24 59 3d 6e fc cd be
       0.55325925 0.13973376 0.053013284 -0.4023165
000330 e6 f8 38 3f f6 61 a1 bf 46 f1 4b 3d 40 ad 8a be
       0.7225479 -1.260802 0.049790643 -0.27085304
000340 7b 20 0c be b5 dd 7e 3f 9b 01 3e bf 0f 65 56 be
       -0.13684265 0.9955705 -0.742212 -0.20936988
000350 8d 32 4b bd da d9 e8 bd 62 ab 97 bd 6d 4f 41 be
       -0.049608756 -0.11369677 -0.074057356 -0.18877955
000360 de d7 67 3d b5 d4 4a 3d a8 59 e6 3d 5c 51 57 be
       0.05660235 0.04951926 0.11247569 -0.2102713
000370 b9 ad 71 bd b9 bd 96 3d bd 48 86 bd 2e c9 c8 3d
       -0.059003565 0.073604055 -0.065568425 0.09803997
000380 01 84 0c bd 15 5e bd bc fa 33 4c 3c c6 df 8f 3e
       -0.034305576 -0.02311615 0.012463564 0.28100413
000390 11 a2 a9 3e ee 1c 14 3e f1 fa 62 be b7 da ba bd
       0.3313146 0.14464161 -0.22166039 -0.09123748
0003a0 29 c4 3c be 57 42 d6 3e de db 23 3e 09 de a8 bd
       -0.18434204 0.41847488 0.16001841 -0.08245475
0003b0 e6 18 9f bd 97 9f 70 be 95 e5 18 3e 70 13 93 3d
       -0.07768421 -0.23498379 0.14931329 0.07181442
0003c0 20 c6 85 be 59 3b 1f bf 21 ae 75 3d 6a c0 48 bf
       -0.2612772 -0.6219993 0.059980515 -0.784186
0003d0 bc ef 09 3e fa d0 38 bd 3d 7c 16 3e 25 8f e2 3e
       0.13470358 -0.04512117 0.1469583 0.44249836
0003e0 70 cd 96 bd 41 43 35 be 6d cd 62 3d 85 5a 56 bf
       -0.07363403 -0.17701437 0.05537169 -0.8373187
0003f0 2d f1 a0 3e ef 9d f8 bd fa 58 b4 3e 1f 6c d0 be
       0.31434003 -0.121394984 0.35224134 -0.4070749

conv1_ext.fc_attention.weight f4 [1, 33]
000000 ae 71 1e be 3a 2d 2e be 59 75 9f 3e 35 59 a1 3d
       -0.15473053 -0.1700944 0.31144217 0.07878343
000010 e8 93 61 3e d0 7c e2 be 73 65 ae 3e f8 37 c1 3d
       0.22029078 -0.4423585 0.34061775 0.09434503
000020 61 5e 28 be 8f 34 6d 3e e3 9d 3d be 83 b1 3d 3a
       -0.16442253 0.23164581 -0.1851726 0.0007236229
000030 f8 5c 7f 3e d7 c0 a7 bd 86 a8 99 3e b9 da 3c 3e
       0.24937809 -0.08191078 0.30011386 0.18442811
000040 95 2f 87 3d 93 fa 2f 3d 34 7e 19 3e cc 4c 8c 3d
       0.066008724 0.042963576 0.14989549 0.06850585
000050 56 c6 e1 3d 85 f8 38 be 84 ee 1b bd 6d de 55 bb
       0.11024158 -0.18063553 -0.038069263 -0.0032633797
000060 e9 cc 02 3e 7b 0c bc 3d 83 46 ef 3d 29 a7 a0 bd
       0.1277348 0.09182068 0.11683371 -0.07844383
000070 b0 b2 9b 3d 1d b0 53 be 73 a5 7f 3d 3b ad 2c 3d
       0.07602441 -0.2067265 0.062413644 0.042157393
000080 9b 0d 0b 3f
       0.54317635

conv2_ext.fc.weight f4 [32, 16]
000000 8f e0 99 bd cf 85 56 bf 8d 5e ac be bc ee 87 3e
       -0.07513534 -0.83797926 -0.33665887 0.26549327
000010 d8 09 6c 3d b4 8d 51 3e 74 53 85 be ab fb e8 be
       0.057626575 0.20464212 -0.26040232 -0.45504507
000020 e4 2d a9 3d e8 2b ca be c8 58 16 3e a9 06 dc bc
       0.08260706 -0.39486623 0.14682305 -0.026858645
000030 c4 58 40 be 3a 6a 3e be 9a d7 2a be 35 65 5a 3e
       -0.18783861 -0.1859521 -0.16683808 0.2132767
000040 5a 52 e7 bc 22 ea 07 bf 41 03 e0 3d f7 5d 73 3e
       -0.02823751 -0.53091633 0.10938121 0.23766313
000050 5a c6 90 3d bb b5 8b bd a8 67 85 bc ac cc a6 bd
       0.070690826 -0.06821772 -0.016284779 -0.08144507
000060 04 f8 4c be aa fa 03 bd e9 d8 02 be f8 b9 5c be
       -0.20016485 -0.032221474 -0.12778057 -0.21555316
000070 79 04 0b 3e 03 79 36 be 3c 13 c8 3d 75 d6 80 bc
       0.13575925 -0.178196 0.09769294 -0.015727261
000080 a7 7d c0 be 22 d8 9a be e6 aa ab 3d cf 51 1d bd
       -0.37595865 -0.3024302 0.08382206 -0.038408097
000090 60 f7 1f 3d 99 11 68 bd 1d 56 bf 3d f0 29 8a be
       0.039054275 -0.056657407 0.09342597 -0.2698512
0000a0 f1 4b 27 3e ec 48 8d 3d d5 35 08 3d 68 41 5d be
       0.16337563 0.06898674 0.033254463 -0.21606982
0000b0 d8 39 2b 3e d4 f1 9d be 8b 82 93 bd bf 90 fa 3d
       0.16721284 -0.30848563 -0.072026335 0.122346394
0000c0 99 29 0f be 5f f4 1b bf 44 5b c6 3d 29 3f 9e bd
       -0.13980712 -0.60919756 0.09685376 -0.077268906
0000d0 fe 48 83 bd f3 c8 42 be 27 26 a3 3d fc 8a ae 3d
       -0.064104065 -0.19021969 0.07966261 0.08522603
0000e0 30 d1 e7 bd 77 ed ab 3e 8c 1d 86 be be 56 d1 3c
       -0.11319196 0.3357961 -0.26194417 0.025554057
0000f0 ed e8 ba bd 75 60 69 3d 3a 7a 7f 3d f9 9e 9d 3e
       -0.09126458 0.056976754 0.062372424 0.3078535
000100 44 56 bd bd 59 f0 a3 3e 28 7a 35 3c b2 fc 28 3d
       -0.092449695 0.32019308 0.011076488 0.041256614
000110 61 af b8 be 87 cf 34 be f7 87 3c 3e 17 35 c9 be
       -0.36071303 -0.1765729 0.18411241 -0.39298317
000120 6e 54 90 3d d1 12 cb 3d 38 d8 5c bd 93 8b 38 3e
       0.07047354 0.09915698 -0.05391714 0.18021993
000130 7e fe 8a be 77 50 45 be 15 8c 8c 3e df e3 cc bb
       -0.27147287 -0.19268976 0.27450624 -0.0062527503
000140 0f 3f 8b 3e 99 fe ff be 2b b0 94 3d c1 18 45 3e
       0.27196547 -0.4999893 0.07260164 0.19247724
000150 b8 57 fd bd 5a 9e c1 bd cf 57 0c bf f3 ed f0 be
       -0.12370247 -0.09454031 -0.54821485 -0.4705654
000160 6d c4 82 bd 43 fc 2e be e2 f0 c0 3e e9 10 22 be
       -0.063851215 -0.17088418 0.3768378 -0.15826763
000170 85 f5 13 be a2 75 2b bd 31 ce 09 be 90 41 e3 be
       -0.14449127 -0.04186023 -0.13457562 -0.44385958
000180 31 79 ff bd c8 33 64 3f 6d 79 50 be c7 d4 7e 3e
       -0.12474287 0.8914151 -0.2035882 0.24885856
000190 9b e3 82 3d c7 e8 fb be 37 f8 7a 3e de cd a3 3d
       0.063910685 -0.49201033 0.24508749 0.079982504
0001a0 eb 7c 55 bc 4d 62 86 3e 8a d2 e3 be 52 2e 1a be
       -0.013030271 0.26246873 -0.44496566 -0.15056732
0001b0 45 7c 2a 3c 12 e6 73 3e 75 fc 1b be d3 a3 cb 3d
       0.010405605 0.23818234 -0.15233023 0.09943356
0001c0 4a 97 9d 3e f2 b1 f9 be a7 98 03 3e f3 59 81 be
       0.30779487 -0.48768574 0.12851201 -0.25263938
0001d0 e4 93 61 bd 1e cb e7 3d d0 f8 11 3e 2a 98 67 3e
       -0.05507268 0.113180384 0.1425507 0.2261664
0001e0 b0 10 90 be 74 cb e8 3a fa 93 65 be 98 9c 77 be
       -0.28137732 0.0017760829 -0.2241973 -0.2418083
0001f0 c1 4a 44 3b 32 95 6d bd 4b d1 43 3e 1f 74 8e be
       0.0029951783 -0.058003612 0.19122808 -0.27822968
000200 09 77 7c bd db 85 d1 3d dd a0 8d 3d 50 a2 16 3d
       -0.06163696 0.10230609 0.06915448 0.036775887
000210 ad f3 8d 3e f6 59 06 be cb 12 6a be 38 6b 31 3e
       0.27724972 -0.13120255 -0.22858731 0.17326057
000220 ee d6 09 3e ea 9f 15 be d8 08 6f 3d 61 8c 13 3d
       0.13460895 -0.14611784 0.058358043 0.036022548
000230 63 d2 8a be 81 ab 21 be 3d a1 14 be f2 8d dd bd
       -0.27113637 -0.1578808 -0.14514633 -0.108180895
000240 80 7f 5b 3e 65 66 52 bf 34 f3 75 3e 76 b5 32 be
       0.21435356 -0.8218749 0.24018556 -0.17452034
000250 41 e7 7c 3e 08 15 19 3e 22 76 b6 be 8e c7 bd 3e
       0.24697591 0.14949429 -0.35637003 0.3706631
000260 80 16 47 be 42 94 44 3d 31 38 28 3c a0 ce d7 bd
       -0.19442177 0.047992952 0.010267303 -0.105374575
000270 5e 55 7b be 49 59 73 3e ab c1 78 be 98 69 43 3c
       -0.24544284 0.23764528 -0.24292628 0.011927031
000280 cd 7e 1b 3d 90 0c 0f bd 24 76 88 3d 34 e3 5e 3e
       0.037962724 -0.03492409 0.066631585 0.21766359
000290 01 ad ea be 2d b1 95 be 49 a5 ab be 0e 29 5a be
       -0.45835117 -0.29236737 -0.3352454 -0.21304724
0002a0 c4 72 d2 bc 47 0d 79 bd 72 ca e7 3d 0f df 06 3d
       -0.02568949 -0.060803678 0.1131791 0.03292757
0002b0 c9 7c 9f bd 9d 6d c5 bd 14 3e e8 3d bd 01 36 bd
       -0.07787473 -0.09640048 0.113399655 -0.04443525
0002c0 35 17 a9 be 8e 7d 54 be 74 df 00 bc 45 b9 92 be
       -0.33025518 -0.2075102 -0.007865775 -0.28656974
0002d0 c7 9e 91 3d ec 62 4e 3e e8 36 a3 3e f5 11 e3 be
       0.071103625 0.20154923 0.31877828 -0.44349638
0002e0 06 cf 3d be 83 85 06 bf 59 22 37 3e 41 fd 91 3d
       -0.18536004 -0.5254747 0.17884196 0.071283825
0002f0 9e 6d 48 be f3 5f 6f 3e ad 73 e8 3c 86 ba d8 bd
       -0.19573066 0.23376445 0.028375471 -0.105824515
000300 b3 f2 d7 bd 51 fc 02 be b2 b2 a1 bc 2d 03 94 3e
       -0.10544338 -0.12791564 -0.019738529 0.28908673
000310 29 0e 7b be 69 a1 54 bd 60 c1 01 bf fd 69 af 3d
       -0.2451712 -0.051911745 -0.5068569 0.085651375
000320 59 e6 de bd bd 4e 30 3e ef ef be be eb 89 fe bd
       -0.10883779 0.17217536 -0.3729243 -0.124286495
000330 f3 ac 89 3e 7c 6f 0c bf ec b7 40 be f5 d8 fd bd
       0.26889762 -0.5485761 -0.1882016 -0.12394897
000340 82 5a e7 be 64 51 15 bf 32 64 c6 3d 1f ab 13 3e
       -0.4518624 -0.5832732 0.096870795 0.14420746
000350 76 e6 1a be 32 cd 36 3e ad 3d 60 3e 97 b4 18 be
       -0.15126976 0.17851713 0.21898527 -0.1491264
000360 5a 4b 3d bd b4 8d fb bd 45 0f 94 bd ac 7e b5 be
       -0.04621444 -0.12282887 -0.07229475 -0.35448205
000370 f5 75 df 3d 0c ab 60 be a3 26 5d 3e f4 5f c6 3d
       0.109111704 -0.21940249 0.2159677 0.0968627
000380 94 9a 8c bd 14 22 86 be 1a 3d 84 bd c4 34 3c bd
       -0.06865421 -0.26197875 -0.06456967 -0.04594876
000390 b0 38 81 3e 50 bf 4a be 42 94 c3 3c b3 0a 82 3e
       0.25238562 -0.19799542 0.023874406 0.25398788
0003a0 4c 02 fd 3c 21 d8 1c bf 14 12 77 bd 0e 7e ba bb
       0.030884884 -0.61267287 -0.060319975 -0.0056912964
0003b0 da d9 5e bb 7e df 0a be 62 5f b6 bd ee 89 78 3e
       -0.0034004361 -0.13561818 -0.089049116 0.24271366
0003c0 4a f9 22 be 16 b0 07 bf e0 8f 50 3d fc b6 ac be
       -0.15915409 -0.5300306 0.05091846 -0.33733356
0003d0 61 22 a1 be c9 78 85 bc da 0a 93 3e 7f 21 cc 3e
       -0.31471542 -0.016292946 0.28719217 0.39869305
0003e0 8c 38 81 3e df 23 63 3e 0f 44 63 3e ca b8 a0 bd
       0.25238454 0.22181652 0.22193931 -0.07847746
0003f0 22 67 25 bd b8 8c 46 bc b0 18 a2 bd e4 28 12 3d
       -0.04038156 -0.012118511 -0.07914865 0.035683528

conv2_ext.fc_attention.weight f4 [1, 65]
000000 9b ea 7b 3c f6 a6 f6 3e 21 4c bf 3e 50 ec bd 3e
       0.0153757585 0.48174256 0.3736277 0.37094355
000010 cc 4d bf bc 17 cb 85 be fe 30 5e 3e f7 28 06 bc
       -0.023352526 -0.26131508 0.21698377 -0.008188478
000020 8d 50 a3 be 70 3a 3e be 08 15 87 bd 12 f9 9b bc
       -0.31897393 -0.1857698 -0.06595808 -0.019039664
000030 4b 1a 71 3e 20 0e fa 3e 0a c8 44 be 35 f8 e3 bd
       0.23545186 0.48838902 -0.19216934 -0.11131326
000040 89 e6 29 be a4 15 0f 3f 52 24 51 3e 89 f5 4f be
       -0.16591848 0.55892396 0.20424011 -0.20308508
000050 c0 20 ba be c5 19 3b be ca 95 b2 bc b7 bc ba bd
       -0.3635311 -0.18271549 -0.02179994 -0.09118026
000060 66 c2 d1 3e b5 73 04 bf 2e ab a0 bb 07 1a d3 3d
       0.40968627 -0.51739055 -0.0049032187 0.10307699
000070 b4 78 ca 3e af 00 f5 be 76 12 00 bf 05 7c 76 3e
       0.39545214 -0.47852084 -0.5002817 0.24070747
000080 f0 d1 57 be 61 a8 5e be 45 6e 06 3e 6b 23 55 3e
       -0.21076179 -0.21743919 0.13128002 0.20814292
000090 b0 0e 48 be 6e 05 2e bf 71 8e 8e 3d 99 9e 97 be
       -0.19536853 -0.67977035 0.06960762 -0.29613188
0000a0 36 e2 47 3d a7 c5 58 be 71 3a a5 be 02 b1 73 3b
       0.048799716 -0.21169148 -0.3227115 0.0037184362
0000b0 42 eb 77 be b7 e4 9c 3d 92 65 1b 3e c6 12 13 3e
       -0.24210837 0.076608114 0.15175465 0.1436263
0000c0 24 96 53 3d 08 fc 16 be ea 83 f7 3b e5 44 72 3e
       0.051656857 -0.1474458 0.007553567 0.23659094
0000d0 38 24 14 3e 03 48 e4 3d 69 08 86 be b4 30 20 be
       0.14466941 0.11146548 -0.2617829 -0.15643579
0000e0 97 df a4 3c c2 ba a9 be 92 9e 0c bd db 3b 9e 3e
       0.020126147 -0.33150297 -0.034330912 0.3090504
0000f0 b0 1b d5 3d 6b 69 55 bb 48 ef da bd 1a 19 c7 bd
       0.104056716 -0.0032564055 -0.106901705 -0.097215846
000100 85 02 cd bd
       -0.10010246

fc1.weight f4 [128, 64]
000000 ab e0 a0 3c d0 29 f2 bd 0c 89 3a 3e 3e a4 50 be
       0.01963838 -0.11824381 0.18216342 -0.20375153
000010 dd dd 42 3d 7a af 11 3e 16 8e 13 3e 66 70 11 be
       0.047574867 0.14227095 0.1440967 -0.14203033
000020 45 9e bf 3d 6c cd 6e be d2 f6 6d be dc 9c c0 3d
       0.093563594 -0.2332055 -0.23238686 0.094049186
000030 40 24 c3 bd a1 a4 6e 3c bb dc a5 3d a7 14 c2 bd
       -0.095283985 0.014565618 0.080987416 -0.09476595
000040 48 c2 53 be b2 a0 30 3e b0 f9 7c be 42 4b 3e be
       -0.20679581 0.172488 -0.24704623 -0.18583396
000050 cf 50 10 bd af 94 a3 3d bc 66 9d 3d 43 b3 9d bd
       -0.035233315 0.079873435 0.07685611 -0.07700207
000060 85 19 74 be f8 43 ce 3d 20 c6 37 bd b4 ab 65 be
       -0.2383786 0.10071558 -0.04486668 -0.22428781
000070 4d 2f 6d 3e 72 a4 21 bc ec 7d cd bd fb 35 06 3e
       0.23162575 -0.009865867 -0.10033783 0.1310653
000080 db 83 d0 bd d1 17 01 3e ed fc df 3c 1e c0 3a 3e
       -0.101813994 0.12606741 0.027342284 0.1823735
000090 f3 3f 79 bc 57 48 97 bd ae f2 c3 be 11 ad a1 be
       -0.015213001 -0.073868446 -0.38271087 -0.31577352
0000a0 4f 19 1d 3e cd 38 ce 3d 00 11 f0 bb 39 2f 4a 3c
       0.15341686 0.10069428 -0.0073262453 0.01234036
0000b0 2d aa 19 3d e7 e9 38 3d 70 b7 03 3e d0 cb 2d bc
       0.037515808 0.04514494 0.12862945 -0.010607675
0000c0 a9 ae 3d bd 07 0b 38 3d 32 4b da bb ad fc be 3b
       -0.046309147 0.04493239 -0.006661796 0.005828461
0000d0 bb 4f 19 be 9e ca b5 3b ef c5 e7 be 56 58 4f bc
       -0.14971821 0.0055478355 -0.452682 -0.012655338
0000e0 d6 a0 47 3d 20 34 0b bf bf 3f 1f bf b5 6e d6 3d
       0.04873737 -0.5437641 -0.62206644 0.104703344
0000f0 cf c8 9e bd 90 79 46 be 29 3f c7 3c f2 13 8b 3c
       -0.07753145 -0.1938231 0.02432211 0.016977284
000100 a1 19 3a 3e 71 ab b5 be 3b d5 9e 3b 95 be 31 bd
       0.18173839 -0.35482362 0.0048471964 -0.043394644
000110 f6 51 7a 3d 47 27 c7 be e9 cb ad be 28 d1 a6 be
       0.06111332 -0.38897154 -0.33944634 -0.3258145
000120 7d 05 3a 3e c4 0a 1f bf 2c 29 a9 3c b1 ae 0f bf
       0.18166156 -0.621258 0.020649515 -0.5612593
000130 ab 4e 5e be 44 1c ba 3c be 4c b6 3d 20 ed 89 be
       -0.21709697 0.022718556 0.08901356 -0.26938725
000140 ac 22 6c be 86 9a 6b 3b 7f 5e 1d bf 4d 00 1f be
       -0.23060101 0.0035950257 -0.61472315 -0.15527458
000150 90 42 81 3d 40 3c 11 bf f3 72 3b 3e 21 35 1e bf
       0.06311524 -0.5673256 0.18305568 -0.6179982
000160 18 64 7f be cf 30 a6 3d aa 12 cf bc 1b bf 96 be
       -0.24940526 0.08114778 -0.025277454 -0.29442677
000170 08 a3 0e bf 9b 3e a1 be db 0e ef be 8f a7 df 3d
       -0.55717516 -0.31493077 -0.4669102 0.10920631
000180 2b 1b 9d be 9d 4d 47 3b f2 e7 bc be bb 9f 33 bf
       -0.3068479 0.0030411251 -0.3689571 -0.70165604
000190 bf dd ff bd b3 d0 47 be c8 d3 c3 3e d0 46 d4 3d
       -0.124934666 -0.19513206 0.38247514 0.10365069
0001a0 8c 5d e2 bb 7c 2e c7 3d 42 dc fe 3d bf ff 8a be
       -0.0069081243 0.09725663 0.124443546 -0.27148244
0001b0 e3 f2 01 3e 83 f9 e7 be 68 20 18 be df 2b 5f be
       0.1269031 -0.4530755 -0.14856112 -0.21794079
0001c0 45 77 ce be 23 70 e4 be f1 9f 0c bf 31 f1 91 bd
       -0.4032537 -0.44616804 -0.5493155 -0.07126082
0001d0 1d 0e 0d 3e 93 fd 5b be cf 2b 17 bf 74 d2 5b bc
       0.13774915 -0.2148345 -0.5905122 -0.013416875
0001e0 7b 19 92 3e 18 42 be 3c eb 40 1f bf 93 6e 93 be
       0.28535065 0.023224875 -0.6220843 -0.287953
0001f0 ba 4e a1 bd 61 19 ad 3d 99 6a 9d 3e f4 4e 5b bd
       -0.07876344 0.08452106 0.3074539 -0.053542092
000200 49 ea 60 3d df 17 4c be 91 8c 7c 3e 0d e7 83 be
       0.05491093 -0.19930981 0.24662997 -0.25762215
000210 80 3c 36 3d 5f 83 14 3e 68 e9 c8 3d 26 b6 b1 3c
       0.04449129 0.14503239 0.09810144 0.0216933
000220 b8 72 22 bd d4 05 54 be 1f 0c 5b be 05 cb 1e 3c
       -0.039660186 -0.20705348 -0.21391343 0.009691958
000230 55 e9 6d 3d 90 3a 09 3e 46 ae a3 3d eb f1 b3 3c
       0.05808385 0.13401246 0.079922244 0.021965941
000240 3c b4 89 be 83 10 95 bd 13 f6 55 3d 9a 8b 8f be
       -0.2689532 -0.0727854 0.052236628 -0.28036195
000250 d6 26 e0 bd e7 b5 9a 3e 06 6a fb 3d 88 e4 4f 3d
       -0.10944907 0.30216905 0.12276082 0.050755054
000260 2a ae a5 be 62 0f 07 3e 35 ce 3c be 71 46 bd bd
       -0.3235944 0.13189462 -0.18438037 -0.09241951
000270 a8 b5 d0 3d b6 e2 30 be a8 77 3c be 1e 2c ac bd
       0.10190898 -0.17273983 -0.1840502 -0.08406852
000280 b5 c7 27 bd f6 5e ca ba 8e c3 1f bc fb 6a 6f 3b
       -0.04096194 -0.0015439678 -0.009751214 0.0036532271
000290 57 96 0a be 1d 06 c6 bc 2a 97 ee bd b0 95 a5 be
       -0.13533913 -0.024172837 -0.11649926 -0.32340765
0002a0 36 34 e4 bd 37 df 1f 3d 29 f0 28 be 0c a6 d3 be
       -0.11142771 0.039031234 -0.16497864 -0.4133762
0002b0 ab ef ef 3b 28 3f 1b 3e 96 d8 ca 3d 95 d9 b9 3d
       0.007322272 0.15160811 0.09904592 0.090747036
0002c0 f7 9f 39 bd 6d 7f 04 3e 1a 0b 08 3e b6 e5 4b be
       -0.04531857 0.12939234 0.13285485 -0.19911847
0002d0 a2 a4 c4 be 77 e7 4c be 03 ea d4 be 5a 0d 58 3d
       -0.38406855 -0.20010172 -0.41584787 0.052747108
0002e0 5d 5a 31 3d 0c ad 9e bd 53 14 54 be ae b9 2b bc
       0.043299068 -0.0774785 -0.20710878 -0.010481281
0002f0 dd 66 17 3e 58 fb 15 be 43 de fb bd a6 95 14 3e
       0.14785333 -0.14646661 -0.122982524 0.14510211
000300 30 08 b1 3d 54 d6 8c 3d e9 85 76 3e 2f 90 4e be
       0.0864414 0.06876817 0.2407452 -0.20172189
000310 16 63 29 3d e5 61 80 3e 19 8b b5 3d 5b b9 3a be
       0.04135426 0.25074688 0.088644214 -0.1823477
000320 3e 7c 38 bd e9 00 84 bd 21 5d f4 be 74 ed 03 3e
       -0.04504036 -0.06445486 -0.47727302 0.1288355
000330 93 fa a1 3d 37 d1 df 3c cc 87 18 3e ab 20 b1 3d
       0.07909121 0.027321441 0.14895552 0.08648809
000340 a1 43 14 be e1 c9 d1 bd d5 df 2d be 11 85 b7 3c
       -0.14478923 -0.102435835 -0.16979916 0.022402318
000350 e9 f1 19 be 63 af 75 3e b1 1b 9f 3d 28 30 ba 3c
       -0.15033688 0.23992686 0.077689536 0.02272804
000360 32 4f a2 be dd 95 05 3e d7 b4 0e be 92 56 0c be
       -0.31701046 0.1304545 -0.13936172 -0.13704899
000370 1d 6f 39 3e fe d9 be be 3b a1 0f be 49 4a b3 bd
       0.18108793 -0.3727569 -0.14026348 -0.08754403
000380 cc 75 8f 3d 92 41 8b 3d 84 ec 29 3b 6d e6 be 3d
       0.0700489 0.06799616 0.0025928328 0.09321294
000390 0e ae cd bd 56 ed 0a be f2 f9 96 be 98 46 90 be
       -0.10042964 -0.13567099 -0.29487568 -0.2817886
0003a0 26 c2 a7 bd aa b8 fb 3c 47 10 ce bd 65 b2 df be
       -0.08191328 0.030727703 -0.100616984 -0.43690792
0003b0 84 51 15 3e 19 93 e6 3c 2b 35 83 bd 6e 31 0e 3e
       0.14581877 0.028146314 -0.06406625 0.13886043
0003c0 10 b3 01 bd 96 70 2a 3e ce 1e 83 3d 08 2b 3e be
       -0.031664908 0.1664451 0.0640236 -0.18571103
0003d0 e9 95 1e be fb d0 2e be 53 d8 ea be 9b da 83 bd
       -0.15486874 -0.17071907 -0.45868167 -0.0643818
0003e0 d1 d7 c6 bc eb af 38 be c5 8f a0 be 32 e1 91 bd
       -0.024272831 -0.18035857 -0.31359687 -0.07123031
0003f0 59 f2 03 3d 0e d2 b9 bd 74 fa 1d be 64 b4 ea 3d
       0.032213543 -0.09073268 -0.15427572 0.11460188

fc1.bias f4 [128]
000000 ea ad 93 3a e2 c9 91 3d 74 16 f9 bc b8 27 c8 bd
       0.001126704 0.07118584 -0.030406214 -0.09773201
000010 75 5b 0a bd 28 96 aa bd 7a 13 ab 3c 1d 78 18 be
       -0.033778626 -0.08329421 0.02088331 -0.1488957
000020 ec 03 09 be b9 31 52 3e be cf 36 bd 26 e6 c0 bd
       -0.13380402 0.2052678 -0.044631712 -0.09418897
000030 74 2f ce 3c 9c 84 2d 3e fe 83 04 3b e5 11 09 be
       0.025169112 0.16945118 0.0020220275 -0.13385732
000040 f9 af a5 bd 6e 3a 1f be eb 40 32 3e 40 66 ff bd
       -0.08090205 -0.15549633 0.17407577 -0.124706745
000050 d1 29 ed bd e4 30 6a 3c 8f c2 72 3e d2 3b e5 bd
       -0.115802415 0.014293883 0.2370703 -0.111930504
000060 45 7c 90 3c d6 f9 df bd 0e 8c b8 bd 27 5e 19 be
       0.017637381 -0.10936324 -0.09011088 -0.14977323
000070 31 50 01 3d 06 f0 ed bd ab 00 e9 bc 64 9b f2 bd
       0.031570617 -0.116180465 -0.028442701 -0.11846045
000080 da 92 3e be 47 49 9b 3d e0 fd 87 3d b5 88 e9 bd
       -0.18610707 0.07582336 0.0664022 -0.11403028
000090 a2 65 0e be a6 56 c6 bd 44 89 db bd 6b e6 04 3d
       -0.13905957 -0.09684496 -0.10719541 0.032446306
0000a0 d7 09 4d 3c c8 b8 10 be 1b ab d5 3d b7 f1 d4 bd
       0.012514553 -0.14132988 0.104330264 -0.10397666
0000b0 fe a6 bb bd 83 52 ab bd e4 ee 02 be 15 04 81 bd
       -0.091627106 -0.08365347 -0.12786442 -0.06299607
0000c0 75 a5 10 3d e6 13 9e be 4d 4a ca bd 4f 42 fa bd
       0.035314042 -0.30874556 -0.09877453 -0.122196786
0000d0 48 73 ca bc 00 1b ec bd e3 51 73 3e a4 fe c5 bd
       -0.024713174 -0.11528587 0.23761706 -0.096677095
0000e0 93 22 84 bd 13 5e 35 3e e5 0d 98 bd b6 fc a1 3d
       -0.06451907 0.17711668 -0.07424525 0.07909529
0000f0 4f c8 2a bd ab 83 80 bd 3b 14 7b bd 8f 6e 1e be
       -0.041694935 -0.06275114 -0.06129859 -0.15471862
000100 da 9d 82 be 82 df 17 3d e1 79 52 3e d2 1f 87 3d
       -0.25511056 0.037078388 0.20554306 0.06597866
000110 84 e9 f5 bc 89 13 13 bd 33 3d d0 bd f5 c7 7c bc
       -0.030018575 -0.035907302 -0.10167923 -0.015428533
000120 bd 08 3a bd 40 b8 a0 3d 66 0c 9b bd 11 9c e7 bd
       -0.04541849 0.07847643 -0.07570724 -0.11309064
000130 60 98 4e bd a0 3e 23 bc 01 44 3f 3e 0e b6 8f 3b
       -0.050438285 -0.009963661 0.18678285 0.0043857163
000140 92 e2 46 bd 79 89 93 3c c2 da 52 3e fb fd 0a be
       -0.048555918 0.018009888 0.20591262 -0.13573448
000150 5f 28 8f bd cc 3b 97 3d 47 c8 0a 3c 9a e5 0b be
       -0.06990122 0.07384452 0.008470601 -0.13661805
000160 db ff 44 3d 7c 3f 11 be ea 74 bb bd 86 e9 2a bb
       0.048095565 -0.14184374 -0.09153159 -0.0026079132
000170 29 bf 5a 3d 21 b4 24 be 61 c2 63 bd 21 7e 63 3e
       0.05340496 -0.16084339 -0.055605296 0.22216083
000180 6f 0b 1e 3d c8 84 4f 3d 12 9b 74 3d 7d 78 75 be
       0.038585123 0.05066374 0.0597182 -0.23971744
000190 3a ff 92 3d 83 d1 38 be 22 16 cc bd 3e 99 09 be
       0.07177587 -0.18048672 -0.09965159 -0.13437364
0001a0 7d 2e ad 3c c0 ca da bd 38 d2 43 3d db 34 95 bd
       0.021140331 -0.10683203 0.047807902 -0.07285472
0001b0 7c 3a 39 3c 7e 79 48 bd 4f a0 5b 3c e8 8d cf bd
       0.011305448 -0.04894399 0.01340492 -0.10134488
0001c0 aa 0b 5a bd d4 ee 31 bb b8 35 f5 bd e1 16 06 bd
       -0.05323378 -0.002715041 -0.11973137 -0.032736663
0001d0 70 d5 c9 bd 07 56 40 be 80 a3 80 bd 7f e9 29 be
       -0.09855163 -0.18782817 -0.06281185 -0.16592978
0001e0 a6 1b 2a 3e 55 0e c6 3d 4f 50 68 3c 2f 1f de bd
       0.1661211 0.09670702 0.014179303 -0.108457915
0001f0 74 44 85 bb 14 ac 08 be 52 18 82 bd f4 cd 4f be
       -0.004066998 -0.13346893 -0.06352295 -0.20293409

fc2.weight f4 [1, 128]
000000 d6 1f a2 3d 5a 48 be 3e 34 f0 42 3d b5 1c 25 3d
       0.079162285 0.37164575 0.047592357 0.04031058
000010 8c ed ad bd d7 66 1f 3e 51 f3 15 be e8 81 0a 3d
       -0.08492574 0.15566574 -0.14643599 0.033815295
000020 64 99 e4 bd 7b 41 38 bc bc 19 c3 3c 23 3c 26 3d
       -0.111620694 -0.0112460805 0.023815982 0.040584695
000030 76 c7 0b be ec 54 ac 3e dd 67 1a 3d c4 f2 cb bd
       -0.13650307 0.3365854 0.037696708 -0.09958413
000040 92 9c 3c 3d e8 1e 15 3a 42 e6 23 be 08 9b c8 bd
       0.046047755 0.00056885043 -0.16005805 -0.09795195
000050 04 3e 9e bb 07 5f 89 3e 1c f1 37 bc c5 f9 bc bd
       -0.00482917 0.26830313 -0.011226919 -0.09227327
000060 21 59 0a be bc f9 f4 bd 9a ec 24 3d f4 11 0b be
       -0.13510562 -0.119616956 0.040264703 -0.13581067
000070 c1 1b 39 3d 8f 90 a2 bc 10 ef 4a 3d 3a 59 5f 3d
       0.045192484 -0.019844322 0.049544394 0.054528452
000080 b9 70 dd bd 3a 9a b6 bc 18 de 45 bd 47 69 20 3d
       -0.10812516 -0.022290338 -0.04830751 0.0391629
000090 52 d9 67 bb f8 78 72 bc fc fc 1c 3d e8 73 5b 3b
       -0.0035377336 -0.014799349 0.038327202 0.0033485834
0000a0 b0 76 de 3d f5 a7 23 bd 22 6a 45 3d 80 17 54 3d
       0.108624816 -0.0399551 0.04819692 0.051780224
0000b0 fb b1 54 3d 71 24 82 3d 3a 5d c6 3b 5f 2d 47 3d
       0.051927548 0.06354607 0.006053594 0.048627254
0000c0 80 d3 11 be c9 41 99 be 5d dd 7b 3c 88 62 4a 3d
       -0.14240837 -0.29933003 0.015372601 0.049410373
0000d0 f1 34 14 3d cf 77 43 bd 6b d9 72 bc 78 7e 69 bc
       0.0361833 -0.04772168 -0.014822344 -0.014251344
0000e0 62 ef 44 3d 8f 6f ab bd 43 a5 30 3d 32 46 84 bd
       0.048079856 -0.083708875 0.043126356 -0.06458701
0000f0 17 16 c6 bd 35 65 ad bd 58 57 28 3d 7f 70 dd bd
       -0.09672182 -0.08466569 0.041098922 -0.108124726
000100 e2 80 3a be d9 e7 2b be 77 09 97 bd 53 10 97 3e
       -0.18213227 -0.16787662 -0.07374852 0.29504642
000110 44 66 d6 3d aa 7f 20 bc 53 fb 5a 3d b2 c3 05 be
       0.10468724 -0.0097960625 0.053462338 -0.13062933
000120 10 80 4b 3d c1 07 0a 3e f8 bc 86 bc 58 5a 9f 3e
       0.049682677 0.1347952 -0.01644753 0.31123614
000130 3b f1 30 3d bb 0d 38 3d b5 57 02 be 20 80 20 be
       0.043198805 0.04493497 -0.1272877 -0.15673876
000140 b2 02 7c 3d 4f 06 df bd 8f 54 14 bc cb d0 a0 3c
       0.061526008 -0.10889875 -0.009053363 0.01963081
000150 a5 87 3d 3d 32 93 c2 3d 12 ee 79 bd 67 b2 2d 3d
       0.04627194 0.095007315 -0.061018057 0.042406466
000160 50 2e d7 3e 48 77 36 3d ec 2b c2 3c c3 f3 82 3d
       0.4202752 0.04454735 0.023702584 0.0639415
000170 77 05 fc bd 9e d9 45 3c ef 26 60 3d f5 d5 22 bc
       -0.1230573 0.01207581 0.05472463 -0.009938707
000180 19 14 b4 3c 6d 6a fd bd 91 c0 f9 bd f8 6d ef bd
       0.02198224 -0.12373815 -0.12194932 -0.11690897
000190 e9 4a c3 3e 49 11 08 be 08 80 a1 3c 9b 43 7e 3e
       0.3814309 -0.13287844 0.01971437 0.24830477
0001a0 d9 32 24 3b 58 4b 73 bd d8 76 05 be f2 ad 4c 3d
       0.0025054722 -0.059398025 -0.13033617 0.049970575
0001b0 0f bf 78 3d 33 a3 87 3c 56 d4 1d be 2e 60 80 bc
       0.060729083 0.016557312 -0.15413031 -0.015670862
0001c0 26 af 5a 3d a9 02 87 3d bc 0c 6e 3b 3e 29 51 3d
       0.05338969 0.06592304 0.0036323508 0.051064722
0001d0 c2 b7 a4 bd e5 1c ec bd 31 92 ea bc b7 c9 94 3c
       -0.080428615 -0.11528949 -0.028634163 0.018162591
0001e0 68 20 b8 bd 71 28 58 3e a9 ee b7 bd 1c d1 c4 bd
       -0.08990556 0.21109177 -0.08981068 -0.09610197
0001f0 6a 33 8a bc a9 79 5c 3d 23 1a 48 3d 82 a0 71 bc
       -0.01687022 0.05382696 0.04885305 -0.014747741
